results/2022_0313_2108/Fight/Fight-1987420.onnx (onnx, 542530 bytes, 10 tensors)

65 f4 [8]
0.26720172 0.10763913 3.883849 4.4546566 3.9943008 4.722742 0.18723322 0.54913145
00000000: aace 883e e771 dc3d fb90 7840 8c8c 8e40
00000010: a0a2 7f40 b420 9740 11ba 3f3e e193 0c3f

action_model._discrete_distribution.branches.0.bias f4 [4]
0.0018574371 0.020561123 -0.020347554 -0.0055074533
00000000: 3f75 f33a cd6f a83c eaaf a6bc de77 b4bb

action_model._discrete_distribution.branches.0.weight f4 [4, 256]
0.007879854 -0.03334628 0.0137219755 0.012285431 -0.01934943 -0.00782308 0.005823596 -0.040542573
-0.0057569067 0.006955894 -0.038056623 -0.01203175 0.012995598 -0.005094431 0.014954097 0.01289878
0.01242168 -0.016560586 0.013115979 -0.012373345 -0.010039265 0.013448898 0.00040732214 0.0022587979
0.022207709 -0.024061682 0.0068895523 -0.015815882 0.01825848 0.013336979 0.015649395 0.014109541
-0.04035601 0.015017079 0.011610416 0.00021714946 0.00071949296 0.005191525 0.02081315 0.01566493
-0.0011785756 0.013577222 0.020403989 0.0025289871 -0.003394347 0.0036317063 0.022755343 0.007876457
-0.0022828786 0.01944069 0.019582571 0.007962763 -0.028669793 -0.0010864907 -0.039482374 0.0072520007
-0.014489521 0.013884584 0.010413938 -0.010103559 -0.011474301 0.0005064827 0.0022902344 0.018031701
0.0035371238 0.013196187 -0.0055657146 0.030085845 -0.05228954 0.02101276 0.0030458174 -0.0118283015
-0.006780285 0.0152481375 -0.0018259825 0.006661643 0.0044415263 0.019436039 -0.024276884 4.4537377e-05
0.006658073 0.0013631756 0.016573751 0.0138354115 0.014262977 0.02709162 -0.011726168 -0.010964231
0.0085302 -0.011985444 0.00820253 0.018753178 0.01520319 -0.026992366 0.0064298064 0.021924233
0.01628931 -0.0071792146 0.014506677 0.012599103 -0.004772348 -0.0104237925 0.0044431547 0.01310935
-0.0072099706 0.020941604 -0.0020485085 -0.00040919433 -0.0013672451 -0.016177136 0.010569562 -0.0014918912
0.008004255 0.001892751 -0.032359216 0.021712545 -0.0018575815 0.020669928 0.009595403 0.014269374
0.01566573 -0.013184121 -0.0019320758 -0.0021035466 -0.032871116 -0.008377098 -4.232142e-05 -0.0064836857
0.011443061 0.011519297 -0.0027797376 0.019165823 0.010957387 0.002190703 0.0075728237 0.003974556
0.005407088 0.011371258 -0.025632227 0.008768465 0.0027437957 -0.027257482 -0.010934854 -0.020629972
0.011114031 -0.010231783 0.010171769 0.00058711454 -0.0015900317 0.031143298 -0.00041115962 0.013855951
0.028284686 0.020660114 0.01630207 0.0066257073 -0.034326725 0.0018592129 0.03254092 -0.008909952
0.00351809 0.003312289 -0.03395559 0.0036181544 0.0038888603 0.009684211 0.0044848556 -0.0034491976
0.014992251 0.005041884 -0.020794563 0.010715232 0.01276306 -0.008464988 0.010118577 0.0023350492
-0.029692741 0.009483529 0.005439209 -0.00025901172 0.009301851 -0.02771 -0.0062213684 0.010006672
0.011372629 -0.008016744 0.0012674136 0.016843256 0.0048981444 -0.0045055333 -0.003968952 0.011700918
-0.0024084004 -0.0045782663 -0.010506739 -0.0050260318 0.009032335 0.014282496 0.0064904923 -0.0014105834
0.0218334 0.017653491 -0.005056171 0.0102600185 -0.0038754924 -0.008492537 -0.029891333 -0.0017528307
-0.0067539043 0.014435843 0.014051566 0.028021034 -0.003537181 -0.022959124 -0.00015267439 0.019364651
0.008001199 -0.035561882 0.025999786 0.009797594 -0.00866356 0.01658725 -0.035520095 0.025469922
0.0024469937 -0.01568015 0.0076924553 0.01949249 0.006699502 -0.00026737346 0.00022464407 0.01692324
0.015371511 -0.0073604616 0.012272519 -0.00044819372 0.0020186927 0.03465771 0.007702673 0.0015668544
0.0107304165 0.008249689 0.009548472 -0.006893286 0.0007878549 0.011581448 -0.0032065387 -0.01969343
-0.009818781 -0.00861605 0.007947665 0.0046321964 0.0014119719 0.0091851745 0.008112366 -0.019439282
00000000: 811a 013c 1c96 08bd 23d2 603c d548 493c
00000010: b282 9ebc 602c 00bc ddd3 be3b f80f 26bd
00000020: 6fa4 bcbb 45ee e33b 43e1 1bbd d120 45bc
00000030: 7deb 543c 2fef a6bb 0702 753c 6855 533c
00000040: 4d84 4b3c 11aa 87bc 67e4 563c 92b9 4abc
00000050: bb7b 24bc c458 5c3c da8d d539 5708 143b
00000060: f1ec b53c 011d c5bc c1c1 e13b 4f90 81bc
00000070: cf92 953c 5883 5a3c 2933 803c b42b 673c
00000080: 584c 25bd 320a 763c 9d39 3e3c 9db2 6339
00000090: 5b9c 3c3a ab1d aa3b 5780 aa3c bd53 803c
000000a0: 6f7a 9aba ff72 5e3c 4426 a73c 5dbd 253b
000000b0: b173 5ebb ec01 6e3b 6a69 ba3c 410c 013c
000000c0: 599c 15bb 1542 9f3c a16b a03c 4076 023c
000000d0: eadc eabc 9468 8eba 45b8 21bd 31a2 ed3b
000000e0: 7565 6dbc 2b7c 633c 399f 2a3c 6689 25bc
000000f0: b5fe 3bbc 7bc5 043a c217 163b 38b7 933c
00000100: 17cf 673b d234 583c 9960 b6bb 9776 f63c
00000110: 8f2d 56bd f422 ac3c 569c 473b 7ecb 41bc
00000120: 272d debb 53d3 793c ce55 efba e949 da3b
00000130: 398a 913b 5438 9f3c 51e0 c6bc a5cd 3a38
00000140: f72b da3b 95ac b23a adc5 873c ecad 623c
00000150: 43af 693c 3fef dd3c 1d1f 40bc 51a3 33bc
00000160: 41c2 0b3c 995e 44bc e863 063c 44a0 993c
00000170: cd16 793c 181f ddbc 20b1 d23b 739a b33c
00000180: 2971 853c 9e3f ebbb 6aad 6d3c 786c 4e3c
00000190: 5b61 9cbb 8ec8 2abc e297 913b 99c8 563c
000001a0: 9e41 ecbb ba8d ab3c 4540 06bb 2289 d6b9
000001b0: 2235 b3ba ea85 84bc f52b 2d3c 908b c3ba
000001c0: 4724 033c 2f16 f83a 198b 04bd 82de b13c
000001d0: 187a f3ba fb53 a93c 0a36 1d3c 18ca 693c
000001e0: 6b55 803c 3602 58bc b53d fdba a8db 09bb
000001f0: dda3 06bd 1840 09bc 4782 31b8 1975 d4bb
00000200: ad7b 3b3c 6fbb 3c3c 422c 36bb a501 9d3c
00000210: 9d86 333c e691 0f3b 7325 f83b fe3c 823b
00000220: f12d b13b 834e 3a3c adfa d1bc 9ca9 0f3c
00000230: 41d1 333b 154b dfbc 1a28 33bc 3000 a9bc
00000240: a017 363c 35a3 27bc 7ea7 263c 97e8 193a
00000250: 9c68 d0ba 3b20 ff3c e990 d7b9 1204 633c
00000260: 49b5 e73c 663f a93c eb8b 853c 761c d93b
00000270: 2e9a 0cbd d5b0 f33a a149 053d 0cfb 11bc
00000280: c18f 663b fd12 593b 0415 0bbd 8f1e 6d3b
00000290: 40dc 7e3b 86aa 1e3c b2f5 923b ef0b 62bb
000002a0: 0fa2 753c 6336 a53b 5c59 aabc f18e 2f3c
000002b0: 271c 513c bcb0 0abc 63c8 253c a007 193b
000002c0: 313e f3bc ce60 1b3c 643b b23b f7cb 87b9
000002d0: ca66 183c 1500 e3bc 9fdc cbbb 06f3 233c
000002e0: 4354 3a3c a958 03bc 581f a63a defa 893c
000002f0: 9d80 a03b 27a3 93bb fc0d 82bb 35b5 3f3c
00000300: 41d6 1dbb 4805 96bb 7524 2cbc 69b1 a4bb
00000310: 5cfc 133c 2101 6a3c 32ae d43b 53e3 b8ba
00000320: f5db b23c 0e9e 903c 3dae a5bb a319 283c
00000330: f9fb 7dbb 4824 0bbc abde f4bc 3dbf e5ba
00000340: db4f ddbb 5084 6c3c 8a38 663c 5e8c e53c
00000350: 0dd0 67bb c614 bcbc 3817 20b9 9ea2 9e3c
00000360: 7617 033c 56a9 11bd 81fd d43c 1686 203c
00000370: 9bf1 0dbc fce1 873c 857d 11bd 4ca6 d03c
00000380: be5d 203b a873 80bc fe10 fc3b b7ae 9f3c
00000390: 7f87 db3b 422e 8cb9 6f8e 6b39 9ba2 8a3c
000003a0: cad8 7b3c 0730 f1bb ad12 493c 8bfb eab9
000003b0: 0b4c 043b 3ef5 0d3d b466 fc3b e95e cd3a
000003c0: a1ce 2f3c b429 073c 3271 1c3c 13e1 e1bb
000003d0: 0c88 4e3a 1dc0 3d3c cb24 52bb 1e54 a1bc
000003e0: f4de 20bc 552a 0dbc ec36 023c aec9 973b
000003f0: ea11 b93a 6a7d 163c bbe9 043c 213f 9fbc

network_body.linear_encoder.seq_layers.0.bias f4 [256]
0.016589573 -0.0010595575 -0.00047320433 0.012224644 -0.024170997 0.0030447755 -0.0048370697 -0.010007743
-0.008191596 -0.029956682 0.0026030706 0.005121256 -0.020737885 -0.004792338 0.012837624 0.004882054
0.007192481 -0.013098103 -0.006812795 0.015336039 -0.012746687 -0.00029371883 0.00985922 0.0019577045
0.026140895 0.0071364664 -0.010199344 -0.005149979 -0.019967366 0.012709351 0.0053256936 -0.0064297607
-0.00074795465 -0.016966911 0.011472262 0.0102009475 0.013752072 -0.019077934 0.0010505418 -0.0061052386
-0.0040361867 -0.002154707 0.004396565 0.0047417562 0.0030699954 -0.02587543 0.0077054054 0.021671742
-0.014202964 -0.0011679092 0.012132815 -0.0033952813 0.008240147 -0.00329216 -0.0048064846 -0.0009906208
0.012558517 -0.0006209313 0.00040940335 -0.017768623 0.016048366 -0.0003707506 0.017137881 -0.0021892062
0.009152307 -0.0022874337 0.00050653063 0.00953152 -0.014377737 0.011897358 -0.009575427 -0.020626444
-0.0008409365 -0.0076278695 0.0039567156 -0.016960772 -0.005507675 -0.009345383 0.006889847 -0.005067279
-0.013785494 -0.017918015 -0.023463897 -0.010891971 -0.008340954 0.00849001 -0.003021123 -0.0056394474
-0.008233225 -0.0041607283 -0.011056175 -0.02384324 -0.0018115107 -0.006249983 0.017485501 0.005673123
0.018784074 0.018659677 -0.028851116 0.009321809 -0.0051922263 0.01014612 0.008222135 -0.0033821515
-0.011786996 -6.61849e-05 0.0010779774 -0.0053777816 0.01765309 0.0039116973 0.0051280395 0.009628493
-0.008654211 0.010239719 -0.010014759 -0.0025688899 -0.0014331874 0.02117505 0.0057789264 -0.00074314314
0.026112406 0.016532708 0.0035293375 0.0017138511 -0.012202703 0.0058332863 -0.009761092 -0.0076493537
0.0029977951 -0.006089731 -0.00096896157 0.00503197 -0.016455961 -0.017854515 -0.008971744 -0.014191293
-0.0017238478 -0.0018110361 0.004181956 -0.0063063297 0.006811611 -0.016898945 0.018179946 -0.011471795
0.005854459 -0.013492539 0.013907133 0.0078789815 0.02037475 -0.0013146348 0.0032755157 -0.008236006
0.009681258 -0.014194745 0.007836877 0.001994285 0.007946025 0.024251994 0.009271367 -0.018489016
0.011618777 -0.0069508227 0.0007596468 -0.0020724006 -0.01367596 0.033628892 -0.0032302595 -0.010245877
-0.015937705 -0.00059752015 0.01613973 -0.004990883 0.0076529654 -0.017960014 0.0149214035 -0.0032477402
-0.022600902 -0.0009903398 0.0075722868 -0.012378132 -0.0009838139 -0.004491118 -0.018822199 0.008642253
-0.0049309107 -0.018922918 0.016245319 0.00050028524 0.009979028 0.020619357 0.009602874 -0.025958374
-0.0069882297 0.002781628 -0.014809495 -0.026513902 0.0029939732 0.0078726895 -0.006329242 0.015680684
0.008669401 0.018331245 -0.036478233 -0.0022073933 -0.023492122 0.0027685263 0.00032518138 0.012451831
-0.00032118894 0.0022383707 -0.009089816 -0.018765984 0.025006834 0.012955052 -0.031591 0.0035240995
-0.007878328 -0.0051120766 0.0026339085 -0.032372434 -0.008608162 0.016149532 0.012059508 -0.013199416
-0.01419216 0.012416941 0.017675553 0.014889895 0.00024105726 -0.0040487624 -0.0115422895 -0.0008169576
0.02254415 0.0012582183 -0.0045880037 0.008640423 -0.0021904674 -0.022975197 7.897937e-05 0.01621683
0.009820167 -0.0041459748 -0.0013385919 0.004610556 0.004299586 -0.026260935 0.0049212854 -0.020936828
0.008011289 -0.00466944 -0.0037513375 -0.0039370023 -0.020362694 -0.024754314 0.016721452 0.012891415
00000000: dbe6 873c dae0 8aba 6918 f8b9 e049 483c
00000010: 4102 c6bc db8a 473b 4880 9ebb 84f7 23bc
00000020: 0b36 06bc b767 f5bc 4798 2a3b 36d0 a73b
00000030: 7fe2 a9bc 0b09 9dbb e654 523c a3f9 9f3b
00000040: e7ae eb3b 6d99 56bc de3d dfbb 0244 7b3c
00000050: 7bd7 50bc 46fe 99b9 9188 213c d54c 003b
00000060: 6e25 d63c 05d9 e93b 261b 27bc 28c1 a8bb
00000070: 9a92 a3bc e23a 503c 2883 ae3b beb0 d2bb
00000080: 6312 44ba 31fe 8abc 28f6 3b3c e021 273c
00000090: 5f50 613c 5449 9cbc 55b2 893a 740e c8bb
000000a0: fd41 84bb fc35 0dbb 0f11 903b bc60 9b3b
000000b0: fa31 493b b6f8 d3bc a07d fc3b f088 b13c
000000c0: 8cb3 68bc 8814 99ba b7c8 463c 5e83 5ebb
000000d0: ae01 073c 48c1 57bb b77f 9dbb b8d7 81ba
000000e0: 3dc2 4d3c ffc5 22ba 30a5 d639 818f 91bc
000000f0: dd77 833c 4e61 c2b9 be64 8c3c c978 0fbb
00000100: 8ff3 153c c5e8 15bb b2c8 043a 182a 1c3c
00000110: 9a90 6bbc 23ed 423c 40e2 1cbc caf8 a8bc
00000120: 4b72 5cba 35f3 f9bb 56a7 813b 51f1 8abc
00000130: ba79 b4bb 611d 19bc 3ac4 e13b 6b0b a6bb
00000140: 8ddc 61bc cdc8 92bc 5c37 c0bc 3d74 32bc
00000150: 7fa8 08bc af19 0b3c 08fe 45bb 1dcb b8bb
00000160: a6e4 06bc b856 88bb f624 35bc e652 c3bc
00000170: 3670 edba a8cc ccbb c13d 8f3c 9be5 b93b
00000180: 0fe1 993c 2edc 983c 2d59 ecbc 80ba 183c
00000190: 8d23 aabb e93b 263c 22b6 063c 16a7 5dbb
000001a0: 3f1e 41bc bfcc 8ab8 eb4a 8d3a 1a38 b0bb
000001b0: 379d 903c b22d 803b 1d09 a83b d4c0 1d3c
000001c0: 64ca 0dbc 7fc4 273c f214 24bc d25a 28bb
000001d0: cad9 bbba 4c77 ad3c 265d bd3b 7ecf 42ba
000001e0: afe9 d53c 9a6f 873c 754c 673b 4da3 e03a
000001f0: d9ed 47bc 2725 bf3b fdec 1fbc 6ea7 fabb
00000200: a876 443b 5e8c c7bb e901 7eba 39e3 a43b
00000210: a7ce 86bc a243 92bc 39fe 12bc 9982 68bc
00000220: bcf2 e1ba 4a60 edba ca08 893b 54a5 cebb
00000230: ef33 df3b a86f 8abc 1cee 943c 32f4 3bbc
00000240: c3d6 bf3b cf0f 5dbc beda 633c d816 013c
00000250: f3e8 a63c d34f acba 09aa 563b 50f0 06bc
00000260: 249e 1e3c 1391 68bc 3f66 003c 8db2 023b
00000270: 0b30 023c 1eac c63c efe6 173c 4776 97bc
00000280: af5c 3e3c bac3 e3bb 0923 473a 1dd1 07bb
00000290: 2211 60bc 73be 093d c3b2 53bb 53de 27bc
000002a0: ca8f 82bc e6a2 1cba 7837 843c 908a a3bb
000002b0: bac5 fa3b e120 93bc e778 743c 0ad8 54bb
000002c0: 8725 b9bc 4ace 81ba f220 f83b a6cd 4abc
000002d0: 51f3 80ba 3a2a 93bb 0331 9abc 3c98 0d3c
000002e0: 7a93 a1bb 3c04 9bbc e714 853c 9325 033a
000002f0: 147f 233c ede9 a83c 5f55 1d3c a8a6 d4bc
00000300: 85fd e4bb f94b 363b 86a3 72bc af33 d9bc
00000310: 8936 443b 74fc 003c 8865 cfbb c774 803c
00000320: 1a0a 0e3c 682b 963c 336a 15bd eaa9 10bb
00000330: 8d72 c0bc 2a70 353b 1b7d aa39 c402 4c3c
00000340: 4065 a8b9 a1b1 123b 74ed 14bc 1fbb 99bc
00000350: 22db cc3c 6d41 543c 9065 01bd 94f4 663b
00000360: 1a14 01bc 3583 a7bb a79d 2c3b f598 04bd
00000370: 4009 0dbc 064c 843c 3e95 453c 5d42 58bc
00000380: 3c86 68bc 6d70 4b3c 52cc 903c bff4 733c
00000390: 51c4 7c39 7bab 84bb df1b 3dbc 1929 56ba
000003a0: 82ae b83c cdea a43a f756 96bb 9090 0d3c
000003b0: f28d 0fbb 7b36 bcbc baa1 a538 28d9 843c
000003c0: c4e4 203c f5da 87bb b173 afba 2614 973b
000003d0: 8be3 8c3b 2c21 d7bc bc42 a13b b683 abbc
000003e0: c841 033c 1a02 99bb 00d9 75bb f801 81bb
000003f0: aacf a6bc 8fc9 cabc 6dfb 883c 8336 533c

network_body.linear_encoder.seq_layers.0.weight f4 [256, 8]
-0.10991645 0.34314775 -0.2054208 0.27787143 0.6143077 0.16887313 0.08622476 0.3892644
-0.8137125 0.1296506 -0.21227174 0.108600736 0.21479544 -0.11318764 -0.40568578 -0.20225818
-0.3974321 0.2750276 -0.46275893 0.5243278 -0.052786037 -0.103603736 0.1581253 0.045947056
0.29442853 0.20034994 -0.80715764 -0.6758005 -0.23956347 0.19880253 0.08054006 0.070607804
-0.18883123 0.4943303 0.28586948 0.009097434 0.45233107 -0.0019988876 0.20272958 0.01808817
0.31974298 -0.27983555 -0.07112205 0.016553996 -0.2534318 -0.014205404 0.3354191 0.08637271
-0.1529271 0.10245133 -0.034876525 -0.045832343 0.32356715 0.11412518 -0.34619835 0.22493432
0.004033717 0.14257556 0.24734817 -0.661864 0.49322364 -0.8943573 -0.24084683 -0.2986504
-0.6215873 0.14639673 -0.5492129 -0.16796072 -0.19375978 -0.042518906 0.46764284 0.08672985
0.22212611 -0.60807675 0.5029413 -0.41306335 0.065951645 0.87205684 0.39656228 -0.2276302
-0.17482173 -0.20387958 0.328092 0.5513854 -0.15689893 0.2054571 0.5910229 -0.012319115
-0.30039465 0.4460684 -0.516483 -0.20343249 0.3624157 0.46577325 0.14709215 -0.36119652
-0.46078253 0.76417047 0.10404977 -0.044421636 0.36586973 0.43288457 0.3651968 0.62323284
0.26642033 -0.6131638 0.07403926 -0.013288598 0.0692774 -0.32690102 0.41699362 0.1064101
0.67964494 0.6150872 0.23555626 0.2288363 -0.075456925 -0.49442005 -0.8531555 -0.20801379
-0.33428293 0.3883347 0.33736438 0.09354396 0.10078957 -0.5376793 -0.07953207 -0.35044774
-0.027567288 -0.13082547 -0.20444268 -0.073674746 -0.27374768 -0.6902095 0.1979878 0.14204973
-0.40436175 0.15896931 0.012228504 0.022982761 0.41415834 0.09286683 0.5339529 0.2397144
-0.15840273 -0.23790638 -0.31489378 -0.16104607 0.07510596 -0.65134215 0.47097063 0.1334947
0.34194517 -0.23317476 -0.106864095 0.58445925 -0.03885224 0.09682594 -0.85193574 -0.13493185
-0.07101551 -0.6411866 -0.12022291 0.3703256 0.59274423 -0.19960152 0.5681339 -0.04751637
-0.2462679 -0.2900488 0.02131334 -0.8655191 -0.33743626 -0.7905143 0.05248758 -0.15897417
0.72544366 0.33792827 -0.9002815 0.19867447 -0.42878023 0.20047604 -0.41731825 0.24363491
0.121254586 -0.17862159 -0.17986389 -0.5297959 -0.61940664 -0.18621752 -0.19789253 -0.0052783503
0.37232152 -0.011811291 0.0967069 0.6149092 -0.51246446 -0.1320993 -0.23629814 0.32717675
0.37862122 -0.27683282 0.19696079 0.005805881 0.14079691 0.0883904 -0.38227433 -0.6276092
-0.21741314 -0.059065793 0.6051439 -0.16720548 -0.0873112 -0.33331826 -0.56291103 0.004313233
0.30129638 -0.10612404 -0.048648357 -0.035200644 0.36256835 -0.21900181 -0.553228 0.44182253
0.38644627 -0.46769458 0.5252015 -0.53259313 -0.65109813 0.20588088 -0.2188159 0.40435788
-0.47147748 0.57338196 0.052382547 -0.28267407 -0.45706105 -0.15485033 0.16982254 0.36391887
-0.27853468 0.6276173 -0.055948246 0.014614062 -0.43408105 0.25177395 -1.0681086 0.5760754
-0.5822877 -0.2867165 -0.12743947 -0.16026701 0.28610831 -0.019042933 -0.35889545 0.0724666
00000000: e01b e1bd 10b1 af3e d559 52be 2a45 8e3e
00000010: 4543 1d3f 14ed 2c3e 9b96 b03d aa4d c73e
00000020: 764f 50bf 20c3 043e c35d 59be 106a de3d
00000030: 56f3 5b3e ecce e7bd 0cb6 cfbe c51c 4fbe
00000040: 387c cbbe 6bd0 8c3e bdee ecbe 593a 063f
00000050: 2c36 58bd 322e d4bd 99eb 213e fb32 3c3d
00000060: 56bf 963e 8928 4d3e e2a1 4ebf 4301 2dbf
00000070: 2050 75be e492 4b3e 30f2 a43d d39a 903d
00000080: f95c 41be dc18 fd3e 7c5d 923e 670d 153c
00000090: f097 e73e c5ff 02bb 5898 4f3e a42d 943c
000000a0: 5ab5 a33e 9b46 8fbe 70a8 91bd 3f9c 873c
000000b0: d0c1 81be c8bd 68bc 0dbc ab3e 2de4 b03d
000000c0: ec98 1cbe 01d2 d13d b0da 0ebd b2ba 3bbd
000000d0: 98aa a53e 76ba e93d e940 b1be 2f55 663e
000000e0: 452d 843b 54ff 113e d748 7d3e eb6f 29bf
000000f0: cf87 fc3e 9af4 64bf 8da0 76be b5e8 98be
00000100: 5820 1fbf 06e9 153e 3799 0cbf e5fd 2bbe
00000110: f768 46be 4e28 2ebd e26e ef3e 6b9f b13d
00000120: 0775 633e ebaa 1bbf c3c0 003f 0a7d d3be
00000130: a811 873d 1e3f 5f3f 360a cb3e e417 69be
00000140: 7804 33be cfc5 50be adfb a73e 9827 0d3f
00000150: 1daa 20be 5963 523e 474d 173f 1dd6 49bc
00000160: 54cd 99be 1463 e43e 3b38 04bf 9b50 50be
00000170: 8d8e b93e d579 ee3e 539f 163e c0ee b8be
00000180: b0eb ebbe ada0 433f 0c18 d53d 76f3 35bd
00000190: 4753 bb3e 0ca3 dd3e 13fb ba3e 308c 1f3f
000001a0: 3f68 883e 4ef8 1cbf e5a1 973d 6bb8 59bc
000001b0: 4fe1 8d3d 925f a7be 3080 d53e 8aed d93d
000001c0: 36fd 2d3f 5b76 1d3f a935 713e 1054 6a3e
000001d0: 2989 9abd a024 fdbe 6668 5abf 9101 55be
000001e0: 2227 abbe ced3 c63e 06bb ac3e fa93 bf3d
000001f0: c36a ce3d 5aa5 09bf b6e1 a2bd e36d b3be
00000200: cbd4 e1bc 1df7 05be 6c59 51be c9e2 96bd
00000210: a828 8cbe 92b1 30bf 50bd 4a3e 7c75 113e
00000220: 8108 cfbe dac8 223e 105a 483c 5846 bc3c
00000230: 900c d43e f730 be3d 23b1 083f b177 753e
00000240: 5334 22be bb9d 73be c239 a1be 43e9 24be
00000250: 27d1 993d 5cbe 26bf 1023 f13e d6b2 083e
00000260: 7013 af3e 5dc5 6ebe 90db dabd 1f9f 153f
00000270: 8723 1fbd ae4c c63d 7618 5abf 932b 0abe
00000280: 9470 91bd ce24 24bf 6e37 f6bd 519b bd3e
00000290: 16be 173f 5764 4cbe 3971 113f 86a0 42bd
000002a0: a72d 7cbe 4781 94be 5099 ae3c a992 5dbf
000002b0: 72c4 acbe 255f 4abf 37fd 563d 20ca 22be
000002c0: adb6 393f ef04 ad3e d978 66bf 5271 4b3e
000002d0: 1589 dbbe 9749 4d3e bdaa d5be 6e7b 793e
000002e0: 5354 f83d 94e8 36be 3d2e 38be b4a0 07bf
000002f0: 6f91 1ebf ceaf 3ebe 57a4 4abe 03f6 acbb
00000300: eda0 be3e 2584 41bc 440e c63d b06a 1d3f
00000310: df30 03bf 0a45 07be 24f8 71be b683 a73e
00000320: a4da c13e 08bd 8dbe 17b0 493e 433f be3b
00000330: 112d 103e 0706 b53d 76b9 c3be ffaa 20bf
00000340: 8da1 5ebe f9ee 71bd b6ea 1a3f ea37 2bbe
00000350: 37d0 b2bd b1a8 aabe f01a 10bf 0556 8d3b
00000360: 8543 9a3e 9057 d9bd 8043 47bd 8d2e 10bd
00000370: 8fa2 b93e 0342 60be 5aa0 0dbf 9036 e23e
00000380: 49dc c53e aa75 efbe 9b73 063f 0658 08bf
00000390: 5eae 26bf 70d2 523e 4611 60be ff07 cf3e
000003a0: 7f65 f1be 29c9 123f 158f 563d a8ba 90be
000003b0: e803 eabe 1691 1ebe f6e5 2d3e 9353 ba3e
000003c0: 199c 8ebe 87ab 203f fd29 65bd d26f 6f3c
000003d0: df3f debe 84e8 803e c8b7 88bf ad79 133f
000003e0: cf10 15bf 81cc 92be 7e7f 02be 091d 24be
000003f0: ca7c 923e edff 9bbc 25c1 b7be 5e69 943d

network_body.linear_encoder.seq_layers.2.bias f4 [256]
-0.004491692 -0.010855191 0.0030738427 -0.0020901763 -0.0007843327 0.026249645 -0.0043171993 0.006835595
0.0019405207 -0.0081614945 0.007597616 -0.012525159 -0.011461932 -0.012655795 0.013863132 0.01236692
0.003607766 -0.030500947 -0.0103883175 0.0139784515 -0.00096268597 0.028191043 0.006631696 -0.011122712
-0.006087982 -0.005739338 0.014816758 -0.004524956 -0.024484305 0.0056542573 0.0003413126 -0.01764309
0.025251651 -0.0061503486 0.011317915 -0.0005713048 -0.0029824642 0.0061393813 -0.0055036214 0.0011338082
0.0016351177 -0.03136333 -0.00872621 -0.0053301924 -0.0011785518 -0.008975027 -0.010862566 -0.0052226325
-0.01710252 -0.00028404885 0.009872276 0.002989092 -0.004931867 -0.0061505754 -0.009256912 -0.010662471
0.009242839 -0.017350439 0.0035531265 0.0035983396 -0.011030413 0.0006104424 -0.0038598876 -0.01205007
-0.0028178429 -0.010338621 -0.01477329 0.006497964 -0.009690339 0.014273521 0.004380513 -0.016932383
0.00028690204 0.013606381 -0.017186789 -0.0012405944 -0.0056305462 0.0066390466 0.0074418862 -0.016155787
-0.0016671303 0.010954667 0.013672017 -0.0077612456 0.010938992 -0.0010234651 0.0040076915 -0.004459878
0.008922237 0.009488555 0.0036272584 0.014794888 -0.016100032 -0.013027184 -0.0019019382 0.015597012
-0.013163841 0.013809431 0.0036363078 -0.0037625253 -0.017943913 -0.007256498 -0.0142009985 -0.017863367
-0.011226599 0.012037363 0.003847992 0.011392548 -0.014888173 0.0074726758 0.022865567 -0.0074912393
0.00964236 -0.0022302198 -0.009400426 0.0054869894 -0.0021125183 4.453423e-05 -0.008720926 -0.019644162
0.01501505 0.009580392 -0.01405529 -0.0047871824 0.012814527 -0.00053855556 -0.01666216 0.01381386
-0.007829126 0.00013710653 0.021446992 0.008492822 0.004636531 -1.6073329e-05 0.0048071323 -0.0035527395
-0.0012004186 -0.016992185 0.0030518342 0.0052090376 -0.022566594 -0.0044419225 -0.009822203 -0.0028687469
-0.0061040963 -0.007905641 -0.0012047874 -0.00041700766 -0.012875423 0.010782319 0.011574955 0.0015471954
0.013243168 -0.001991286 -0.0065392503 -0.0048470707 0.0024997415 -0.02611828 -0.011871771 -0.011229962
-0.0029187258 -0.0039645513 -0.0040935487 0.007415208 0.009106563 0.013265519 -0.012430508 -0.0009250732
-0.0055384226 -0.0026367293 0.0035413941 0.003823448 4.7926555e-05 0.0046034837 0.0068604113 0.019768024
0.013093259 0.004497008 -0.0044083763 0.0019238805 -0.001171045 0.0008879716 0.0053346753 0.0034208265
-0.008531621 0.007127576 -0.0066718934 0.009870696 -0.010366563 -0.02211307 0.0018106172 0.005018682
-0.0145150395 -0.012119984 0.0024806787 0.011130012 0.014312162 -0.013193788 0.012830985 0.008521268
-0.015778847 -0.012959203 -0.0047758264 -0.014346828 -0.019784622 -0.0048401495 -0.0020885295 -0.0021537908
0.010488921 0.0031167385 -0.0018285197 -0.005632082 -0.005469348 -0.0063424245 -0.010586466 0.012933268
0.0020121948 -0.0012199599 -0.0037830805 -0.0011983407 0.00053544634 -0.010361242 -0.0028761108 0.01442868
0.016223771 0.00074618775 0.008943111 0.012081499 0.007011144 0.021410093 -0.0051214895 0.009452631
-0.013766303 -0.008132718 -5.049775e-06 0.009488826 0.009806851 -0.0055684927 0.0030375163 -0.01038944
-0.014322713 -0.014152255 -0.0067591434 -0.014189072 0.01750041 -0.0037529687 -0.007482277 -0.008983445
-0.0066572046 0.027183317 -0.022455763 -0.009712765 0.005263657 -0.014757619 0.01084883 -0.0091805635
00000000: 0b2f 93bb f9d9 31bc 8672 493b 57fb 08bb
00000010: ad9b 4dba 7f09 d73c 4b77 8dbb 20fd df3b
00000020: 1259 fe3a cab7 05bc 6cf5 f83b 5336 4dbc
00000030: d4ca 3bbc 405a 4fbc 3122 633c 9f9e 4a3c
00000040: 4570 6c3b 1fdd f9bc c333 2abc e005 653c
00000050: c35c 7cba e7f0 e63c b34e d93b 093c 36bc
00000060: b27d c7bb 0f11 bcbb fdc1 723c 1546 94bb
00000070: 4f93 c8bc 5947 b93b 34f2 b239 3e88 90bc
00000080: 8ddc ce3c dd88 c9bb c76e 393c 9ec3 15ba
00000090: 7275 43bb dd2c c93b b957 b4bb 4a9c 943a
000000a0: 7251 d63a d676 00bd 61f8 0ebc e5a8 aebb
000000b0: a379 9aba fe0b 13bc e7f8 31bc 9e22 abbb
000000c0: 961a 8cbc 64ec 94b9 54bf 213c a4e4 433b
000000d0: 809b a1bb c48a c9bb 4eaa 17bc a5b1 2ebc
000000e0: 476f 173c 8222 8ebc 92db 683b 1fd2 6b3b
000000f0: e8b8 34bc 1906 203a 2bf6 7cbb a86d 45bc
00000100: 8fab 38bb 5263 29bc ab0b 72bc dfec d43b
00000110: 3ac4 1ebc 7cdb 693c 688a 8f3b c8b5 8abc
00000120: 576b 9639 4ced 5e3c 4fcb 8cbc 719b a2ba
00000130: 7280 b8bb 5c8c d93b 11db f33b 2459 84bc
00000140: 9c83 daba 347b 333c 9800 603c 0c52 febb
00000150: 7539 333c ca25 86ba f452 833b 2b24 92bb
00000160: 932e 123c e275 1b3c 4cb7 6d3b 4266 723c
00000170: 37e4 83bc f86f 55bc 754a f9ba 9c8a 7f3c
00000180: 27ad 57bc f440 623c 1f4f 6e3b b394 76bb
00000190: 1dff 92bc ebc7 edbb 4eab 68bc 3256 92bc
000001a0: c5ef 37bc 5c38 453c 982e 7c3b cfa7 3a3c
000001b0: 86ed 73bc 59dd f43b 9250 bb3c 1279 f5bb
000001c0: fdfa 1d3c e128 12bb 3f04 1abc 34cc b33b
000001d0: 2d72 0abb 44ca 3a38 37e2 0ebc cbec a0bc
000001e0: af01 763c 14f7 1c3c 2948 66bc ccdd 9cbb
000001f0: 06f4 513c da2d 0dba 157f 88bc 8753 623c
00000200: bc45 00bc 41c4 0f39 9ab1 af3c 7a25 0b3c
00000210: 0bee 973b 36d5 86b7 2685 9d3b 14d5 68bb
00000220: 5d57 9dba 3233 8bbc 4801 483b 93b0 aa3b
00000230: 94dd b8bc 8c8d 91bb 4eed 20bc 9601 3cbb
00000240: df04 c8bb a986 01bc f5e9 9dba d2a1 dab9
00000250: 70f3 52bc 53a8 303c e1a4 3d3c 43cb ca3a
00000260: dff9 583c 3c80 02bb 3547 d6bb 2dd4 9ebb
00000270: b4d2 233b 01f6 d5bc d181 42bc e0fd 37bc
00000280: 1848 3fbb 11e9 81bb 2d23 86bb 46fb f23b
00000290: b233 153c 9f57 593c 54a9 4bbc 9d80 72ba
000002a0: a87b b5bb facc 2cbb bc16 683b d092 7a3b
000002b0: bf04 4938 d2d8 963b 4dcd e03b 8df0 a13c
000002c0: 1c85 563c a35b 933b 2474 90bb b82a fc3a
000002d0: c07d 99ba c4c6 683a 80ce ae3b f22f 603b
000002e0: 36c8 0bbc 718e e93b e69f dabb b3b8 213c
000002f0: 84d8 29bc 7826 b5bc 3b52 ed3a c273 a43b
00000300: 7dd0 6dbc e692 46bc e292 223b a75a 363c
00000310: 8f7d 6a3c c22a 58bc 0d39 523c ca9c 0b3c
00000320: a442 81bc d652 54bc 897e 9cbb f50e 6bbc
00000330: 5c13 a2bc 1e9a 9ebb b6df 08bb 9d26 0dbb
00000340: b9d9 2b3c 3242 4c3b f1aa efba 548d b8bb
00000350: 3738 b3bb 1dd4 cfbb db72 2dbc 0fe6 533c
00000360: 07df 033b 10e7 9fba 8fed 77bb a411 9dba
00000370: 325d 0c3a 33c2 29bc 227d 3cbb 4566 6c3c
00000380: b7e7 843c d09b 433a 2086 123c 7bf1 453c
00000390: bdbd e53b 3864 af3c 2bd2 a7bb 35df 1a3c
000003a0: 0f8c 61bc 173f 05bc 3d71 a9b6 0577 1b3c
000003b0: eaac 203c e777 b6bb 1111 473b 7838 2abc
000003c0: d0a9 6abc dcde 67bc ce7b ddbb 4879 68bc
000003d0: 055d 8f3c 5ef4 75bb e42d f5bb 4d2f 13bc
000003e0: ae24 dabb 8caf de3c 26f5 b7bc 4a22 1fbc
000003f0: c17a ac3b f1c9 71bc 4bbf 313c 136a 16bc

network_body.linear_encoder.seq_layers.2.weight f4 [256, 256]
-0.007964415 -0.009066174 -0.0052741957 0.02903209 -0.09643206 -0.04645967 -0.021729866 0.04273687
0.10437014 0.0134659335 0.11817407 0.0074110846 -0.07524692 -0.10657583 -0.010121145 -0.08689459
-0.06482256 -0.035299342 -0.007953717 -0.016042786 0.027952092 0.041888624 -0.0358426 -0.05435803
0.10323772 0.033762243 0.061978556 -0.058346834 0.04676498 0.07380664 -0.017114451 0.057560265
-0.037809465 0.017401634 0.05173094 -0.02826739 -0.019192439 0.08043893 0.07672702 -0.050509084
0.020375045 -0.09815649 -0.014957748 0.06658728 -0.07182529 -0.101208255 -0.100005515 0.039527576
-0.062391046 0.052731253 -0.08277296 0.007562571 0.039146718 -0.0058818078 -0.096937455 -0.04232884
-0.11890041 0.07479345 -0.034543466 -0.045123667 -0.066123 0.16353686 -0.11389557 0.0846293
-0.006612435 0.06616963 -0.0063663544 -0.022584029 -0.041056607 -0.02762159 0.057742618 0.114357755
-0.05801909 -0.099827945 -0.11578318 0.10960753 -0.12233844 -0.043910038 -0.04851475 0.09648921
0.045499902 -0.020801362 -0.022579204 -0.058317345 0.013143455 0.01944761 0.0107787 -0.032333132
0.05295568 0.06459873 0.13176951 0.05830648 0.17236485 -0.04463033 0.044259395 -0.031284437
-0.16053824 0.081379816 0.092100166 0.019017095 -0.005928163 -0.07911974 0.0069253324 -0.022042153
-0.044260394 0.032567866 -0.036979597 -0.075500034 -0.007564607 0.048477963 -0.027184764 0.0238663
-0.052995134 -0.013821218 -0.11991451 -0.051635783 0.043965653 -0.032445483 0.017267881 -0.026316117
0.026958408 -0.11121216 -0.0067422083 0.035436064 0.070050664 -0.13823122 -0.051796496 -0.02037944
-0.030563172 0.091658056 -0.11780658 -0.07700946 -0.03539295 0.10011465 -0.05233151 -0.03181868
-0.055201832 0.07599955 -0.15530406 0.11488051 -0.04974887 0.06866081 0.109169416 0.06921361
0.056273162 -0.07662045 -0.059481047 -0.14512134 -0.0054202047 0.10683855 -0.11103147 0.046951834
0.06725392 -0.006283111 -0.08311203 -0.046733133 0.09745094 -0.05910171 -0.056202576 -0.00095437054
-0.14351343 -0.013792997 0.092620134 0.010632941 -0.020264506 -0.10840646 -0.0551013 0.040843345
-0.046353683 0.14173289 -0.012266956 -0.0376119 0.07006413 -0.008642778 0.007731855 0.04842727
-0.06512212 -0.069524504 0.10643306 0.011507659 -0.012618492 -0.084739394 -0.072234355 0.053260192
0.16034196 0.07021005 -0.13414861 0.0946489 0.09575322 0.069880486 -0.05249662 -0.050482456
-0.045339663 -0.0070979046 0.047201503 -0.051340356 -0.08922929 -0.040067617 0.030920893 -0.104707904
0.003635666 0.040830705 0.08574237 -0.05456829 0.02361148 0.14470258 0.06681782 -0.116793714
0.012826114 -0.012140478 0.033381842 -0.03887726 -0.11832989 -0.022927364 0.066187866 -0.003507216
0.05493492 -0.042594537 0.06364181 0.051191676 -0.007039414 -0.055339817 0.050008457 -0.072260484
0.03897241 0.053361893 -0.008820871 -0.016352624 0.09823035 0.006030897 -0.034229506 0.036352664
0.20923927 -0.01887041 0.068974905 -0.003476128 -0.074257016 -0.047067847 0.034920603 2.4590032e-05
-0.016917601 0.13764514 -0.028556788 -0.053506445 0.12766829 -0.05346353 -0.0039864806 -0.021700636
0.010632311 0.034507178 0.045316577 -0.017560434 0.04391431 -0.11167047 0.10619032 -0.015067786
00000000: 2d7d 02bc 4a8a 14bc 29d3 acbb b5d4 ed3c
00000010: 2c7e c5bd 7f4c 3ebd d502 b2bc db0c 2f3d
00000020: 03c0 d53d 38a0 5c3c 3f05 f23d afd8 f23b
00000030: 0f1b 9abd 6e44 dabd 29d3 25bc caf5 b1bd
00000040: b1c1 84bd 0b96 10bd 4f50 02bc 296c 83bc
00000050: c9fb e43c 6893 2b3d b1cf 12bd 87a6 5ebd
00000060: 4c6e d33d 474a 0a3d 3add 7d3d 17fd 6ebd
00000070: a38c 3f3d f027 973d 9b33 8cbc 50c4 6b3d
00000080: 19de 1abd df8d 8e3c d2e3 533d 0391 e7bc
00000090: 7639 9dbc 2abd a43d 0e23 9d3d 9de2 4ebd
000000a0: 91e9 a63c 4506 c9bd 5811 75bc e95e 883d
000000b0: 2319 93bd 4646 cfbd b1cf ccbd abe7 213d
000000c0: c18d 7fbd bafc 573d df84 a9bd 72cf f73b
000000d0: 4f58 203d 2ebc c0bb 2587 c6bd 0161 2dbd
000000e0: 0f82 f3bd 4f2d 993d 737d 0dbd 98d3 38bd
000000f0: 7f6b 87bd 3576 273e 1542 e9bd 2052 ad3d
00000100: 20ad d8bb f183 873d da9c d0bb 2402 b9bc
00000110: f92a 28bd ac46 e2bc 8683 6c3d 6634 ea3d
00000120: 6da5 6dbd 9872 ccbd bb1f edbd ea79 e03d
00000130: 938c fabd 03db 33bd 67b7 46bd 239c c53d
00000140: 1b5e 3a3d 9e67 aabc 06f8 b8bc 2bde 6ebd
00000150: a557 573c 9850 9f3c 2599 303c bf6f 04bd
00000160: 0ee8 583d 574c 843d 96ee 063e c7d2 6e3d
00000170: 6980 303e 4bce 36bd 5749 353d 1c24 00bd
00000180: 2364 24be 76aa a63d 039f bc3d bdc9 9b3c
00000190: 0941 c2bb 8809 a2bd e6ed e23b bf91 b4bc
000001a0: 634a 35bd e265 053d eb77 17bd c39f 9abd
000001b0: 86e0 f7bb d490 463d 95b2 debc 4283 c33c
000001c0: 6d11 59bd 6472 62bc bd95 f5bd 0b80 53bd
000001d0: 5415 343d 8ee5 04bd 5f75 8d3c e694 d7bc
000001e0: e1d7 dc3c 33c3 e3bd beed dcbb 6825 113d
000001f0: b976 8f3d 7c8c 0dbe 9028 54bd c9f2 a6bc
00000200: 9e5f fabc 38b7 bb3d 9444 f1bd 23b7 9dbd
00000210: 33f8 10bd e908 cd3d 9159 56bd 4e54 02bd
00000220: 511b 62bd a7a5 9b3d 0708 1fbe 7946 eb3d
00000230: 79c5 4bbd 0a9e 8c3d 3794 df3d ddbf 8d3d
00000240: b07e 663d 2feb 9cbd 66a2 73bd b09a 14be
00000250: f99b b1bb 2bce da3d 7864 e3bd 9150 403d
00000260: 6cbc 893d 8ee2 cdbb a436 aabd 3e6b 3fbd
00000270: 5c94 c73d a214 72bd ac34 66bd b92e 7aba
00000280: 2ff5 12be 06fc 61bc a0af bd3d c935 2e3c
00000290: c001 a6bc 3504 debd e7b1 61bd 5a4b 273d
000002a0: 5cdd 3dbd 6d22 113e 58fb 48bc f00e 1abd
000002b0: c87d 8f3d 709a 0dbc 805b fd3b ac5b 463d
000002c0: bf5e 85bd dd62 8ebd 93f9 d93d 9f8a 3c3c
000002d0: cbbd 4ebc d98b adbd 9bef 93bd 5c27 5a3d
000002e0: af30 243e 49ca 8f3d 415e 09be 48d7 c13d
000002f0: 441a c43d 801d 8f3d b206 57bd b1c6 4ebd
00000300: 15b6 39bd 8a95 e8bb 5d56 413d 444a 52bd
00000310: d9bd b6bd f11d 24bd d04d fd3c 1971 d6bd
00000320: 5b44 6e3b 193e 273d b299 af3d 0083 5fbd
00000330: dd6c c13c ea2c 143e c8d7 883d 8b31 efbd
00000340: 9f24 523c dbe8 46bc 66bb 083d c33d 1fbd
00000350: f156 f2bd 2bd2 bbbc 818d 873d 52d9 65bb
00000360: 7003 613d 9c77 2ebd a356 823d 5dae 513d
00000370: e2aa e6bb 01ac 62bd abd5 4c3d 4efd 93bd
00000380: 89a1 1f3d 0092 5a3d 6a85 10bc f0f5 85bc
00000390: fe2c c93d d59e c53b 3d34 0cbd 88e6 143d
000003a0: d242 563e 1e96 9abc b742 8d3d c0cf 63bb
000003b0: 1014 98bd 37ca 40bd e808 0f3d b146 ce37
000003c0: c896 8abc d9f2 0c3e edef e9bc 9329 5bbd
000003d0: 7abb 023e 93fc 5abd 06a1 82bb 88c5 b1bc
000003e0: 2533 2e3c 6657 0d3d e09d 393d e6da 8fbc
000003f0: 7edf 333d 7db3 e4bd 4f7a d93d e0de 76bc

network_body.linear_encoder.seq_layers.4.bias f4 [256]
-0.019628271 0.01353125 0.0036482145 0.0066752615 0.0033032377 0.008384767 -0.009228716 0.005131491
-0.020522332 0.007317686 0.0082355505 0.0061780014 -0.006693394 0.019682055 -0.01589279 -0.009683585
-0.004893039 0.0049775927 -0.014635288 -0.018923905 -0.0060886326 -0.020573659 -0.016913297 0.004661497
0.020641366 -0.012186537 -0.0016828692 0.0065627033 0.0065986477 0.004302245 -0.0014095141 0.004009206
-0.0031308036 -0.011077878 0.007501984 -0.002860308 0.008176865 -0.026296375 -0.008896657 0.020541113
-0.015819425 -0.019123342 -0.017677592 -0.011588848 -0.017890867 -0.012851925 -0.016295489 -0.01908979
-0.01234184 -0.0008601504 -0.0022102015 0.006567162 0.008134227 -0.019295681 0.012911104 0.011708687
-0.008186027 0.007017117 0.010483026 -0.0018128682 0.0009583408 0.008302302 -0.009507666 0.008333744
-0.011026894 -0.003346684 0.0060296985 0.0029845515 0.014485159 -0.0024339324 -0.006367237 -0.0041062715
0.011567331 -0.010684706 0.0033936212 -0.018656207 0.018020852 -0.0106230695 0.014254248 -0.019314198
-0.017099176 -0.0011944384 0.0010873905 -0.010808907 -0.0057847514 -0.0051422366 0.003943748 -0.010844475
-0.007139973 -0.013363954 0.008614841 -0.008204303 0.0015909665 0.011021552 -0.0061722416 0.00828247
-0.0032711339 0.009225037 -0.007901255 -0.014272526 0.0160631 0.014214179 0.003408622 -0.015359613
0.0121151395 0.0023067445 -0.021438574 -0.009306042 -0.018246073 -0.009578937 0.0026592177 -0.010287432
-0.0042582396 -0.011899546 0.0035048248 -0.023290332 0.019164572 -0.010238553 -0.017767673 -0.014829823
-0.015298953 0.014011158 -0.0073778676 -0.023758244 -0.005969757 -0.021096962 -0.015677145 0.010420153
-0.0004012202 -0.0026861285 -8.048375e-05 -0.0036448115 -0.019930284 -0.008751358 -0.013452082 -0.0025362028
-0.010541567 -0.0076726335 -0.0039007824 0.004372752 -0.0019721177 -0.0008235442 -0.0011949796 0.012425345
0.0019441884 0.013972708 -0.007666981 0.0037008312 -0.012601579 -0.010324585 -0.020493418 -0.015335489
-0.0113469055 0.014389567 -0.01692439 -0.018330079 0.01297674 0.013266909 0.0053492268 -0.008675125
-0.0040201168 -0.008398245 -0.0024124188 0.0016085722 -0.0063575427 -0.010466682 -0.017453682 -0.008547197
-0.005235395 -0.0015882752 -0.015903916 -0.013048528 0.003365031 0.007120721 -0.0070256772 0.0038333186
0.010376317 0.0018758503 -0.0134109445 -0.026430173 -0.012831954 -0.0021845545 0.010114109 0.019704543
-0.0025057646 -0.013880466 0.018964576 0.019593868 -0.0050616395 -0.004921557 -0.009181983 -0.015581051
-0.005436441 -0.0034773853 0.009428107 -0.020450871 0.004747827 0.00046409725 -0.012315992 -0.021108069
-0.009997432 0.012823648 -0.0173355 -0.0033482315 0.005494815 -0.006608008 0.0031998497 -0.005305368
-0.00811868 -0.0028707862 0.0047216876 -0.005433203 -0.0029257264 -0.003936495 0.0075016143 0.0046170726
-0.006687387 0.0124933375 0.0043624826 -0.016982388 -0.0073317094 -0.00048702903 0.004668637 0.012882955
0.0015631749 5.2649022e-05 -0.001431609 0.0002698672 -0.009847666 -0.00014725163 -0.0078015435 -0.0083365915
0.0056466213 -0.015113575 0.0002748678 0.0015174049 0.0038317256 -0.0017731438 0.005049469 -0.0065711956
-0.015871013 0.008980518 -0.0006012385 -0.010289648 -0.003204094 -0.009770635 -0.011421252 0.0047336766
-0.011462654 -0.008375536 -0.007413249 0.0051874924 0.012976319 0.0156393 -0.004569174 0.0043265345
00000000: 78cb a0bc 2db2 5d3c e216 6f3b 27bc da3b
00000010: 227b 583b 4360 093c 0a34 17bc 1126 a83b
00000020: 731e a8bc 33c9 ef3b 67ee 063c d570 ca3b
00000030: 4254 dbbb 433c a13c 9931 82bc e6a7 1ebc
00000040: c955 a0bb 131b a33b d9c8 6fbc 4e06 9bbc
00000050: 2783 c7bb 178a a8bc c18d 8abc 79bf 983b
00000060: 1518 a93c 0aaa 47bc b893 dcba f20b d73b
00000070: 7839 d83b d9f9 8c3b 72bf b8ba a85f 833b
00000080: 2b2e 4dbb fd7f 35bc 34d3 f53b 0174 3bbb
00000090: 42f8 053c 7f6b d7bc 49c3 11bc d645 a83c
000000a0: bd97 81bc 8ea8 9cbc 99d0 90bc 27df 3dbc
000000b0: de8f 92bc e190 52bc 1e7e 85bc 3162 9cbc
000000c0: 6e35 4abc b77b 61ba 07d9 10bb 5931 d73b
000000d0: 6c45 053c fa11 9ebc 1889 533c cbd5 3f3c
000000e0: b01e 06bc d8ef e53b ffc0 2b3c c39d edba
000000f0: 2a39 7b3a 6106 083c 0bc6 1bbc 418a 083c
00000100: 25aa 34bc 0a54 5bbb c794 c53b 7798 433b
00000110: 2953 6d3c 9c82 1fbb 41a4 d0bb e78d 86bb
00000120: e784 3d3c e80e 2fbc 8467 5e3b e7d4 98bc
00000130: 77a0 933c 620c 2ebc a68a 693c cf38 9ebc
00000140: 9213 8cbc b48e 9cba c586 8e3a d817 31bc
00000150: 038e bdbb 3580 a8bb 8e3a 813b 06ad 31bc
00000160: 6ff6 e9bb 7cf4 5abc 4325 0d3c 576b 06bc
00000170: fa87 d03a bd93 343c 8440 cabb 32b3 073c
00000180: 8560 56bb 9c24 173c 4474 01bc 50d7 69bc
00000190: c396 833c 96e2 683c 3063 5f3b e3a6 7bbc
000001a0: 947e 463c c02c 173b f39f afbc 5f78 18bc
000001b0: ca78 95bc f9f0 1cbc 4546 2e3b 9e8c 28bc
000001c0: b488 8bbb 50f6 42bc 34b1 653b 5ecb bebc
000001d0: 05ff 9c3c 9bbf 27bc 838d 91bc c9f8 72bc
000001e0: 76a8 7abc 0e8f 653c 0ac2 f1bb a6a0 c2bc
000001f0: f49d c3bb 89d3 acbc 5b6d 80bc 4ab9 2a3c
00000200: dd5a d2b9 c209 30bb 62c9 a8b8 cadd 6ebb
00000210: d644 a3bc db61 0fbc 1f66 5cbc 6c36 26bb
00000220: 89b6 2cbc b76a fbbb 45a4 7fbb 4d49 8f3b
00000230: a53e 01bb 1ee3 57ba dda0 9cba ad93 4b3c
00000240: 23d4 fe3a c9ed 643c 4c3b fbbb a589 723b
00000250: da76 4ebc 7328 29bc d0e1 a7bc b441 7bbc
00000260: 5fe8 39bc 38c2 6b3c 05a5 8abc f628 96bc
00000270: 649c 543c 735d 593c 9148 af3b 1d22 0ebc
00000280: 2fbb 83bb cb98 09bc ac19 1ebb bad6 d23a
00000290: ef52 d0bb 727c 2bbc 06fb 8ebc 8b09 0cbc
000002a0: ad8d abbb ac2d d0ba ee48 82bc 7ec9 55bc
000002b0: da87 5c3b f054 e93b a737 e6bb 6a38 7b3b
000002c0: 6e01 2a3c 17df f53a 94b9 5bbc 1784 d8bc
000002d0: 1e3d 52bc be2a 0fbb a6b5 253c 6c6b a13c
000002e0: c137 24bb e56a 63bc 995b 9b3c 5283 a03c
000002f0: 1cdc a5bb 0345 a1bb 0770 16bc aa47 7fbc
00000300: 2c24 b2bb d8e4 63bb 5978 1a3c 9688 a7bc
00000310: a993 9b3b 1452 f339 04c9 49bc d4ea acbc
00000320: 45cc 23bc 471a 523c 2e03 8ebc 016e 5bbb
00000330: d90d b43b fd87 d8bb 92b4 513b a7d8 adbb
00000340: 3604 05bc cd23 3cbb 63b8 9a3b 0309 b2bb
00000350: 8bbd 3fbb b7fd 80bb 1ad0 f53b d04a 973b
00000360: de21 dbbb dbb0 4c3c 28f3 8e3b a61e 8bbc
00000370: d63e f0bb ee57 ffb9 5efb 983b 0813 533c
00000380: 72e3 cc3a 75d3 5c38 d4a4 bbba f67c 8d39
00000390: 1b58 21bc 8f67 1ab9 17a4 ffbb 3396 08bc
000003a0: 4b07 b93b ee9e 77bc 221c 9039 a9e3 c63a
000003b0: b01d 7b3b d568 e8ba 0476 a53b 2f53 d7bb
000003c0: ed03 82bc 0623 133c 6f9c 1dba e995 28bc
000003d0: c7fb 51bb 0315 20bc 3420 3bbc f51c 9b3b
000003e0: dbcd 3bbc 8b39 09bc d7ea f2bb d7fb a93b
000003f0: a09a 543c fd1d 803c 02b9 95bb 9ac5 8d3b

network_body.linear_encoder.seq_layers.4.weight f4 [256, 256]
0.027062638 -0.0026323996 0.019524973 -0.07394863 -0.057922617 0.026322886 0.10331574 0.015350519
0.017968891 -0.0026126702 0.08914484 0.028123695 -0.025396327 0.048876345 -0.09995299 0.0026960925
-0.14216277 -0.056104083 0.00020749039 -0.09233201 0.0061977794 -0.03608418 0.028215656 0.008821825
0.007283081 0.04440431 -0.1129856 -0.07584268 -0.023833567 -0.099143386 0.044868 -0.08726094
0.045965977 0.034870505 -0.050461855 -0.029842954 0.07881089 -0.05076569 -0.014233626 -0.054263715
0.16480295 -0.02091855 -0.06228444 -0.0072770505 0.02841732 0.06653058 0.002085864 -0.03240077
-0.072680704 -0.10437143 -0.06558243 0.037712846 0.1044862 0.0067832274 0.07922676 0.078945585
0.045983102 0.029847408 0.046662353 -0.07648158 0.050328888 -0.05733996 -0.012958049 -0.023594063
0.044250213 0.008374224 0.054280195 0.0232412 0.00859968 -0.08098334 0.07048795 -0.016362093
-0.049176846 -0.024841344 -0.06563679 -0.092946894 0.009400988 -0.15556152 0.027010592 -0.039880995
0.09417223 0.06479738 -0.022149686 0.03315461 0.06836629 -0.0387069 0.03634004 -0.08817972
-0.030926127 -0.030335423 -0.020406881 0.004720532 -0.0812439 -0.03299387 0.03405438 -0.012360536
-0.13368133 0.0043925974 0.087106936 0.085435666 0.0978747 -0.052851222 0.011044538 -0.027290935
-0.016903402 0.0025417616 0.05367615 -0.13859226 0.04021899 -0.06543106 -0.09570224 0.0058308407
-0.14374095 -0.07292407 0.043515686 -0.00038166347 -0.1098189 0.041578595 0.02874665 0.041009452
0.0942824 -0.0040037227 -0.007628773 0.013282816 -0.053548384 0.050893612 -0.11000833 -0.097044
-0.00804468 -0.00499249 -0.008415277 -0.048255503 -0.09271862 -0.11131373 0.00080646836 0.051242817
-0.030829532 -0.08589258 0.042247806 0.09852605 0.07428375 -0.02400978 -0.101999335 -0.023410128
0.030474605 -0.018152205 -0.10201211 0.024518283 0.030009571 0.124933094 -0.098727815 0.0081026275
0.076175675 0.0036502439 -0.07534682 -0.036497977 0.006621181 0.0026228954 -0.051048324 0.09172211
-0.18214716 -0.03241024 0.030113682 -0.04019053 0.053818896 0.01004138 0.08430487 -0.023820559
-0.034032743 0.023837278 -0.009721607 -0.0845316 0.08599776 0.124602236 -0.036930535 0.054265164
-0.012621889 0.08187046 0.0413552 0.013435103 0.07040556 -0.03575962 0.059406567 -0.0249877
-0.0862873 -0.01189345 0.034945454 0.011431819 0.009796037 -0.009172196 -0.062243115 -0.010025058
-0.0053784717 -0.046730515 0.15228575 -0.019404884 0.05172359 -0.03608614 -0.055507004 0.093510225
-0.053026263 0.03774418 -0.07733685 0.008925894 -0.0922951 -0.04507341 -0.0148478905 0.070904166
0.049369775 0.052998442 -0.026516702 -0.12566294 0.020168843 -0.029682962 0.024399651 -0.024884593
-0.08484959 -0.09969169 0.11022701 0.059404798 -0.038266458 0.017611613 -0.081562474 0.03863067
0.042816676 -0.02111329 -0.098663345 -0.06818492 -0.03650243 -0.0003151854 0.02532346 0.048820212
-0.027487032 -0.084305026 -0.06342275 0.047080677 -0.059588876 0.014090955 -0.13707401 0.16253634
0.031962954 -0.056818113 0.090751626 0.09813613 -0.033559944 -0.012530203 0.064685926 -0.023845306
0.010959286 0.027289389 0.09932284 -0.07667301 0.06391466 0.08454835 0.0042029796 -0.097867325
00000000: 77b2 dd3c 5684 2cbb d6f2 9f3c 6172 97bd
00000010: 4440 6dbd 18a3 d73c 3497 d33d be80 7b3c
00000020: 7f33 933c 5539 2bbb 9291 b63d aa63 e63c
00000030: f50b d0bc 9032 483d 27b4 ccbd edb0 303b
00000040: 1e93 11be 65cd 65bd c791 5939 9118 bdbd
00000050: be16 cb3b 01cd 13bd 8524 e73c 6a89 103c
00000060: e9a6 ee3b 4be1 353d ff64 e7bd 6853 9bbd
00000070: 9d3e c3bc b00b cbbd 82c7 373d ddb5 b2bd
00000080: d246 3c3d 60d4 0e3d 17b1 4ebd 3679 f4bc
00000090: 9b67 a13d afef 4fbd 2834 69bc a143 5ebd
000000a0: 1bc2 283e 615d abbc f81d 7fbd 5374 eebb
000000b0: 71cb e83c 2f41 883d feb2 083b abb6 04bd
000000c0: 9fd9 94bd b0c0 d5bd 1550 86bd c978 1a3d
000000d0: dcfc d53d d645 de3b a441 a23d 39ae a13d
000000e0: c758 3c3d 8d82 f43c 0621 3f3d 60a2 9cbd
000000f0: aa25 4e3d 4edd 6abd ff4d 54bc 5648 c1bc
00000100: b63f 353d 0b34 093c e954 5e3d 5464 be3c
00000110: ace5 0c3c 98da a5bd fd5b 903d cc09 86bc
00000120: a96d 49bd 1380 cbbc 956c 86bd f15a bebd
00000130: 9a06 1a3c 854b 1fbe 5145 dd3c 415a 23bd
00000140: 5fdd c03d 7db4 843d 4273 b5bc 21cd 073d
00000150: a003 8c3d 208b 1ebd 4bd9 143d 9297 b4bd
00000160: ca58 fdbc fe81 f8bc 552c a7bc b1ae 9a3b
00000170: 3463 a6bd 9524 07bd 9b7c 0b3d d883 4abc
00000180: c2e3 08be c7ef 8f3b 1f65 b23d e5f8 ae3d
00000190: 8872 c83d 867a 58bd 26f4 343c 3d91 dfbc
000001a0: 0179 8abc af93 263b 86db 5b3d 21eb 0dbe
000001b0: abbc 243d b800 86bd 89ff c3bd a310 bf3b
000001c0: d430 13be 3759 95bd 813d 323d 011a c8b9
000001d0: bbe8 e0bd 514e 2a3d 187e eb3c 87f9 273d
000001e0: 2217 c13d a931 83bb c9fa f9bb 2ba0 593c
000001f0: 8d55 5bbd d275 503d 0c4c e1bd 01bf c6bd
00000200: d5cd 03bc 0b98 a3bb 3be0 09bc 90a7 45bd
00000210: 43e3 bdbd 74f8 e3bd 2d69 533a fde3 513d
00000220: 378e fcbc 73e8 afbd 090c 2d3d 07c8 c93d
00000230: 1422 983d 28b0 c4bc 07e5 d0bd 99c6 bfbc
00000240: e1a5 f93c efb3 94bc baeb d0bd 91da c83c
00000250: a2d6 f53c ecdc ff3d cf31 cabd e2c0 043c
00000260: fe01 9c3d ee38 6f3b 6f4f 9abd e77e 15bd
00000270: 7ef6 d83b e2e4 2b3b 0c18 51bd cdd8 bb3d
00000280: c984 3abe 9ac0 04bd f8b0 f63c d39e 24bd
00000290: 3471 5c3d 9a84 243c 08a8 ac3d 5523 c3bc
000002a0: eb65 0bbd 6546 c33c 6047 1fbc e71e adbd
000002b0: 981f b03d 752f ff3d 7944 17bd 2645 5e3d
000002c0: 0acc 4ebc b3ab a73d 1264 293d e81e 5c3c
000002d0: ca30 903d ae78 12bd 4d54 733d 01b3 ccbc
000002e0: 65b7 b0bd bfdc 42bc f722 0f3d 864c 3b3c
000002f0: 8f7f 203c fa46 16bc a3f2 7ebd 2440 24bc
00000300: e43d b0bb 7f68 3fbd ccf0 1b3e fef6 9ebc
00000310: 1ddc 533d 0fcf 13bd 505b 63bd 4a82 bf3d
00000320: 1132 59bd a499 1a3d c862 9ebd ea3d 123c
00000330: 3705 bdbd e59e 38bd 9144 73bc 3436 913d
00000340: f637 4a3d e514 593d 8e39 d9bc c9ad 00be
00000350: 2139 a53c af29 f3bc c7e1 c73c c6da cbbc
00000360: 9fc5 adbd 282b ccbd b3be e13d 7252 733d
00000370: 4abd 1cbd 3b46 903c 3a0a a7bd 323b 1e3d
00000380: 8a60 2f3d c7f5 acbc 0210 cabd 89a4 8bbd
00000390: 9283 15bd 783f a5b9 2573 cf3c b4f7 473d
000003a0: 7c2c e1bc 1da8 acbd c9e3 81bd abd7 403d
000003b0: 7713 74bd c0dd 663c 215d 0cbe ed6f 263e
000003c0: 96eb 023d 1cba 68bd fddb b93d 98fb c83d
000003d0: 2776 09bd 7b4b 4dbc 0e7a 843d 3b57 c3bc
000003e0: 948e 333c ff8d df3c c669 cb3d bd06 9dbd
000003f0: b0e5 823d af27 ad3d 26b9 893b aa6e c8bd

network_body.vector_processors.0.normalizer.running_mean f4 [8]
0.9226159 0.9738535 -0.86547357 0.7794062 -0.7963465 0.2502099 0.34680605 -0.09344154
00000000: 8e30 6c3f 774e 793f ad8f 5dbf 2a87 473f
00000010: 5ddd 4bbf 831b 803e 9090 b13e 475e bfbd
