results/2022_0313_2108/Fight/Fight-1499987.onnx (onnx, 542530 bytes, 10 tensors)

65 f4 [8]
000000 4b a1 8f 3e 60 df eb 3d f9 72 7b 40 da 46 8f 40
       0.28052744 0.11517215 3.9288924 4.477399
000010 8d 59 80 40 72 ec 96 40 f6 cc 3e 3e 9c 24 0e 3f
       4.0109315 4.716363 0.18632874 0.5552461

action_model._discrete_distribution.branches.0.bias f4 [4]
000000 09 ff da b9 3a b0 9d 3c 7a 1d 8d bc 59 5e 9a bb
       -0.00041770216 0.01924907 -0.01722597 -0.004710954

action_model._discrete_distribution.branches.0.weight f4 [4, 256]
000000 68 67 1a 3c 1e 87 04 bd 61 0f 0a 3c 56 75 26 3c
       0.009424068 -0.03235542 0.008426518 0.010159811
000010 fd 5b 8b bc de 7d b4 bb 42 51 4f ba 75 e9 1b bd
       -0.017011637 -0.0055081686 -0.00079085317 -0.03806444
000020 94 08 16 bc 67 dd 03 3c 85 de 16 bd 95 f7 40 bc
       -0.009157319 0.008048392 -0.036833305 -0.011777778
000030 41 c4 28 3c f1 19 c7 bb 89 b8 42 3c eb be 12 3c
       0.010300697 -0.0060760905 0.011884817 0.008956651
000040 05 1b 58 3c 7c 7c 68 bc 50 ec f5 3b 6d 0f 45 bc
       0.013190036 -0.014189836 0.0075049773 -0.012027604
000050 5a 2a f6 bb 19 ce 33 3c d7 8d 29 39 82 e5 ce 3a
       -0.007512373 0.0109744305 0.00016169935 0.0015784951
000060 89 fc a1 3c 29 f9 bc bc 7a 1e 45 3b dd 60 6e bc
       0.019773738 -0.023068028 0.003007798 -0.014549461
000070 25 88 8f 3c 89 dc 3e 3c 62 fc 25 3c c9 0e 77 3c
       0.017520973 0.011649259 0.0101309735 0.015079209
000080 bf 8d 21 bd 3b 1c 00 3c 66 63 25 3c ad 36 ea 3a
       -0.03944182 0.007819231 0.010094499 0.0017869078
000090 a6 9f ea 3a a0 c8 95 3b 0a fc 9e 3c d2 20 59 3c
       0.0017900362 0.0045710355 0.019407291 0.013252454
0000a0 27 fe 86 ba de a2 32 3c 99 02 72 3c 46 c5 e2 b9
       -0.0010299132 0.010903088 0.014771127 -0.0004325306
0000b0 b5 2d 7c bb 1c 6d 89 3b f0 2c a2 3c 4a 2b 19 3c
       -0.0038479392 0.004193915 0.019796818 0.0093487
0000c0 23 1e 84 bb ae 95 9b 3c 69 c6 8d 3c 47 a4 bd 3b
       -0.004031913 0.018992271 0.017306523 0.0057874057
0000d0 b4 ae d7 bc fa ef 14 3b eb d4 18 bd 89 09 00 bb
       -0.026328422 0.0022726045 -0.03731243 -0.0019536933
0000e0 4d 65 3e bc ec 74 72 3c 4e 4c 2b 3c af 10 1a bc
       -0.011620832 0.014798384 0.010455204 -0.009403392
0000f0 b1 cf 86 bb 1b d0 09 3b 60 b5 61 3a 3b cd 83 3c
       -0.004114114 0.0021028582 0.0008610096 0.016089072
000100 72 7b 59 3b 13 3a 17 3c a1 04 a3 bb bd 28 bb 3c
       0.0033185151 0.009230155 -0.004974917 0.022846574
000110 12 0e 55 bd f9 5e 6d 3c ef 73 a1 3b 06 d6 0e bc
       -0.05201537 0.014487975 0.0049271504 -0.008718019
000120 91 d3 e4 bb 17 fd 5b 3c b8 24 f6 ba ed fe bb 3b
       -0.0069832285 0.013427041 -0.0018779254 0.0057371766
000130 9a 21 94 3b ed 85 98 3c a3 57 b0 bc f4 1a 46 bb
       0.004520607 0.018618548 -0.021526163 -0.0030228468
000140 32 1c ad 3b 0f 60 88 bb 28 90 79 3c b8 31 5e 3c
       0.005282902 -0.0041618417 0.015232123 0.013561659
000150 a1 c9 33 3c 51 4a d6 3c f3 27 77 bc 7a 52 0b bc
       0.010973365 0.026158484 -0.015085208 -0.008503551
000160 fb 08 e1 3b ac a0 1d bc 31 cd bc 3b bd 14 88 3c
       0.0068675256 -0.009620827 0.0057617654 0.016611451
000170 bf 56 7b 3c a4 47 d7 bc 88 4f 88 3b 0c a4 bf 3c
       0.015340506 -0.026279278 0.0041598715 0.023393653
000180 38 0b 99 3c 2f 3d 8e bb df 25 4e 3c 91 3f 3d 3c
       0.018682107 -0.0043407897 0.012582271 0.0115508
000190 6c ec aa bb e2 51 0e bc 73 c5 30 3b 0d 5f 15 3c
       -0.005216172 -0.008686515 0.0026973158 0.0091169
0001a0 15 06 d8 bb 90 e4 9e 3c 7f bc 6b bb ef e6 df b9
       -0.006592522 0.019396096 -0.0035970507 -0.00042705933
0001b0 7a 2b ed b9 7f 81 73 bc d0 16 01 3c 50 15 84 bb
       -0.00045236555 -0.014862417 0.007878974 -0.004030861
0001c0 de 04 32 3c 9e 04 bd 3b 65 5b fd bc 13 0b a7 3c
       0.010865418 0.0057683727 -0.03092737 0.020391023
0001d0 84 bd d7 39 81 ca 63 3c fd ab 8b 3b e9 d7 4d 3c
       0.00041149196 0.013903261 0.004262446 0.012563684
0001e0 8a 2e 8d 3c d6 6f 38 bc 7f 59 a7 3a 42 b5 8e bb
       0.017234106 -0.0112571325 0.0012767761 -0.0043551037
0001f0 28 f9 03 bd a5 ba 09 bc c7 2a 52 bb ed dc 9e bb
       -0.032220036 -0.008406316 -0.0032068954 -0.0048481137
000200 63 6e 01 3c 3e 3d e5 3b 04 e5 07 38 5c fd ac 3c
       0.007899853 0.006995826 3.2399796e-05 0.021116905
000210 34 4c d1 3b e2 e3 20 3b 7c 86 63 3b a1 7a 0f bb
       0.006387258 0.0024549891 0.003471761 -0.002189316
000220 86 75 be 3b 48 a3 01 3c 56 6c c9 bc 62 b4 cb 3b
       0.0058123497 0.007912464 -0.024587791 0.0062165717
000230 53 e2 fe 39 b7 16 e3 bc dd 31 9f bb 96 cf a1 bc
       0.0004861528 -0.027720792 -0.004858239 -0.019752305
000240 88 90 4c 3c f8 58 16 bc 5d 36 3c 3c 0f d3 87 3b
       0.012485631 -0.009176485 0.011487571 0.004145033
000250 ce 40 68 bb a6 06 01 3d 24 60 cd ba 6d 3e 82 3c
       -0.0035439017 0.03150048 -0.0015668911 0.015898908
000260 08 20 dd 3c b0 84 8b 3c 02 ce 37 3c 8a 7a cf 3b
       0.026992813 0.017031044 0.01121855 0.0063317465
000270 66 ab 06 bd d1 1d 3b 3b b2 f7 db 3c 4b 8a 25 bc
       -0.032878302 0.0028551708 0.026851509 -0.010103772
000280 3e fc 81 3b a3 b4 bd 3b a7 e2 09 bd 3f 52 3d 3a
       0.003966837 0.005789356 -0.03366342 0.00072220335
000290 8e 96 42 bb 3e 71 2b 3c 55 3b e7 3b b3 66 2e bb
       -0.0029691788 0.010464011 0.0070566335 -0.0026611506
0002a0 d7 4e 82 3c 86 84 40 39 8e 6c 94 bc 96 1c 38 3c
       0.015906734 0.00018359916 -0.01811817 0.011237284
0002b0 c4 81 2b 3c 4f be dc bb 47 f6 40 3c 25 27 96 3b
       0.01046795 -0.0067365537 0.011777467 0.004582303
0002c0 96 b7 e0 bc 23 b6 03 3c 23 7c bf 3b f6 c4 72 39
       -0.02743129 0.00803903 0.0058436557 0.00023152292
0002d0 ba 90 02 3c d5 80 dc bc 9f d4 8b bb 29 89 32 3c
       0.007969076 -0.0269169 -0.00426729 0.010896959
0002e0 f3 03 4f 3c 0a 05 2c bc 57 39 ad 3a 7f cf 74 3c
       0.012635219 -0.010499248 0.0013215941 0.014942049
0002f0 1b 5c b5 3b ed b7 01 bc bf c0 2c bc f1 b8 fd 3b
       0.0055346615 -0.0079173865 -0.010544001 0.007742994
000300 1a 7b 18 bb 95 95 78 bb ae 13 f3 bb 14 93 36 bb
       -0.0023266734 -0.0037930955 -0.0074181175 -0.0027858661
000310 67 2f e3 3b ad 97 2e 3c f0 37 cd 3b 51 0e 22 bb
       0.006933141 0.0106562795 0.006262772 -0.0024727772
000320 e1 be a2 3c 56 7b 8b 3c 50 b0 ab bb 15 33 2a 3c
       0.019866409 0.017026585 -0.005239524 0.0103881555
000330 ec a3 bb b9 58 55 00 bc c8 f5 ef bc c9 04 e1 3a
       -0.0003578955 -0.007832848 -0.029292002 0.0017167564
000340 cd 49 d8 bb 66 bb 05 3c 9c 02 51 3c 2d eb dd 3c
       -0.0066005946 0.008162355 0.01275697 0.02708968
000350 45 99 66 ba 28 b3 b8 bc c5 d0 a5 3a 09 e0 a6 3c
       -0.00087966427 -0.022546366 0.0012650719 0.0203705
000360 59 20 d1 3b 28 47 11 bd 70 07 9f 3c b3 a6 c6 3b
       0.00638203 -0.03546825 0.019412726 0.0060623526
000370 38 07 fe bb 6e d0 54 3c 57 fe 08 bd 6e fe c1 3c
       -0.0077523254 0.012989147 -0.033445682 0.023680892
000380 b2 50 b4 ba e4 15 65 bc 43 71 63 3b 8f 15 b1 3c
       -0.0013756959 -0.01398227 0.003470496 0.021616725
000390 78 90 1e 3c 04 36 3c 3a 81 70 07 bb a2 e1 5a 3c
       0.009677999 0.000717968 -0.0020666423 0.013359459
0003a0 4f 4e 3e 3c 3c a0 36 bc 7b ef 09 3c 6a ba 9a 3a
       0.01161535 -0.011146601 0.008418913 0.0011804823
0003b0 49 1c 88 3b f6 0b 08 3d a5 38 87 3b 31 e9 c3 3a
       0.0041537625 0.03321453 0.0041266256 0.0014946816
0003c0 e5 05 18 3c 24 cf de 3b 17 17 10 3c 97 cc d9 bb
       0.009278749 0.0067995954 0.008794568 -0.0066467035
0003d0 19 8a 66 bb 72 66 40 3c 3a e1 20 3b eb 8b ad bc
       -0.0035177527 0.011743175 0.0024548308 -0.021184882
0003e0 a4 20 6b bc 18 50 9b bb d0 e1 a4 3b 6f 3f a5 3b
       -0.014351044 -0.0047397725 0.0050318018 0.0050429623
0003f0 d8 51 8b 3b c4 37 fd 3b 30 76 b6 3b 68 ee 92 bc
       0.0042517 0.007727595 0.0055682883 -0.017935947

network_body.linear_encoder.seq_layers.0.bias f4 [256]
000000 81 c8 75 3c 56 37 ae ba 20 3a 43 bb e1 64 52 3c
       0.015001417 -0.0013291638 -0.0029789284 0.012841434
000010 51 0c c6 bc 3e 16 93 3b 7f 55 b7 bb e9 03 f7 bb
       -0.024175795 0.0044887355 -0.0055949087 -0.007538308
000020 1e a4 19 bc f3 38 e6 bc 95 4a 0f 3b 0f 5e 95 3b
       -0.0093775075 -0.028103327 0.0021864523 0.004558332
000030 8e 18 a2 bc 4b 1d a0 bb 03 95 38 3c ee 0a 2a 3b
       -0.0197871 -0.0048863045 0.011265996 0.0025946456
000040 d5 50 c3 3b 52 0c 8a bc 06 c3 08 bc d7 3d 59 3c
       0.0059605637 -0.016851578 -0.008347278 0.013259373
000050 5e cc 70 bc b2 98 bb 3a 6e 1a 11 3c b9 9e 86 3b
       -0.014697162 0.0014312475 0.008856399 0.0041082767
000060 81 8e c6 3c c6 a6 db 3b c9 1c 55 bc d9 4c c6 bb
       0.024237873 0.0067032306 -0.013007351 -0.0060516414
000070 ef 66 9a bc fb bd 3b 3c 26 d1 7f 3b 97 3d 03 bc
       -0.01884791 0.011458869 0.0039034574 -0.00801029
000080 47 af 80 3a 54 ef 88 bc d7 63 28 3c f9 25 2d 3c
       0.0009817862 -0.016715683 0.01027771 0.010568135
000090 22 53 73 3c 02 6d b0 bc 62 f8 ed 39 a1 6c db ba
       0.014851363 -0.021536354 0.00045389222 -0.0016740748
0000a0 a6 91 8c bb d5 61 7e ba 57 b5 41 3b 36 1a 13 3b
       -0.0042898236 -0.0009703909 0.002955755 0.0022446043
0000b0 10 f4 77 3b 83 77 dc bc 3b 0e c6 3b f8 41 a6 3c
       0.0037834682 -0.026912456 0.006044177 0.020295128
0000c0 7c b1 83 bc c5 5c 22 bb c4 ba 51 3c d6 af 72 bb
       -0.016075842 -0.0024774533 0.012800876 -0.0037031076
0000d0 8a b0 39 3c ac f3 7a bb 88 34 a9 ba b8 c5 58 bb
       0.011333594 -0.0038292212 -0.0012909332 -0.0033076834
0000e0 04 30 27 3c 60 88 1a bb 9e db e5 ba 31 04 96 bc
       0.010204319 -0.002357982 -0.0017536764 -0.018312545
0000f0 a5 6f 72 3c 4f 6f 74 39 4f c9 87 3c cd 97 02 bb
       0.014797126 0.00023311119 0.016575484 -0.0019926906
000100 f2 c4 08 3c 9a b9 72 bb 40 9a d9 ba a1 47 09 3c
       0.008347737 -0.0037036897 -0.0016601756 0.008378894
000110 c5 0c 4a bc 2a 73 39 3c 72 f6 14 bc 04 85 98 bc
       -0.012332146 0.011318961 -0.00909196 -0.018618114
000120 d5 94 85 39 ab 50 05 bc 23 a0 54 3b 89 0b 98 bc
       0.00025478625 -0.0081369085 0.0032444082 -0.018560188
000130 ef 4c e2 bb 4a a1 22 bc 6c b9 ef 3b e5 24 ce bb
       -0.006906144 -0.00992615 0.007315805 -0.0062910193
000140 83 01 6e bc c4 0b 94 bc d8 1a d4 bc b8 f1 39 bc
       -0.014526728 -0.018072017 -0.025891706 -0.011349134
000150 58 f4 3d bc ff 24 a5 3b 75 d4 a9 bb ca 06 d8 bb
       -0.011593901 0.0050398107 -0.0051827976 -0.006592606
000160 b9 ee 1a bc 58 e8 78 bb 91 ed 42 bc 96 6c a3 bc
       -0.00945633 -0.0037980285 -0.011897461 -0.019949239
000170 90 bb 9d ba 55 51 a4 bb a8 15 7b 3c 3d ca 8b 3b
       -0.0012034047 -0.0050145783 0.0153249875 0.004266052
000180 19 0c 8f 3c 9a 1e a8 3c d0 80 ca bc d0 08 17 3c
       0.017461823 0.020522404 -0.024719626 0.00921841
000190 8c 2a b4 bb 74 20 16 3c 24 c7 d1 3b 96 b4 92 bb
       -0.005498236 0.009163011 0.0064019132 -0.004477094
0001a0 e3 c9 5a bc 97 a0 8b 3a 30 b6 9f ba d3 6a e5 bb
       -0.013353798 0.0010652718 -0.0012185033 -0.00700126
0001b0 5a d5 90 3c 3c 0a 67 3a c9 6d 90 3b 04 e3 f5 3b
       0.017679859 0.0008813476 0.0044076187 0.007503869
0001c0 b1 2e 81 bb 35 b5 0b 3c f3 37 c8 bb 5b 6d 23 bb
       -0.0039423336 0.00852709 -0.0061101853 -0.0024937007
0001d0 72 f9 11 bb f0 c1 9d 3c a2 dc a3 3b 32 62 37 bb
       -0.0022273925 0.019257516 0.0050006667 -0.0027982113
0001e0 00 04 cb 3c 4d ce 87 3c 7c b2 d7 3a 15 ce d7 38
       0.02478218 0.016577864 0.0016456391 0.00010290385
0001f0 c3 72 36 bc dd 69 98 3b 35 cb 23 bc ad 75 0e bc
       -0.01113576 0.0046512918 -0.009997179 -0.008695048
000200 a7 3f 86 3b e5 38 80 bb 0c a9 86 39 79 e3 7b 3b
       0.0040969434 -0.0039130324 0.0002568442 0.0038435145
000210 18 d4 8b bc eb eb 8f bc a5 af 37 bc 8f 4e 84 bc
       -0.017068908 -0.01756855 -0.0112113105 -0.01615074
000220 82 25 57 bb a6 bd 20 bb 0e 8b c3 3b ed 81 ef bb
       -0.0032828753 -0.0024527102 0.0059675043 -0.0073091895
000230 60 c5 fe 3b 23 a4 8a bc c7 c8 87 3c 65 79 52 bc
       0.007774994 -0.01692397 0.01657523 -0.0128463255
000240 6e 18 57 3b 83 22 31 bc 0f b5 7f 3c 25 e8 06 3c
       0.0032820958 -0.010811451 0.015607133 0.0082340585
000250 9b 20 97 3c e8 b0 13 b9 61 42 97 3b 37 ad 0f bc
       0.018448165 -0.00014084915 0.0046160673 -0.008769325
000260 20 7f f1 3b f8 c5 7c bc 3c 0d cb 3b 1e 73 22 39
       0.007369891 -0.015428059 0.006196646 0.00015492408
000270 ed 46 e6 3b 28 45 ba 3c 0a 02 00 3c 91 b6 8d bc
       0.007027498 0.022738054 0.007812986 -0.017298969
000280 4d ed 29 3c 16 82 06 bc a5 16 46 ba db e2 6b bb
       0.010371518 -0.008209726 -0.0007556475 -0.003599337
000290 4b cb 46 bc 8c c8 03 3d 34 f4 c7 bb ad 77 38 bc
       -0.01213343 0.03217368 -0.0061021093 -0.011259002
0002a0 16 3d 8d bc cc c8 f8 ba 53 f2 78 3c f5 fb cb bb
       -0.017241042 -0.001898074 0.015194493 -0.006225104
0002b0 b5 0a d3 3b ee ac a7 bc d1 0c 67 3c 1d 6e d3 bb
       0.0064404854 -0.020468201 0.014102177 -0.0064523355
0002c0 74 db 9e bc 6e 38 b9 b7 20 d4 cb 3b b5 21 48 bc
       -0.019391753 -2.2079996e-05 0.0062203556 -0.012215068
0002d0 c4 60 a3 bb dd e9 8c bb 42 51 9c bc ef 82 e7 3b
       -0.0049859006 -0.0043003396 -0.019081715 0.007065169
0002e0 42 5e bb bb b5 75 8c bc 5c ad 6f 3c 04 ca 0d 3b
       -0.0057180235 -0.01714597 0.014628734 0.0021635303
0002f0 81 e3 32 3c ea 11 b0 3c 67 cd 4d 3c 9a 5f c1 bc
       0.010918499 0.021492917 0.012561179 -0.023605157
000300 a0 35 f5 bb a9 e9 a3 ba 62 98 74 bc e4 4c d4 bc
       -0.0074831992 -0.0012505549 -0.014928909 -0.02591557
000310 30 0e 9b 3a e6 a4 b0 3b ca ff 05 bc bf 04 6e 3c
       0.001182979 0.005390751 -0.008178661 0.014527499
000320 79 0c db 3b 42 c3 89 3c 01 06 16 bd a1 98 cb ba
       0.0066848365 0.016816739 -0.03662682 -0.0015533158
000330 ef 8c ca bc d9 af b3 3b af 90 de b9 2d e3 28 3c
       -0.024725405 0.005483609 -0.00042450937 0.010308069
000340 d6 e4 01 bb ab 86 59 ba 96 b9 23 bc 7d 3b 94 bc
       -0.0019820235 -0.000829796 -0.009992978 -0.018094772
000350 36 94 cb 3c 52 d7 33 3c b8 29 ed bc d7 68 31 3b
       0.024850946 0.010976629 -0.028950557 0.0027070546
000360 4a b3 17 bc 29 c6 f4 bb bc 0a 31 3b e8 b1 00 bd
       -0.009259054 -0.0074699116 0.0027014455 -0.031419665
000370 a7 67 27 bc 35 57 80 3c 0f 0a 2f 3c ce 35 51 bc
       -0.010217584 0.015666584 0.0106835505 -0.012769176
000380 4e fe 6f bc 82 32 3c 3c e2 0f 84 3c ef b1 4c 3c
       -0.014648033 0.011486651 0.016120855 0.012493595
000390 61 7f 14 ba 11 91 89 bb da 8d 30 bc 02 47 41 bb
       -0.0005664733 -0.0041982015 -0.010776008 -0.0029491787
0003a0 79 e7 ab 3c e0 b4 0c bb 08 80 35 bb 71 d4 ef 3b
       0.020984398 -0.0021470115 -0.002769472 0.007319026
0003b0 41 8a 3d bb b8 b8 d7 bc ec cb 14 bb 75 46 6f 3c
       -0.0028921517 -0.026333198 -0.0022704555 0.014604201
0003c0 82 fb 08 3c 74 f3 96 bb 54 c4 c4 ba f6 d9 50 3b
       0.008360745 -0.0046066586 -0.0015012124 0.0031868196
0003d0 1c 7a 42 3b f3 13 cd bc 1b 81 47 3b 89 b2 9e bc
       0.0029674834 -0.025033927 0.0030441943 -0.019372242
0003e0 02 b4 ef 3b e6 bf ca bb 14 e9 9c bb f0 5b 74 bb
       0.00731516 -0.006187427 -0.0047885273 -0.0037286244
0003f0 ba 82 a4 bc 47 75 ac bc 53 c5 7e 3c 5b 24 5d 3c
       -0.020081867 -0.021052016 0.015549975 0.013497437

network_body.linear_encoder.seq_layers.0.weight f4 [256, 8]
000000 2f 97 e6 bd 8c c6 ad 3e bf 40 53 be af a6 8d 3e
       -0.11259305 0.33940542 -0.20630167 0.27666232
000010 0d b2 1c 3f 8a fd 2c 3e db 4b b2 3d b7 a2 c8 3e
       0.61209184 0.16893592 0.087058745 0.39186642
000020 fd e2 50 bf 9d 5c 05 3e 44 94 59 be f3 96 de 3d
       -0.81596357 0.1302361 -0.21247965 0.10868635
000030 a7 76 5e 3e 73 a4 e4 bd 3c e1 ce be 13 63 4e be
       0.2172495 -0.11164179 -0.40406215 -0.20154981
000040 ab ac ca be 56 6a 8d 3e 87 c7 eb be 96 c2 05 3f
       -0.3958486 0.2762019 -0.46050665 0.5225004
000050 43 37 5f bd 76 d3 c9 bd 69 ed 1e 3e ec ff 4b 3d
       -0.05449606 -0.09854786 0.15520252 0.049804613
000060 71 8c 96 3e 33 6b 4e 3e bd 2e 4f bf 8b e9 2c bf
       0.29404023 0.20158081 -0.8093069 -0.6754386
000070 39 ed 74 be ca c4 48 3e 57 de a0 3d 8b 98 8a 3d
       -0.23918618 0.19606319 0.07854908 0.067673765
000080 13 f6 40 be ec 99 fd 3e b9 16 93 3e 25 f3 2a 3c
       -0.1884387 0.49531496 0.28728274 0.010433947
000090 41 0f e8 3e 0f fe 87 3a a2 43 4d 3e cc a3 9d 3c
       0.45324138 0.0010375398 0.20045331 0.019243143
0000a0 b1 46 a3 3e 1a 69 90 be 71 56 8f bd cf cd 75 3c
       0.3188987 -0.28205186 -0.06998909 0.015002682
0000b0 34 4a 82 be 20 92 88 bc ec bf aa 3e 17 ef aa 3d
       -0.25447237 -0.01667124 0.3334955 0.08346384
0000c0 0d a4 1e be e2 c8 d0 3d 49 e9 10 bd 5b 24 45 bd
       -0.15492268 0.10194565 -0.035378728 -0.048130374
0000d0 50 de a5 3e 69 39 e5 3d 44 45 af be ed 48 64 3e
       0.32396173 0.11192591 -0.34232533 0.22293444
0000e0 51 bc 21 ba f2 db 0e 3e bc f2 7c 3e 31 87 29 bf
       -0.0006169724 0.1395109 0.24701971 -0.6622191
0000f0 98 b5 fc 3e 33 44 65 bf 34 62 76 be 54 98 99 be
       0.49357295 -0.8955719 -0.24060899 -0.2999903
000100 76 20 1f bf 43 02 16 3e b2 5a 0c bf 99 08 2b be
       -0.62158906 0.146493 -0.5482589 -0.16702498
000110 91 8e 47 be 62 2a 30 bd 86 71 ee 3e 55 40 b6 3d
       -0.19487979 -0.04300917 0.46570987 0.08898989
000120 ca ba 65 3e 56 1a 1b bf 1b a7 00 3f 91 96 d2 be
       0.22434536 -0.6058706 0.5025498 -0.41130498
000130 6b 78 81 3d 6b 5e 60 3f 77 70 ca 3e ca 9f 67 be
       0.06321796 0.8764407 0.3953893 -0.22619548
000140 44 7a 33 be a9 88 50 be 0f d7 a6 3e 44 b6 0c 3f
       -0.1752711 -0.20364632 0.32585952 0.54965615
000150 9b 59 23 be 2d ef 55 3e f2 ca 16 3f 12 18 12 bc
       -0.1595215 0.2089202 0.5890342 -0.008916872
000160 cc e7 97 be cf 51 e5 3e de 0c 04 bf 20 af 4d be
       -0.29669034 0.44788978 -0.51582134 -0.20086336
000170 cd c0 bb 3e f6 82 ee 3e 89 96 18 3e c2 1f ba be
       0.36670533 0.4658429 0.14901175 -0.36352354
000180 e2 fc ef be 5d f9 41 3f e8 59 da 3d a8 2c 37 bd
       -0.46872622 0.75771123 0.106616795 -0.044720322
000190 9f c0 ba 3e 26 fc dc 3e bb f2 ba 3e 25 de 1e 3f
       0.36475083 0.43161124 0.36513314 0.62057716
0001a0 9b c5 88 3e bf 2f 1d bf 38 4b 98 3d 56 a1 84 bc
       0.2671326 -0.6140098 0.07436222 -0.016190212
0001b0 c4 86 86 3d 2e 36 a7 be a7 0a d5 3e 88 26 de 3d
       0.06568673 -0.32658523 0.4160969 0.10847193
0001c0 fe da 2d 3f 55 32 1d 3f cb 74 70 3e 5b d0 68 3e
       0.6791228 0.61404926 0.23482053 0.22735731
0001d0 cc 41 9b bd 73 08 fe be 4e dc 59 bf 69 93 53 be
       -0.07580909 -0.4961582 -0.85101783 -0.20661701
0001e0 0e 19 ac be 31 5a c7 3e 41 f7 ac 3e 0c f6 bc 3d
       -0.33612865 0.38935998 0.3378239 0.09226617
0001f0 fb e8 cb 3d 91 50 09 bf 0e 27 a7 bd f4 cd b2 be
       0.09956547 -0.5363856 -0.08161746 -0.34922755
000200 16 6f c7 bc 94 75 04 be 35 3d 52 be e6 57 96 bd
       -0.024344962 -0.12935477 -0.20531161 -0.07340984
000210 af d8 8c be e3 93 30 bf 09 f0 47 3e 0c ae 12 3e
       -0.27509066 -0.6897566 0.1952516 0.14324206
000220 00 c7 cd be 34 03 24 3e ca 34 88 3c cc 56 c4 3c
       -0.40190887 0.16016847 0.016626734 0.02396717
000230 e8 68 d3 3e 18 3d b7 3d b8 b3 07 3f aa 07 78 3e
       0.41290975 0.089471996 0.53008604 0.24221674
000240 1f c2 20 be f1 07 73 be d9 2c a1 be 75 f5 25 be
       -0.15699051 -0.23733498 -0.3147953 -0.16206916
000250 b7 56 95 3d b5 81 26 bf 39 95 ef 3e 25 6f 0d 3e
       0.0729193 -0.6504167 0.46793535 0.1381193
000260 e2 fd ad 3e 12 50 6f be 55 5f dc bd d3 c8 15 3f
       0.3398276 -0.23370388 -0.10760371 0.5850956
000270 89 30 19 bd 2a e1 c5 3d 76 4c 59 bf 20 e4 08 be
       -0.037399802 0.09662087 -0.84882295 -0.13368273
000280 99 62 8f bd db 49 24 bf fb 85 f3 bd ab 60 bd 3e
       -0.07001228 -0.64175195 -0.11890789 0.36987814
000290 83 2d 17 3f 24 43 4c be ad 8a 10 3f 7b 0f 2e bd
       0.5905382 -0.19947487 0.564616 -0.042495232
0002a0 eb 17 7e be cb f8 94 be 17 65 95 3c 53 91 5d bf
       -0.24813811 -0.29096064 0.01823668 -0.8654987
0002b0 9c 5e ad be 1b 8b 4a bf 37 06 59 3d ca 7d 24 be
       -0.33861244 -0.7911851 0.052984443 -0.1606361
0002c0 33 51 39 3f 01 4a ac 3e cd 17 67 bf de 86 4c 3e
       0.72389525 0.3365021 -0.9027069 0.19973323
0002d0 4f 7d da be b5 64 4e 3e 18 ca d3 be 87 7a 7a 3e
       -0.42673728 0.20155604 -0.41365123 0.24460803
0002e0 46 1f f6 3d d9 98 37 be cc a4 37 be 0d df 07 bf
       0.12017684 -0.179294 -0.17933959 -0.53074723
0002f0 32 7e 1f bf bc 83 41 be 5a 36 4d be ec 95 f5 bb
       -0.62301934 -0.18897909 -0.20040265 -0.0074946787
000300 a7 0f bd 3e 4a 59 50 bc b2 56 c3 3d 0e 5f 1d 3f
       0.36926004 -0.012716601 0.0953802 0.61473167
000310 7e 0f 03 bf a4 a1 05 be 55 5e 70 be b3 e1 a7 3e
       -0.51195514 -0.13049942 -0.23473485 0.32789382
000320 ff 45 c1 3e c2 43 8e be 38 f1 4a 3e da 2f ea 3b
       0.37748715 -0.2778607 0.1981858 0.0071468176
000330 85 f2 13 3e 0c 2f ba 3d 24 6f c3 be b6 d3 20 bf
       0.14447983 0.09091005 -0.3817073 -0.62823045
000340 5c ef 5d be 7f a8 68 bd e9 98 1a 3f ae fe 28 be
       -0.2167334 -0.056801315 0.6038957 -0.16503403
000350 95 42 b0 bd 02 2e aa be 41 b4 0f bf 2f b2 82 3b
       -0.086064495 -0.33238226 -0.5613442 0.0039885263
000360 00 0d 99 3e 48 ee dc bd b5 8a 4e bd 08 61 14 bd
       0.2989273 -0.10787636 -0.05042525 -0.03622535
000370 dc 79 b9 3e aa fe 61 be eb 0d 0d bf 2b 34 e3 3e
       0.36225784 -0.22069803 -0.5509936 0.44375739
000380 2c 86 c6 3e 62 6e ef be 5b 90 06 3f d5 0d 08 bf
       0.3877424 -0.46763903 0.5256402 -0.53146106
000390 fb 8c 26 bf 9a c5 53 3e 62 42 63 be 82 05 ce 3e
       -0.6505887 0.20680848 -0.22193292 0.40238577
0003a0 7c 98 f0 be 17 ba 13 3f c7 53 58 3d 77 a1 8f be
       -0.46991336 0.57705826 0.05281427 -0.28052875
0003b0 d8 f5 e8 be 8b c3 1f be 92 3c 2b 3e 12 bb b9 3e
       -0.45500064 -0.15601937 0.16722324 0.36275536
0003c0 e9 9f 90 be ed 1e 20 3f 46 c0 6b bd 23 be 6c 3c
       -0.28247002 0.6254719 -0.057556413 0.014449629
0003d0 04 b9 dd be ff 78 80 3e f0 52 88 bf 5e 8d 13 3f
       -0.43305218 0.25092313 -1.065031 0.57637584
0003e0 aa 68 15 bf 50 ca 92 be a8 b5 02 be 13 58 22 be
       -0.5836283 -0.28669977 -0.12764609 -0.1585391
0003f0 4c 8e 93 3e ae 0f 90 bc d5 75 b6 be d3 82 97 3d
       0.288195 -0.017585602 -0.35636774 0.073979996

network_body.linear_encoder.seq_layers.2.bias f4 [256]
000000 3b 2d 9a bb 57 01 39 bc 17 f2 b5 3a 36 b9 8b ba
       -0.004705099 -0.011291823 0.0013881352 -0.0010660056
000010 49 a6 19 3b 45 f1 d2 3c 6b 97 b4 bb 09 fa c6 3b
       0.002344506 0.025749812 -0.0055112145 0.006072287
000020 7a b3 ac 39 93 34 17 bc 40 9d ef 3b 8f 70 3a bc
       0.00032940117 -0.009228843 0.007312447 -0.011379375
000030 bc a6 5b bc 1d ef 5c bc 15 c5 47 3c d6 a8 25 3c
       -0.013406452 -0.013484743 0.012192984 0.010111054
000040 2d a9 2f 3b f7 9e e3 bc da f9 37 bc 49 35 42 3c
       0.0026803717 -0.027785761 -0.011229003 0.0118535245
000050 2e d0 fb ba ef 5d e3 3c bf 27 b2 3b 24 36 1c bc
       -0.0019211823 0.027754752 0.005436867 -0.0095343925
000060 bd 89 92 bb af a3 8d bb 68 18 57 3c 7c 4b 95 bb
       -0.004471986 -0.004322491 0.0131283775 -0.0045561176
000070 da 2f e0 bc 5f 88 04 3c 0f 7c 9f b9 1e d6 77 bc
       -0.027366567 0.008089154 -0.00030419274 -0.015126733
000080 96 ee c7 3c 42 72 e3 bb 7e 2d 25 3c 3f 7f ee ba
       0.024405759 -0.006941111 0.010081647 -0.0018195881
000090 eb ae be bb 75 c0 b4 3b ca bc e7 bb 4d 3f 85 3a
       -0.0058191917 0.0055161067 -0.007072066 0.001016596
0000a0 bb bf a0 3b 61 85 d9 bc 1d c1 ae bb a7 2e 93 bb
       0.0049056686 -0.026552858 -0.0053330795 -0.0044916454
0000b0 d2 15 17 ba 0e 21 2d bc 87 0c 41 bc 77 49 cb bb
       -0.00057634444 -0.010566963 -0.011782772 -0.006203826
0000c0 53 66 96 bc 3d 46 13 bb f7 97 08 3c a1 6d b3 ba
       -0.018359339 -0.0022472285 0.0083370125 -0.0013689288
0000d0 a1 f8 b5 bb 45 d3 6f bb f3 cf e5 bb 76 37 ea bb
       -0.0055533205 -0.0036594432 -0.007013315 -0.0071477247
0000e0 66 16 01 3c d4 90 8b bc 40 a0 61 3a cd cd 37 3b
       0.007878875 -0.017036833 0.0008606948 0.002804625
0000f0 eb 62 27 bc 30 3e c3 ba 35 15 00 bb db e0 07 bc
       -0.010216455 -0.0014895853 -0.001954389 -0.008293356
000100 71 98 10 bb af f5 23 bc 38 34 68 bc 5b 13 7b 3b
       -0.0022063518 -0.010007306 -0.014172606 0.0038311097
000110 69 e3 2c bc da bd 28 3c ff 50 82 3b 7b 4d 6a bc
       -0.010552266 0.01029917 0.0039769406 -0.014300699
000120 5e fd b2 b9 c0 b2 10 3c af 14 73 bc 3f f8 27 bb
       -0.0003413958 0.00883168 -0.014836474 -0.0025630144
000130 c2 cb fc bb 42 c2 f2 3b 7a be eb 3b a8 a8 53 bc
       -0.0077147195 0.0074084112 0.0071943374 -0.012918629
000140 69 5d 26 bb 8a f8 3b 3c 1b f9 20 3c 35 a5 23 bc
       -0.0025385267 0.011472831 0.009825016 -0.009988119
000150 55 dc 2e 3c a2 ea 90 ba 3f 62 82 3b 6e de 45 bb
       0.010672648 -0.0011056254 0.003978997 -0.0030192393
000160 19 1b ea 3b 0d d7 13 3c 52 96 5c 3b 17 b8 31 3c
       0.0071443436 0.00902344 0.0033658934 0.010847113
000170 f6 d2 8b bc 08 e0 1f bc 86 a2 a6 b9 c8 36 60 3c
       -0.017068367 -0.009758003 -0.00031783077 0.013684936
000180 fb 92 5c bc 5f 9a 48 3c cd 1d 0c 3b 6b 99 50 ba
       -0.013462777 0.012243836 0.0021380067 -0.00079574314
000190 d0 98 91 bc fe 0c 14 bc 4b 80 73 bc ae f8 9f bc
       -0.017773062 -0.009036301 -0.01486213 -0.01952776
0001a0 f3 f1 41 bc a0 cb 2f 3c de 31 18 3b 04 c5 0f 3c
       -0.01183747 0.0107297 0.0023223083 0.0087749995
0001b0 89 0b 44 bc 51 b9 ee 3b 3c 1a b0 3c 88 8a f3 bb
       -0.011965641 0.007285275 0.021496885 -0.0074322857
0001c0 32 65 f3 3b 8a 43 b9 3a 66 e1 fa bb b8 a6 c2 3b
       0.007427835 0.0014134508 -0.007656264 0.0059402846
0001d0 db ea 66 bb 25 9d c5 3a e0 0e 0a bc d9 d3 80 bc
       -0.00352352 0.001507674 -0.008426398 -0.015726017
0001e0 16 49 5b 3c 7a 16 eb 3b 5f fc 42 bc e2 80 c3 bb
       0.013384124 0.0071743103 -0.01190099 -0.0059662918
0001f0 c8 fe 2a 3c 5f ec 30 3b 80 58 5a bc eb c2 50 3c
       0.010436721 0.0026996357 -0.013326764 0.012741785
000200 57 2f eb bb b1 c5 87 ba 54 9a a8 3c f2 7e f6 3b
       -0.007177274 -0.0010358599 0.020581402 0.0075224573
000210 ad a4 8c 3b b1 0c a0 3a 13 c4 e2 3b f2 f9 cd bb
       0.004292092 0.0012210814 0.0069203465 -0.0062858993
000220 96 93 b7 ba 18 0f 57 bc 6b e2 81 3b 36 27 fa 3b
       -0.0014005776 -0.013126157 0.0039637587 0.007634069
000230 da 74 92 bc 89 77 a8 bb 8e e2 44 bc 7d b9 89 bb
       -0.017877985 -0.005141203 -0.0120169055 -0.00420302
000240 03 6a d6 bb 17 04 c4 bb d9 4d 8f b9 f7 f4 2e b9
       -0.0065433993 -0.005981933 -0.00027333086 -0.0001668519
000250 8d 1d 58 bc b0 4c 31 3c e8 1d 1c 3c d3 07 e6 ba
       -0.013190639 0.010821506 0.009528615 -0.0017549939
000260 db c3 2f 3c 13 83 02 bb be fc f7 bb 1c a9 fd bb
       0.010727848 -0.0019914552 -0.007567971 -0.0077411067
000270 a9 8f 5a 3b f3 3f e1 bc 7d a8 f0 bb fd 82 22 bc
       0.0033349788 -0.027496314 -0.007344304 -0.009918925
000280 d9 94 f1 ba 04 ae 94 bb 49 a7 83 bb 74 53 6c 3b
       -0.0018431201 -0.004537346 -0.0040177447 0.0036060484
000290 69 6d b0 3b f5 f5 43 3c ce 0f 46 bc 94 e9 08 bb
       0.0053841365 0.011960496 -0.012088729 -0.0020891177
0002a0 fb 07 d3 bb 64 d6 72 bb cd fc 05 b9 c5 b2 a0 3b
       -0.0064401603 -0.0037054056 -0.00012778044 0.0049041235
0002b0 f4 b5 61 3b f9 97 83 3b eb fe c7 3b d4 cb 9a 3c
       0.0034440728 0.0040159193 0.0061033866 0.018896021
0002c0 3d af 42 3c 18 1f a5 3b 59 cc d4 bb 11 70 cc 3a
       0.0118826 0.005039107 -0.0064940867 0.0015597363
0002d0 5a eb 6f bb 02 75 1f ba 5e b7 a5 3b e4 1d 22 38
       -0.0036608786 -0.0006082804 0.0050572595 3.8651648e-05
0002e0 d0 15 18 bc 69 ff 08 3c 63 b2 dd bb 59 af fa 3b
       -0.009282544 0.008361676 -0.00676565 0.0076502976
0002f0 3a a3 24 bc ca 5d b6 bc cb 4d 8f 3a 27 87 c5 3a
       -0.010048682 -0.022261519 0.0010933218 0.0015070186
000300 0c 5a 2e bc dc 91 49 bc 88 b3 1c 3b 4d 67 1c 3c
       -0.010641586 -0.012302842 0.002391072 0.009546113
000310 0f 86 56 3c 01 6c 2f bc 55 f0 3b 3c f5 24 13 3c
       0.0130934855 -0.0107069025 0.011470874 0.008980979
000320 f8 1f 86 bc ad ee 50 bc 90 ff 8b bb ae 43 6e bc
       -0.016372666 -0.012752217 -0.004272409 -0.014542503
000330 d1 f0 8a bc 78 a9 17 bc 8f 05 cf ba 36 f2 60 bb
       -0.016960533 -0.009256713 -0.0015794503 -0.0034324056
000340 f7 65 fd 3b 4c f6 1a 3a e5 12 1c bb db 78 be bb
       0.0077331024 0.0005911335 -0.0023814973 -0.005812747
000350 47 c0 c5 bb 5c 97 e6 bb df df 2d bc 5f f6 37 3c
       -0.006034884 -0.0070370864 -0.010612457 0.011228173
000360 44 5f 81 3b 34 96 63 3a 90 8f 8e ba 0c 22 86 bb
       0.003948124 0.0008681745 -0.0010876525 -0.004093414
000370 88 78 cf ba 05 a7 1d bc 45 d1 e0 39 64 1e 59 3c
       -0.0015828768 -0.00962234 0.00042880527 0.013251875
000380 4c f9 58 3c 8e 97 9f 39 dc 41 c7 3b eb 0c 2b 3c
       0.013243031 0.0003043976 0.006080849 0.010440092
000390 75 66 86 3b ca e4 9e 3c f1 ed bf bb 35 1f d5 3b
       0.0041015693 0.019396205 -0.0058572222 0.0065039643
0003a0 85 f9 5f bc bf 47 1f bc f9 fc 45 3a d8 5e 06 3c
       -0.01367033 -0.009721695 0.00075526495 0.008201323
0003b0 f9 61 98 3b fe 6a 88 bb 2d 14 c1 3a e6 39 35 bc
       0.004650351 -0.004163145 0.0014730744 -0.011061167
0003c0 9b 4c 33 bc 7b 9b 58 bc cf b2 cc bb 33 b3 6d bc
       -0.010943557 -0.013220663 -0.0062469016 -0.014508056
0003d0 67 d3 7a 3c a3 83 9b bb f7 6d 0d bc b8 51 fc bb
       0.015309191 -0.004745917 -0.008632175 -0.0077001713
0003e0 ef c8 c1 bb 2b 7b da 3c ae e8 a4 bc b6 9b eb bb
       -0.0059138457 0.02667006 -0.020130482 -0.007190193
0003f0 22 f9 3d 3b b1 ae 41 bc 4b c1 2c 3c 39 ef 08 bc
       0.0028987606 -0.011821435 0.0105441315 -0.008357816

network_body.linear_encoder.seq_layers.2.weight f4 [256, 256]
000000 97 94 0b bc e5 b2 1c bc f5 8f f8 bb 59 e0 e7 3c
       -0.008519313 -0.009564136 -0.0075855204 0.02830522
000010 c6 ca ca bd aa 61 39 bd a7 d4 a6 bc b9 d9 34 3d
       -0.09901957 -0.045259155 -0.020365072 0.04415295
000020 03 11 d5 3d 00 79 77 3c 94 f1 ee 3d 0f f1 4f 3b
       0.10403635 0.015104532 0.11667171 0.0031729375
000030 64 c2 98 bd e3 d6 d5 bd 41 11 17 bc 2b 98 bb bd
       -0.07458952 -0.10441377 -0.009220422 -0.09159883
000040 37 03 83 bd 13 3a 15 bd 13 b7 e9 bb 92 6d 83 bc
       -0.063970976 -0.036432337 -0.00713242 -0.016043458
000050 42 c6 e7 3c 8b 83 31 3d d9 b1 0d bd b6 ad 57 bd
       0.028292779 0.04333834 -0.034593437 -0.052655898
000060 e9 08 d1 3d 54 0b 08 3d a9 70 81 3d 13 4e 63 bd
       0.102067776 0.03321393 0.06320316 -0.05549438
000070 99 9a 4d 3d 2b a1 91 3d 8b 4c 8c bc 69 93 70 3d
       0.050196264 0.071108185 -0.017126342 0.05873433
000080 5a 1e 17 bd f1 76 8e 3c 1d 6f 51 3d 0c b6 fa bc
       -0.03689418 0.0173907 0.051131357 -0.030604385
000090 3a 7c 8d bc 57 fe a6 3d 09 13 9e 3d ea 1c 3a bd
       -0.01727115 0.0815398 0.077184744 -0.04543773
0000a0 bc 4a aa 3c 0f 42 cf bd e0 46 88 bc 69 54 88 3d
       0.02078759 -0.101200216 -0.016635358 0.06656725
0000b0 a5 1e 90 bd 71 7f ce bd e3 b4 c9 bd 8a d6 1f 3d
       -0.07037095 -0.10082901 -0.098489545 0.03902296
0000c0 82 bd 73 bd e7 74 5f 3d ed 1b ac bd f9 07 bf 3b
       -0.0595069 0.054554846 -0.08403764 0.005829808
0000d0 99 6d 14 3d c3 8f 4b bb 71 89 bd bd 93 75 26 bd
       0.036237333 -0.003106103 -0.092547305 -0.04063947
0000e0 9b 7d f7 bd 59 f4 95 3d ed f8 1d bd 94 27 3d bd
       -0.12084504 0.07321996 -0.038567472 -0.046180323
0000f0 89 7a 87 bd bb b9 24 3e ad 66 eb bd ce 3d b2 3d
       -0.066151686 0.16086476 -0.11494193 0.087031946
000100 b4 82 de bb 74 a4 89 3d 7e 2a ac bb 7c 26 b1 bc
       -0.0067904834 0.0672082 -0.005254089 -0.021624796
000110 91 1a 31 bd b0 d9 d9 bc 4f f2 6f 3d 45 89 e9 3d
       -0.043238226 -0.02659306 0.058580693 0.11403135
000120 ea bf 5e bd 78 73 d5 bd ee fe ef bd d1 9a e3 3d
       -0.054382242 -0.104224145 -0.11718546 0.11113513
000130 90 cb fc bd fc 10 3e bd 47 34 4d bd 85 c0 c2 3d
       -0.12343514 -0.046402916 -0.050098684 0.095093764
000140 9b ed 2b 3d 34 ce 99 bc 64 40 bd bc 99 72 6e bd
       0.041974645 -0.018775083 -0.023101993 -0.058214758
000150 93 dd 69 3c 1f 57 ad 3c 0e 10 e6 3b 1b a1 ee bc
       0.014274019 0.021159707 0.007020957 -0.029129555
000160 8b 0f 55 3d 09 61 82 3d 67 cf 08 3e e9 e7 73 3d
       0.052016776 0.06366164 0.13360368 0.05954734
000170 bf 5b 30 3e 62 4e 36 bd 0b 8c 33 3d 64 49 ef bc
       0.17222498 -0.044508345 0.043834727 -0.0292098
000180 5b 93 21 be 2d d1 a7 3d 96 67 b6 3d f5 ba 87 3c
       -0.15778868 0.08194194 0.08906476 0.01656864
000190 ee 9f a1 bb eb e4 a0 bd f1 bd 1d 3c cb 92 a4 bc
       -0.004932395 -0.07856163 0.009627805 -0.020089528
0001a0 c2 fc 3e bd cc 6e f9 3c 6b 9a 16 bd 02 13 99 bd
       -0.046627767 0.03044834 -0.03676836 -0.074743286
0001b0 70 bc f0 bb ac be 41 3d 41 31 c7 bc 4b 95 ca 3c
       -0.0073466823 0.04730098 -0.024315478 0.024729392
0001c0 b0 e5 57 bd 1b d1 58 bc a3 50 f4 bd a8 f5 5d bd
       -0.05270928 -0.013233448 -0.11929443 -0.054189354
0001d0 10 03 36 3d d5 8d 09 bd 6b eb 85 3c 61 ea cc bc
       0.044436514 -0.033582527 0.016347608 -0.025014104
0001e0 8a 28 e6 3c 32 dc e2 bd a5 3f fd bb 90 ff 09 3d
       0.028095502 -0.11077155 -0.0077285343 0.03369099
0001f0 43 8c 8f 3d 30 06 0f be a4 0f 53 bd 9e 1d ba bc
       0.07009175 -0.13967204 -0.051528588 -0.0227192
000200 2b 8d e9 bc 52 17 bc 3d b4 52 f1 bd 55 8f 9e bd
       -0.028509697 0.091841355 -0.117833525 -0.07742182
000210 54 ee 15 bd 67 6a c6 3d af 12 53 bd 26 cf fd bc
       -0.03660424 0.096882634 -0.05153149 -0.030982565
000220 65 f5 6c bd b7 b5 96 3d 49 19 1d be b6 01 ef 3d
       -0.057851214 0.07358878 -0.15341677 0.11670248
000230 62 b0 3d bd a1 b3 90 3d 96 6e dc 3d 8d 6f 8c 3d
       -0.04631079 0.070655115 0.1076328 0.06857214
000240 e2 5a 5f 3d d1 34 a2 bd 6e 76 76 bd b8 92 17 be
       0.054530032 -0.0792023 -0.060171537 -0.14802063
000250 de 67 d6 bb 91 de e0 3d d2 24 e8 bd 5e 7a 3b 3d
       -0.0065431437 0.10979951 -0.11335148 0.045770995
000260 62 38 89 3d 87 c4 1f bc 23 ac ab bd 75 68 56 bd
       0.06700207 -0.009751446 -0.08382442 -0.05234571
000270 19 d8 c2 3d f8 83 70 bd a9 05 67 bd 9f 16 5c bb
       0.095138736 -0.058719605 -0.056401882 -0.003358282
000280 56 ab 11 be 50 d4 54 bc db 37 be 3d 71 d9 28 3c
       -0.14225516 -0.012990072 0.09287997 0.010305748
000290 10 87 b8 bc 89 f7 e4 bd bd 70 5b bd 97 b7 25 3d
       -0.02252534 -0.11180026 -0.053574312 0.040458288
0002a0 5e 1b 4c bd da 84 0e 3e 17 cc 3c bc 33 33 1d bd
       -0.049830787 0.13917866 -0.011523268 -0.038378906
0002b0 b6 07 93 3d ea 29 56 bc bd 90 b9 3b ef 07 3d 3d
       0.07179205 -0.0130715165 0.005663006 0.046150144
0002c0 66 a5 7e bd d9 a1 8c bd e1 50 dc 3d 4c 7d 50 3c
       -0.062169455 -0.068668075 0.10757614 0.012725186
0002d0 cc 2d 32 bc ae a5 aa bd b1 ab 99 bd 82 5f 5c 3d
       -0.010875177 -0.08332382 -0.07503451 0.05380202
0002e0 29 2d 24 3e cb 2f 90 3d b0 74 09 be dd 5d bc 3d
       0.16032852 0.07040366 -0.13423419 0.091975905
0002f0 ea 36 c3 3d 9d 0e 8c 3d d8 39 5e bd e3 91 52 bd
       0.095319584 0.06838725 -0.054254383 -0.05140866
000300 70 9f 30 bd 2f 67 de bb 79 ec 33 3d 03 95 55 bd
       -0.0431208 -0.006787203 0.04392669 -0.05214406
000310 0a 3d bd bd c9 29 2e bd 35 14 f7 3c 8c b8 d3 bd
       -0.09240158 -0.04252032 0.030161003 -0.10337934
000320 1f 3f 9d 3b 9a e2 26 3d e6 16 ab 3d 22 38 59 bd
       0.0047987844 0.040743448 0.08353977 -0.053032048
000330 4e 73 d3 3c c3 c9 14 3e f6 3d 87 3d be 77 ed bd
       0.025811817 0.14530091 0.06603615 -0.11595105
000340 70 e0 3b 3c b2 ad 3d bc 67 16 16 3d c2 71 20 bd
       0.011467084 -0.011577057 0.03664246 -0.039170988
000350 ee cc f3 bd 09 a5 b3 bc ff 7e 8b 3d 16 8b 40 bb
       -0.119043216 -0.02192928 0.06811332 -0.0029379777
000360 5e 8d 58 3d cc ab 2a bd f9 f9 6c 3d 0e 26 48 3d
       0.052869193 -0.041667745 0.05785558 0.048864417
000370 c2 3d ae bb 04 96 59 bd 01 5d 3f 3d 53 4a 98 bd
       -0.0053174207 -0.05312158 0.046719555 -0.07436051
000380 b7 57 1b 3d 62 86 56 3d 90 b8 e6 bb 21 bb 8f bc
       0.03792545 0.05237425 -0.0070410445 -0.017545285
000390 df 8f cc 3d d2 1b a1 3b dc d0 03 bd 18 06 14 3d
       0.09988379 0.0049166465 -0.032181606 0.036138624
0003a0 1f 9f 55 3e e6 8a b7 bc 8a 16 8d 3d 75 ba d7 bb
       0.20861481 -0.0224051 0.068890646 -0.0065835067
0003b0 0e 5f 97 bd 2e b5 3e bd 1b 7b 14 3d a6 27 61 ba
       -0.07391177 -0.046559505 0.036250215 -0.0008588977
0003c0 5a 52 95 bc cb 34 0e 3e 9d a2 d5 bc 84 a6 58 bd
       -0.018227745 0.13887326 -0.026078517 -0.052893177
0003d0 06 03 00 3e 42 a7 53 bd a2 d4 9e bb 33 07 9e bc
       0.12501153 -0.05167318 -0.004847125 -0.019290542
0003e0 35 1c 56 3c 87 6e 0f 3d 9a 71 40 3d 2f 97 80 bc
       0.0130682485 0.035017516 0.04698334 -0.01569709
0003f0 4c d7 37 3d f1 74 ea bd d0 4b dd 3d f9 16 79 bc
       0.044883057 -0.11448086 0.10805476 -0.015203231

network_body.linear_encoder.seq_layers.4.bias f4 [256]
000000 52 a8 9d bc e5 51 79 3c f8 ba 49 3b 5c 1b 2a 3b
       -0.0192453 0.015217279 0.0030781608 0.002595625
000010 f7 46 d4 3a 0c 8d d3 3b 7b 43 30 bc 66 3b 97 3b
       0.0016195466 0.006456023 -0.010758276 0.004615235
000020 51 d8 8e bc d1 44 b5 3b 08 9c 21 3c 0a e1 98 3b
       -0.017437132 0.005531885 0.009863861 0.0046654986
000030 91 f6 f3 bb 80 1f 91 3c b8 6d 66 bc 69 db 15 bc
       -0.0074451645 0.017715216 -0.014064245 -0.00914655
000040 04 0e c0 bb 50 63 8e 3b 0f 14 a0 bc 4c 97 73 bc
       -0.005861046 0.004345335 -0.019540815 -0.014867615
000050 89 02 b6 bb 4c 2c b2 bc 6e e5 66 bc b4 ab 82 3b
       -0.0055545014 -0.021749638 -0.014092786 0.0039877538
000060 a4 d9 87 3c 6c 10 37 bc 01 4b e2 ba cc a1 c1 3b
       0.016583271 -0.011173349 -0.0017264785 0.0059091803
000070 4b 5c d8 3b 5e 5c 13 3b 2e 65 e5 bb 9a 3c f6 3a
       0.006602799 0.0022485475 -0.007000587 0.0018786371
000080 03 7c 32 bb 19 89 1d bc 47 87 b1 3b 67 34 55 bb
       -0.0027234561 -0.009615206 0.0054177376 -0.0032532455
000090 0b 96 dc 3b 12 0a d4 bc 9d d5 45 bc b2 bc 98 3c
       0.0067317537 -0.025883708 -0.012074855 0.018644664
0000a0 48 5f 7b bc a6 46 94 bc e9 55 75 bc 37 45 39 bc
       -0.015342541 -0.018100094 -0.014974096 -0.011308006
0000b0 f0 8d 53 bc a6 ed 68 bc ac e1 ae bc e0 9d 95 bc
       -0.0129122585 -0.014216816 -0.021347843 -0.018263757
0000c0 30 1b 15 bc 77 ae 97 bb f4 58 3f 3a ba 2c 41 3b
       -0.00910072 -0.004628952 0.0007299327 0.0029476122
0000d0 f4 ae fd 3b d2 f5 9b bc 9b ab 47 3c 1e 1c 3e 3c
       0.0077418033 -0.019038115 0.01218691 0.011603383
0000e0 a1 d7 f6 bb eb 4d f8 3b 40 d7 f1 3b 17 5a 26 bb
       -0.007533029 0.007577648 0.007380396 -0.0025383288
0000f0 ce 60 f6 ba 8d 95 db 3b 19 27 17 bc 3a 2b e9 3b
       -0.0018797161 0.0067011775 -0.00922563 0.0071157487
000100 ba 82 13 bc e4 af 8a bb f0 d6 95 3b e2 a8 8a 3a
       -0.009003336 -0.0042323936 0.0045727417 0.0010578895
000110 33 cd 82 3c 9d 20 b5 ba ad b3 89 bb 7d b9 82 bb
       0.015966987 -0.0013818924 -0.004202327 -0.003989397
000120 b3 68 25 3c bf fd 3b bc 7c da d8 3a 86 43 95 bc
       0.010095763 -0.011474072 0.0016544606 -0.018220674
000130 fb ac 89 3c c8 06 f9 bb 67 13 45 3c 68 fc 99 bc
       0.016806116 -0.0075996853 0.012028552 -0.018797114
000140 90 c4 7b bc 96 d2 ec ba 74 6c 98 ba 25 d7 2e bc
       -0.015366688 -0.0018068131 -0.0011629001 -0.010671412
000150 e3 87 16 bc 88 c4 cf bb 90 dc c4 3b e4 fb 0c bc
       -0.009187671 -0.006340567 0.0060077384 -0.008604977
000160 2f 0a 14 bc 52 bf 3f bc 21 ea bd 3b 11 52 14 bc
       -0.009035631 -0.011703329 0.0057957326 -0.009052769
000170 40 f1 e7 b9 80 e5 50 3c 82 e7 16 bc db 89 ed 3b
       -0.000442395 0.01275003 -0.009210469 0.0072490997
000180 4e d6 39 bb be d9 f6 3b 7c 5d 1d bc 60 b9 87 bc
       -0.0028356495 0.007533281 -0.009604808 -0.016567886
000190 5d d4 6d 3c 46 99 5f 3c 87 43 53 3a 74 01 95 bc
       0.014515963 0.013647383 0.00080590736 -0.01818917
0001a0 b1 11 2a 3c cf 2a 36 bb f8 4f a2 bc 7e d1 17 bc
       0.0103801945 -0.0027796512 -0.019813523 -0.009266255
0001b0 8e dd 7f bc 56 5a 0c bc 26 84 82 39 b4 c9 13 bc
       -0.015616788 -0.00856646 0.0002489399 -0.009020258
0001c0 5f 0e 79 bb b1 b7 21 bc 1d bb 2d 3b a1 11 c2 bc
       -0.003800295 -0.009870456 0.0026509233 -0.023690047
0001d0 8f d8 8b 3c 0d 57 78 bc a2 05 76 bc 40 1a 7e bc
       0.017071037 -0.015157473 -0.015015991 -0.015509188
0001e0 5f 3d 87 bc 8e 56 41 3c 14 5a fe bb 17 e1 ae bc
       -0.016508756 0.011800421 -0.007762203 -0.021347566
0001f0 4b 47 62 bb 28 37 91 bc a9 66 57 bc d7 3e 0a 3c
       -0.0034527357 -0.017726496 -0.013147035 0.008437834
000200 96 3f 8e bb 75 35 76 bb 19 d3 ba 39 7b e0 a3 bb
       -0.004341076 -0.0037568484 0.00035633965 -0.0050011254
000210 75 6c b1 bc 1e 75 25 bc 99 7d 4d bc d4 3c 42 bb
       -0.021658162 -0.010098724 -0.012542152 -0.0029638307
000220 55 58 25 bc 2a 12 e4 bb d8 9a 00 bb 4f 13 0f 3b
       -0.010091861 -0.006960173 -0.0019623544 0.0021831577
000230 01 0d 70 bb 5f 12 22 ba cb 54 eb ba 2d 8e 83 3c
       -0.0036628845 -0.0006182547 -0.0017954347 0.016059006
000240 2d b5 f5 38 4c cb 3d 3c 0e 85 df bb ba 16 50 3b
       0.00011716257 0.011584114 -0.0068212813 0.0031751827
000250 15 e1 1f bc 5b d4 56 bc 52 e5 9b bc 71 80 60 bc
       -0.009758254 -0.013112153 -0.019030247 -0.013702498
000260 0f 73 2f bc 96 b7 1a 3c 26 fc 6a bc 8f b7 94 bc
       -0.010708584 0.009443184 -0.014342343 -0.018153934
000270 f2 aa 54 3c 1d 08 3a 3c d4 4a e4 3b c0 97 1a bc
       0.01298021 0.011354473 0.006966928 -0.009435594
000280 2e f1 98 bb 2d 5f 11 bc 85 af 8c ba 78 5f af 3a
       -0.0046674227 -0.008872789 -0.0010733461 0.0013379892
000290 f7 d5 90 bb db e8 31 bc 5c 15 7e bc 4d 8d 23 bc
       -0.004420038 -0.01085874 -0.015508022 -0.009982419
0002a0 eb 4e c4 bb db 5e 21 bb 24 eb 58 bc 60 76 2e bc
       -0.005990853 -0.0024623189 -0.013239656 -0.01064834
0002b0 f3 6c 82 3b 50 36 b0 3b 14 0c b7 bb 0b 5e ce 3a
       0.003980273 0.0053775683 -0.0055861566 0.001574458
0002c0 73 d2 2b 3c 9e 50 1f b9 1b 88 38 bc 7d 29 cd bc
       0.010487187 -0.00015193454 -0.011262919 -0.025044197
0002d0 31 f0 55 bc 2e c3 7b 3a 2f cd 17 3c 89 13 96 3c
       -0.013057754 0.0009603974 0.009265228 0.018319862
0002e0 d2 df be ba cb 88 34 bc 96 c0 89 3c 8f e7 85 3c
       -0.0014562553 -0.011018942 0.016815465 0.016345767
0002f0 8f a8 a9 bb 20 42 28 bb c8 b8 ea bb 1d 68 68 bc
       -0.0051775645 -0.002567418 -0.007163141 -0.014184979
000300 6c fe e0 bb f5 60 26 bb 01 8b f0 3b d3 aa 97 bc
       -0.006866267 -0.002538738 0.0073407893 -0.018514073
000310 15 14 79 3b f9 f1 83 bb 44 f4 2f bc ea e1 9b bc
       0.0038006355 -0.004026648 -0.01073939 -0.019028623
000320 c5 71 0c bc c2 18 2a 3c 73 f6 6d bc 9a ae 8e bb
       -0.008572047 0.010381879 -0.01452409 -0.00435431
000330 b9 87 92 3b fb 9a a2 bb fc f7 b0 3b 59 74 bd bb
       0.004471746 -0.004962323 0.005400656 -0.005781692
000340 e0 07 a2 bb 85 b5 c1 bb 23 25 a1 3a 90 71 da bb
       -0.0049447864 -0.0059115314 0.0012294393 -0.0066663697
000350 7b 34 96 bb 81 12 bd 38 12 c8 b9 3b bc 67 29 3b
       -0.004583893 9.015669e-05 0.005669602 0.0025849184
000360 7b 65 19 bc 7c 20 5e 3c 78 09 20 ba cd a8 89 bc
       -0.009362574 0.01355755 -0.00061049266 -0.016804123
000370 b3 5a 0a bc 81 ce 1b bb a0 dd 82 3b 2c a5 23 3c
       -0.008444476 -0.002377421 0.003993705 0.0099881105
000380 1d 5d 26 3b 42 d1 94 3a 3d d6 54 bb 1d 15 86 39
       0.002538509 0.0011353868 -0.0032476329 0.00025574202
000390 0e 23 18 bc 85 50 a4 3a cd 8f e3 bb 56 cb e0 bb
       -0.009285701 0.0012536204 -0.0069446326 -0.006860177
0003a0 3d 83 8a 3a 0f 5c 5f bc 4c 88 1d 3a 43 20 0a ba
       0.0010567677 -0.013632788 0.00060093845 -0.00052690896
0003b0 d0 00 57 3b 3c f3 8e bb 0a 55 76 3a 13 22 0f bc
       0.003280688 -0.004362492 0.0009396827 -0.008736151
0003c0 dd 2c 76 bc 6e 18 14 3c 39 fc 3f bb 88 ae e7 bb
       -0.015025345 0.009039028 -0.0029294624 -0.0070703663
0003d0 b5 0d a9 bb 9f 63 26 bc de 56 49 bc e5 81 bd 3b
       -0.0051591047 -0.010155587 -0.012288777 0.005783307
0003e0 ca e5 12 bc 4c d8 00 bc e7 c1 e3 bb eb 7c 80 3b
       -0.008965919 -0.007864069 -0.006950605 0.0039211414
0003f0 39 0e 45 3c a3 f8 64 3c c7 08 c9 bb 6f a2 6a 3b
       0.012027317 0.013975295 -0.0061350795 0.0035802384
