results/2022_0313_2108/Fight/Fight-999992.onnx (onnx, 542530 bytes, 10 tensors)

65 f4 [8]
00000000: 1ccc 993e b6ea 003e 3956 7f40 d963 9240
00000010: 486b 8440 aca5 9140 32aa 3c3e 5cc4 103f
0.30038536 0.12589535 3.9896376 4.5746884 4.138096 4.5514736 0.184243 0.5654962

action_model._discrete_distribution.branches.0.bias f4 [4]
00000000: 1b26 8d3b 33ce 843c 6c14 a9bc 62e8 11bb
0.004307521 0.016211605 -0.02063962 -0.0022263755

action_model._discrete_distribution.branches.0.weight f4 [4, 256]
00000000: 024c fa3a f63e f9bc e12f 983a f119 523c
00000010: 7503 66bc 9d50 39bb a265 e73a 30d7 ffbc
00000020: e219 f1bb 19cc 1f3c ed2d ffbc 9c5c cdbb
00000030: 89e9 993b ccdc 4bbb 19fb c03b bbf3 e93a
00000040: fd53 5f3c 83a4 e1bb d06c 9c3b c6bd 32bc
00000050: c8c8 efbb 44ea 933b 6027 1a3a 4bf1 86bb
00000060: 0518 a83c 2969 b0bc 1754 a13a 37f9 e5bb
00000070: 638b 303c ff7b 313c 7d2f f63b 8523 133c
00000080: 64e8 01bd 23af 823b 8f8d 023c 36c5 a03b
00000090: 750a 9b3a 4d3e 113b 2d4a 673c a704 203c
000000a0: 6e62 21bb 8d94 bf3b dc27 683c abdc d1bb
000000b0: 89d8 15bc 244c aa3b f8d0 843c 77bd 9e3b
000000c0: fe47 bfbb 81da 9d3c 346d 3d3c 66e6 ed3b
000000d0: 3c37 a3bc 499c 0c3b 181c 06bd 60c0 05bc
000000e0: 06d7 f7bb 7a3e 4d3c 3825 b53b 1318 32bb
000000f0: 5f45 bbbb 1650 8a3b d90b 65bb 6724 893c
00000100: 7a43 0c3c e885 533c 03bd 0ebb ffd2 b63c
00000110: ef69 38bd a313 463c 10aa a23a 38d6 84bb
00000120: 9d4a e4ba 226c e63b 05ba a43b d704 75b9
00000130: 3e38 f33b 2459 443c 2a2a 6cbc 3f31 31bc
00000140: 0aaf 293a 1940 e1bb dc71 203c 2774 9c3c
00000150: 69e9 f63b 6138 de3c f1a5 86bc 20c2 fbbb
00000160: a7a5 a33a b62d 31bc 0c74 393c f8e1 0c3c
00000170: 5be7 b53b 4a76 d6bc 7ec9 5139 8a6b ad3c
00000180: 0bc7 783c ef75 61ba 2f2e cb3b 70be 7a3c
00000190: 12da 12bb bb13 75bb 2587 533b 5256 6b3b
000001a0: 10df d33a d208 753c ed61 75bb 7dcf bebb
000001b0: 361a 03bc 3f0d 25bc e331 053c f6a7 0cbc
000001c0: 9468 253c 04ce 0b3b 3ba3 bdbc c7a8 8e3c
000001d0: 992c 7f3b 0e4c 3d3c b6f8 2b3a 5ae7 853b
000001e0: 2918 2e3c 4086 babb 9043 7aba b55f 08bc
000001f0: 5294 debc 738f 57bc a771 abbb e9a2 25ba
00000200: 520e bc3b a2b4 c93a e868 1c3a 2884 a03c
00000210: 82f0 4b3b daa2 cb39 2548 65b7 59de 07bb
00000220: aad4 0c3c 8011 053b 256d 93bc e360 133c
00000230: 068a 8fbb 70e4 aebc b0bf a0bb e4ce 89bc
00000240: 5f52 a53b 6bda f1bb 41a8 7a3c 8fb4 d33b
00000250: f9c7 7cbb e3c0 eb3c b158 e1bb eef5 0a3c
00000260: 55e7 a53c 3f6d a73c 1c2a d93b d544 633a
00000270: 75c0 d2bc efe2 c73b fb38 bb3c 9db6 f5bb
00000280: 1824 c73b ce47 063a e588 d7bc 62d0 1c3a
00000290: 9ff8 abbb 464b b03b b4c5 0f3b 3b1c 343a
000002a0: 2df3 153c a6a3 f1ba 86bc 4bbc c68d 123c
000002b0: 0a66 fb3b 692f 843a f99d 2f3c 6fd0 2c3c
000002c0: a9bf b8bc 09b2 ac3b 90b8 e03a b14c a2bb
000002d0: 0701 ac3b d7c6 aabc 221b 94ba 3a74 663c
000002e0: 0ebb c63b b6ab 54bc 2b88 cc3b 0f26 923c
000002f0: fe39 193c 7a17 29bc ceef 49bc 7c41 883b
00000300: c312 73b9 a1dd 81ba d4de 05bc 1d1c afbb
00000310: 7818 473a 6781 243c 8884 c93a 10b9 02bc
00000320: a5a7 843c 7054 a53c 3c11 0bbc 0715 003b
00000330: d031 de3a 4906 05bc 4a6a c9bc 37f3 9b3b
00000340: f409 2cbc ae11 403b ec72 fb3b 2b6b b03c
00000350: 51c7 32bb b077 a1bc 9c79 7e3a c878 a13c
00000360: 0692 d33b 08b7 0cbd fb2c 843c 8667 343b
00000370: a15e 413b 7e9b 173c b08a d7bc 0d06 ba3c
00000380: d73a 9fbb 9a83 20bc 686f ee3b 9489 7f3c
00000390: 43b6 2d3c 62b1 d139 84b3 86ba 5a21 043c
000003a0: f3ca 293c 9f8a 77bc a55f b63b 9610 ec3b
000003b0: b39f 063c 879d 0b3d 0ade 453b 6eaa 00bb
000003c0: bc08 933b b744 4c3b 54f2 343b f644 f0bb
000003d0: bff6 ccbb d4c7 043c 40de 45bb f2ab b2bc
000003e0: c964 8fbc a8f9 00bc 56e2 103b 42b1 3b3c
000003f0: 509b e03b 0a9f 193c ac7a a1ba 8d3a 23bc
0.0019096138 -0.03042553 0.0011610949 0.012823568 -0.01403891 -0.002827681 0.001765419 -0.03123054
-0.007357822 0.0097532505 -0.031149829 -0.0062671434 0.004697029 -0.0031106947 0.005889308 0.0017849127
0.013630864 -0.0068860664 0.0047737136 -0.010909503 -0.007317636 0.0045140106 0.0005880501 -0.00411812
0.020519266 -0.02153452 0.0012308386 -0.007018234 0.01077542 0.010832786 0.0075129853 0.0089806365
-0.031715766 0.003988163 0.0079683205 0.004906322 0.0011828678 0.0022162378 0.014116806 0.009766734
-0.002462532 0.005846566 0.014169659 -0.0064044795 -0.009145864 0.005197065 0.016212925 0.0048443633
-0.0058374396 0.01926923 0.011561681 0.0072601316 -0.019923799 0.0021455458 -0.032741636 -0.008163542
-0.0075634746 0.012527103 0.0055281185 -0.0027174994 -0.005715057 0.004220973 -0.0034949689 0.01674099
0.00856101 0.012910344 -0.002178014 0.022317408 -0.0450229 0.012089643 0.0012410302 -0.004053857
-0.0017417256 0.0070319334 0.005027058 -0.00023366824 0.007422476 0.011984143 -0.01441435 -0.010814964
0.0006472921 -0.006874096 0.009792771 0.019098355 0.007535149 0.027126493 -0.016436549 -0.0076830536
0.0012485281 -0.010814121 0.011319172 0.008598797 0.0055512614 -0.026179451 0.00020006855 0.021169443
0.015184174 -0.00086006423 0.006200574 0.015304193 -0.0022407812 -0.0037395793 0.0032276597 0.0035909605
0.00161645 0.014955716 -0.0037442402 -0.0058230744 -0.008001855 -0.010073959 0.00812957 -0.008584967
0.010095734 0.0021332512 -0.023149123 0.017414464 0.0038936494 0.011553777 0.0006560193 0.004086417
0.010625877 -0.0056922734 -0.0009546811 -0.0083236 -0.027170334 -0.01315676 -0.0052320543 -0.0006318526
0.005739012 0.0015388916 0.000596656 0.019594267 0.0031118696 0.0003884051 -1.3666261e-05 -0.0020731895
0.008595625 0.002030462 -0.01799638 0.008995268 -0.0043804673 -0.021349162 -0.0049056634 -0.016822286
0.00504522 -0.007380774 0.015298904 0.0064607332 -0.0038571341 0.028778499 -0.006877028 0.008481486
0.02025191 0.020437835 0.0066273343 0.00086696196 -0.025726536 0.0061000506 0.022854319 -0.007498576
0.0060773008 0.0005122394 -0.026310394 0.0005981979 -0.005248144 0.005380067 0.0021937909 0.0006870662
0.009152216 -0.0018435612 -0.012435084 0.008944934 0.007672076 0.001008493 0.010718816 0.010547741
-0.022552328 0.005270247 0.0017144848 -0.00495299 0.005249146 -0.020846767 -0.001129959 0.0140657965
0.006064779 -0.012980392 0.0062418184 0.017840413 0.009352205 -0.010320539 -0.01232524 0.004158197
-0.00023181275 -0.000990797 -0.008170802 -0.0053439275 0.00075948937 0.010040618 0.001537458 -0.007978693
0.01619322 0.020181865 -0.008487996 0.0019543783 0.0016952101 -0.008119174 -0.024586815 0.004759218
-0.01050042 0.0029307413 0.007673612 0.021535477 -0.0027279446 -0.019710392 0.0009707452 0.019710913
0.0064566163 -0.03435424 0.01613473 0.0027527525 0.0029505866 0.009253381 -0.026311249 0.022707963
-0.004859309 -0.009797001 0.0072764643 0.015596766 0.010602537 0.00039995747 -0.0010276888 0.008064592
0.010363328 -0.015108733 0.005565601 0.0072041256 0.008216786 0.034085777 0.003019216 -0.0019632834
0.004487125 0.0031168887 0.002761026 -0.0073324395 -0.0062550004 0.008104283 -0.0030192286 -0.021810506
-0.017504113 -0.007872023 0.0022107563 0.011455836 0.006854452 0.009376297 -0.0012319884 -0.00996269

network_body.linear_encoder.seq_layers.0.bias f4 [256]
00000000: b722 e83b 1679 de3a 133b 7b39 8302 273c
00000010: 9945 9ebc 3069 293b b77a dfbb dca0 d5bb
00000020: 4b31 aabb de4f d5bc 961f faba 374e 0d3c
00000030: bb34 88bc cd20 78bb 2f18 dc3b 873a eb3a
00000040: 9f9e 113c 01ab 79bc 1ef5 96bb aef0 0b3c
00000050: 6321 5dbc 2a2c 28bb c259 5f3b 8d20 64b9
00000060: aa57 a33c e620 fa3b 2a12 24bc 99f3 43bc
00000070: e918 86bc 67d3 4e3c 8b89 ad3a 0498 23bc
00000080: 2c3d f93a 8afc a9bc 5328 2c3b bf01 c33b
00000090: aa96 993c f35e 94bc b8d5 b5bb 54dc 3ebb
000000a0: 25c6 42bb b424 17bb c91a bd3a b200 483b
000000b0: 46c0 3b3b a2ac 03bd 3c14 073c 3afe 683c
000000c0: 7380 11bc 1252 033b 8803 593c 1949 69bb
000000d0: 35b0 353c 4f02 21bb 4f8e e0bb e6e5 11bb
000000e0: 66ff 103a 139d 2ebc cec9 f23a c8a1 81bc
000000f0: 4204 143c 9b58 e23a 86d9 653c aa0b 99ba
00000100: d529 043c 972a 80bb 8ed8 9abb bfa3 393c
00000110: b3e5 80bc 5b5a 1a3c 558b 13bc 5b88 58bc
00000120: 813b 6dbb eef8 34bc 67cc fc3a 2b3b 0dbc
00000130: d1e4 1fbc e5f2 89bb 39c0 0d3c 3caa 21bc
00000140: 5edd 44bc 2826 82bc 06d1 b8bc f928 edbb
00000150: 336d d1bb 993e ff3b def5 28bc eae3 acbb
00000160: 89dd 84bc fa27 ab3a bd82 36ba ff89 99bc
00000170: d908 583b 4615 17bc 8140 513c e20a c63b
00000180: 5056 7a3c f832 673c 6699 e4bc 0664 8c3c
00000190: 7c26 1e3a c0b2 013c f05b c93b 61cb 453a
000001a0: eaff 15bb 0621 1d39 751b eeba c6a6 68bc
000001b0: 837a 723c 52d6 093b 6dac 78bb 5674 143c
000001c0: d38f 40bc 9b23 693b 8870 06bc 7b0f 0cbc
000001d0: fdee 1e3c cf97 903c b80e ec3b 5181 9c3a
000001e0: 8862 a03c d992 8e3c 5629 793b 74d4 b4bb
000001f0: af57 07bc 58a7 aa3b e902 60bc 8155 32bc
00000200: 40fd 6c3b d049 a4bb be76 503b 0e21 8dba
00000210: a4e3 82bc 5cae 6fbc 4665 cdbb 4ff8 73bc
00000220: f9de 153b d70b 5e3b ac06 173b 7271 a8bb
00000230: 6425 073c 59ce 54bc 5633 493c 7dbf 0cbc
00000240: adbd f6ba 682b 5cbc 3bf6 273c 0a79 f13b
00000250: 96e8 623c ca7e 1b3b 8cd8 df3a 000f d4bb
00000260: d2d5 213c ecef aabc 1bcd 3b3c a643 11b9
00000270: 2f76 4e3c 8754 973c 5449 b83b d015 a8bc
00000280: a280 f13b 316d 38bc d570 afbb 7b6e b6ba
00000290: c9a0 1fbc b0e7 1e3d b750 fb3a 6346 1cbc
000002a0: aa6d 89bc f316 7c3a d8a1 f43b 0ddc fdbb
000002b0: 1665 f03b 199a c1bc 7223 333c 0c75 72bc
000002c0: b652 5dbc 5d75 cfba a7ae a03b f07a 25bc
000002d0: 3353 523b c4bc 9cb9 dec5 a5bc 8eb1 273c
000002e0: ccf2 88bb 5f76 88bc 8a32 743c 3708 41bb
000002f0: b16d 933c b1de 8c3c 68fc 4a3c 3d13 eabc
00000300: f423 4dbc 2ab1 833b 665c 0ebc 3248 bcbc
00000310: 7f2f a8ba 8ca8 1b3a d639 2abc 0430 e63b
00000320: dc2d 573c f283 413c b499 f3bc b63a 87bb
00000330: 3d94 b1bc 24c3 203c 7f4f 31bb cbb9 203c
00000340: 1f26 e3bb f9f2 d6ba ba05 d0bb 84f8 88bc
00000350: bb0d c53c 3270 5b3c ebb3 d7bc c12b ab3b
00000360: f9ef 6bbc 5141 a93a a195 7a3a 1e4b febc
00000370: f4db 03bb 573d 2a3c 7555 883b 6754 3dbc
00000380: 048d 4fbc 1242 f53b 0757 263c 82ae 1b3c
00000390: 4eac c3b8 42dd e0bb da06 00bc 3fef 80bb
000003a0: e74d 983c 99d7 00ba 82b0 69bb a510 9e3b
000003b0: c664 db3b e07d a9bc d48e 1bbc 4445 213c
000003c0: c487 d83b 2b64 d2bb 1e69 7d3b 1cbf 07ba
000003d0: 2b91 b03b 1796 6dbc b75d 7f3b 6cf8 88bc
000003e0: 8dc5 cd3b 0edb 46bc 701c e1ba a121 08bc
000003f0: b0c8 8fbc ab5b b4bc abe2 593c b2af 643c
0.0070842165 0.0016973342 0.00023959232 0.01019347 -0.019320296 0.002585005 -0.0068200487 -0.00651942
-0.0051938645 -0.02603906 -0.00190829 0.008624605 -0.016626706 -0.0037861348 0.00671675 0.001794652
0.008887916 -0.015238524 -0.004606857 0.008541269 -0.01349673 -0.002566109 0.00340806 -0.000217559
0.019939262 0.0076333163 -0.010014096 -0.011959934 -0.0163693 0.012623644 0.0013239844 -0.009984974
0.0019015423 -0.020750303 0.0026269152 0.005951136 0.0187486 -0.018111682 -0.005549159 -0.0029123025
-0.0029720154 -0.0023062648 0.0014427538 0.0030517993 0.002864854 -0.032147057 0.00824457 0.014220769
-0.008880722 0.0020037931 0.013245471 -0.0035596548 0.011089374 -0.0024568026 -0.006852902 -0.0022262274
0.00055312214 -0.010657567 0.0018523277 -0.015824214 0.009034218 0.0017268838 0.014028912 -0.001167645
0.008066614 -0.003911327 -0.0047255224 0.011330544 -0.01573453 0.0094209565 -0.009005387 -0.013216103
-0.0036198797 -0.011045678 0.0019286991 -0.008620064 -0.009759144 -0.0042098635 0.0086517865 -0.009867247
-0.012015669 -0.015887335 -0.022560608 -0.0072375503 -0.0063911914 0.0077894446 -0.010312526 -0.005276193
-0.016218917 0.0013058179 -0.00069622305 -0.01874256 0.0032964258 -0.009221381 0.012771727 0.006043778
0.015279368 0.014111273 -0.027905177 0.017137539 0.00060329563 0.0079161525 0.006144993 0.00075452594
-0.0022888132 0.00014984989 -0.0018166142 -0.014199918 0.014799717 0.0021032286 -0.003794457 0.00906094
-0.01175304 0.00355742 -0.0082055405 -0.008548613 0.009700534 0.017650513 0.007203903 0.0011940395
0.019578233 0.017404007 0.0038019023 -0.0055184904 -0.0082606515 0.005207937 -0.013672569 -0.0108846435
0.003616169 -0.005013682 0.0031809057 -0.0010767297 -0.015977688 -0.014628973 -0.0062681763 -0.014890744
0.0022868498 0.0033881569 0.0023044748 -0.005140477 0.008248661 -0.01298865 0.012280306 -0.008590576
-0.0018824838 -0.013438083 0.010251577 0.0073691653 0.013849398 0.0023726695 0.0017078086 -0.0064715147
0.009877639 -0.020866357 0.011462475 -0.00013853479 0.012601419 0.018472923 0.005623976 -0.020518214
0.0073700706 -0.011256502 -0.005354027 -0.0013918424 -0.009742924 0.038795173 0.0019173835 -0.009538266
-0.016775925 0.0009616457 0.0074655823 -0.0077471794 0.007336269 -0.02363305 0.010933744 -0.014798414
-0.013508489 -0.0015827824 0.0049036327 -0.010100111 0.0032093048 -0.0002989528 -0.020235952 0.010235203
-0.0041793343 -0.016658006 0.014904628 -0.002945436 0.01799664 0.017196031 0.01238928 -0.028573627
-0.012520779 0.0040189223 -0.008689022 -0.022983644 -0.0012831538 0.0005937896 -0.010389766 0.007024767
0.013133492 0.011811243 -0.029736377 -0.004126872 -0.02167713 0.00981215 -0.002705544 0.0098099215
-0.0069320346 -0.0016399316 -0.006348339 -0.016720064 0.024054399 0.013393449 -0.026330909 0.0052237217
-0.014400476 0.0012913143 0.00095590396 -0.031041678 -0.0020120116 0.010390601 0.004160578 -0.011555768
-0.012667898 0.007484683 0.010152585 0.009502055 -9.330419e-05 -0.0068623135 -0.007814134 -0.0039347704
0.018591834 -0.0004914939 -0.0035658185 0.0048237615 0.0066953627 -0.020689905 -0.009494502 0.009843174
0.0066079814 -0.0064206324 0.003866739 -0.0005178319 0.005388399 -0.014501116 0.003896577 -0.01672002
0.0062796534 -0.012137188 -0.0017174613 -0.008308799 -0.01755175 -0.022016367 0.013298671 0.013957905

network_body.linear_encoder.seq_layers.0.weight f4 [256, 8]
00000000: 8701 e7bd b7b0 ad3e 1ce5 4ebe eb2d 883e
00000010: 65eb 1c3f aad9 223e 3b06 c53d 82ca c73e
00000020: 5289 51bf b5e5 fe3d e06f 53be 46b5 d83d
00000030: af8e 5f3e 6377 e9bd 6828 cfbe 7392 4fbe
00000040: 77f8 c8be 9253 8f3e 51fa edbe 0588 063f
00000050: fd95 61bd 4d91 bfbd 0874 1b3e f59a 703d
00000060: bd12 993e a61b 543e 8240 4ebf 19de 2abf
00000070: 82cf 6ebe 5471 523e 6cb0 9a3d d543 853d
00000080: 4c7b 40be d1d1 fe3e ad4c 923e f682 983b
00000090: bde9 e93e b284 c73a c975 483e 71e5 d53c
000000a0: 29e4 a23e 7ad2 8fbe e2e9 96bd fd16 b53c
000000b0: c4e7 7ebe 4e7c 8abc 9eec aa3e 09b7 b23d
000000c0: 5307 1ebe b768 ce3d 4780 e6bc ab8e 2dbd
000000d0: d070 a73e b9ce e13d d470 afbe a4ec 5d3e
000000e0: ba5d 4eb8 d9f4 0e3e 8f6c 863e 517f 27bf
000000f0: a62b fd3e ad89 63bf 4b20 73be eb48 9bbe
00000100: fe1f 20bf 28e6 103e 74d5 0dbf 4843 30be
00000110: be9c 4ebe 4c39 3abd b6e7 ef3e 8ef0 b33d
00000120: fb3b 633e 9d05 1cbf c35b 013f 4746 d2be
00000130: 25d8 853d 39e8 603f 7f9f c83e 5f8c 69be
00000140: 5e7f 31be a405 4ebe b148 a53e f676 0b3f
00000150: cd71 23be 1027 583e c64e 173f ab78 1039
00000160: 4da0 97be f729 e53e dcf2 02bf efb8 4cbe
00000170: 543b be3e 0a4a ef3e 4b07 173e b38b babe
00000180: 1f30 ecbe 7b0d 433f 2826 ec3d 0143 32bd
00000190: 4718 bd3e e956 de3e e175 b83e 01d3 1e3f
000001a0: cf39 883e 8309 1dbf 505d 813d 243a adbc
000001b0: 822d 7f3d 8528 aabe 191b d43e 984a ef3d
000001c0: 5360 2c3f ec0c 1c3f 9403 733e 310c 633e
000001d0: 6067 aebd f9f3 ffbe cb4b 58bf 1c5c 5bbe
000001e0: ffdb aabe 5af6 c63e cb3f af3e 65f6 ad3d
000001f0: 11af be3d ba6c 08bf adc7 abbd a3d7 adbe
00000200: 103a debc 2805 06be c097 5abe ee4d 9ebd
00000210: 8d45 8bbe 0d8a 31bf fc2d 493e 18d2 1a3e
00000220: 1c6b cfbe 4112 243e 3770 463c 5233 b93c
00000230: 495f d03e 1d52 b03d ada9 063f db1d 823e
00000240: 7587 23be 12f1 75be 65e1 a3be 0e51 2ebe
00000250: 8a73 8b3d 4853 27bf 266a f03e 3601 153e
00000260: 113b ae3e 013b 6cbe 85f5 d9bd 0ad9 123f
00000270: 167a 31bd eea7 ba3d e5e3 57bf a662 11be
00000280: 92a7 8dbd 2587 23bf 0891 03be 3e2d bb3e
00000290: a5d0 153f b2a5 4fbe 41c4 0f3f c1c3 22bd
000002a0: 58c6 7cbe 531a 95be 80a5 d53c 0279 5bbf
000002b0: 3371 acbe e1fc 47bf 3121 673d 27fc 2dbe
000002c0: 7767 383f 094c aa3e d028 66bf 4fe6 423e
000002d0: aa32 dfbe 363b 473e e51b d1be 21ec 6b3e
000002e0: 59ce fc3d 1a95 34be c814 34be e0d3 03bf
000002f0: ed1d 1ebf c6a7 33be 2acb 4fbe 7198 e4bb
00000300: 1b24 be3e 2137 d9bb b4ea c43d 37fc 1a3f
00000310: 2198 03bf fba5 0cbe 6ecc 69be 1525 a43e
00000320: 596b c03e 863d 8fbe 4490 4f3e cac0 073c
00000330: f2cb 123e 4484 c03d 7e5d c0be e4b8 21bf
00000340: 949f 60be 96e2 76bd 94cc 1c3f ac49 2fbe
00000350: fbcf b7bd 4acc abbe 867e 0fbf 3ebe 35ba
00000360: c7f1 983e 2c9b ddbd a732 40bd b85d 3bbd
00000370: 644d b83e fd52 6abe 0220 0bbf a518 df3e
00000380: f8e2 c33e f943 f1be f8f3 053f b0b6 07bf
00000390: 7db2 25bf f1e0 503e 5a09 67be 89b2 d13e
000003a0: fbf9 f3be a271 123f 6ebd 353d 3a32 8fbe
000003b0: 959f e5be 290f 1dbe 92aa 273e cd2e bd3e
000003c0: 00ff 8ebe bb64 213f d592 5bbd d0ae b63b
000003d0: f5a8 e0be 270d 7b3e 04d8 87bf 29f9 103f
000003e0: 07e5 15bf 871d 94be eb1c 02be 0bf4 2bbe
000003f0: 3554 913e 5dd2 c7bc 12c7 b4be 285f 903d
-0.11279588 0.33923885 -0.20204586 0.26597533 0.61296684 0.15903345 0.09620329 0.3902169
-0.8185016 0.12446157 -0.20648146 0.1058145 0.21831773 -0.11399724 -0.40460515 -0.2027071
-0.39252064 0.27993447 -0.4648004 0.525513 -0.05507468 -0.09353886 0.15180981 0.05874153
0.2989711 0.20713672 -0.8056718 -0.66745144 -0.23321345 0.20551044 0.07553181 0.065070786
-0.18797034 0.49769452 0.28574124 0.0046542836 0.4568614 0.0015222041 0.19576181 0.026110383
0.31814697 -0.28090268 -0.07368828 0.022105688 -0.24893099 -0.016904976 0.3338365 0.087263174
-0.15432481 0.100785665 -0.02813734 -0.042372387 0.32703257 0.11025757 -0.3426577 0.21672302
-4.9201517e-05 0.1396059 0.262547 -0.65428644 0.49447364 -0.8888195 -0.23742788 -0.3032907
-0.62548816 0.14150298 -0.5540383 -0.17213166 -0.2017698 -0.0454648 0.4685647 0.087861165
0.2219085 -0.60946065 0.5053064 -0.41069242 0.06535367 0.87854344 0.39184186 -0.22807454
-0.17333743 -0.20119339 0.32282022 0.54478395 -0.1596138 0.21108651 0.59104574 0.00013777862
-0.29614487 0.4475858 -0.51151824 -0.19992422 0.3715464 0.46736175 0.14748876 -0.36434707
-0.46130463 0.76192445 0.11530715 -0.04352093 0.36932585 0.43425682 0.36027434 0.62040716
0.26606604 -0.6134264 0.06316626 -0.021145888 0.06229926 -0.3323404 0.41426924 0.116841495
0.6733448 0.6095722 0.23731834 0.2217262 -0.08515811 -0.49990824 -0.8449065 -0.21421856
-0.3337097 0.38859826 0.34228358 0.08494262 0.09310735 -0.53290904 -0.083876945 -0.3395358
-0.027127296 -0.13087904 -0.2134695 -0.07729708 -0.272015 -0.69351274 0.19646448 0.15119207
-0.40511405 0.16022588 0.012111715 0.02260748 0.40697697 0.08609412 0.52602655 0.25413403
-0.15969642 -0.24017742 -0.320079 -0.17023107 0.06809147 -0.6536145 0.46955985 0.14551243
0.3402944 -0.23069383 -0.10642532 0.57362425 -0.04332932 0.09114061 -0.84332114 -0.14197788
-0.06916727 -0.6387809 -0.12848294 0.36557955 0.5852149 -0.20278051 0.56158835 -0.039737467
-0.24685037 -0.29121646 0.026079893 -0.8573152 -0.33680114 -0.7812024 0.05642814 -0.1699072
0.72032875 0.33261135 -0.89906025 0.19033168 -0.4359334 0.19456181 -0.40841594 0.23039295
0.12344045 -0.17635003 -0.17586052 -0.5149517 -0.61764413 -0.17544469 -0.20292345 -0.0069761802
0.3713692 -0.0066288863 0.096150786 0.605411 -0.51404005 -0.13735192 -0.2283189 0.3205954
0.375819 -0.27976626 0.20269877 0.008285711 0.14335611 0.09400228 -0.3757133 -0.63172746
-0.21935874 -0.060274683 0.6124966 -0.17117947 -0.08975216 -0.33554298 -0.56052434 -0.00069329503
0.2987196 -0.10820612 -0.046923306 -0.045743674 0.35996544 -0.2288322 -0.54345715 0.4357349
0.382591 -0.47122172 0.5232539 -0.53013134 -0.64725477 0.20398308 -0.22562161 0.40956524
-0.47651657 0.5720464 0.044370107 -0.27968007 -0.44848314 -0.15337814 0.16373661 0.3694977
-0.27928925 0.6304433 -0.053606827 0.0055750385 -0.43878904 0.24516736 -1.0612798 0.5663019
-0.58552593 -0.28928778 -0.12706344 -0.16792314 0.28384557 -0.024392301 -0.3530813 0.070493996

network_body.linear_encoder.seq_layers.2.bias f4 [256]
00000000: 15b5 a2bb 1b25 09bc 2ae2 8cba 2e67 82bb
00000010: 2b61 b8bb eb23 c33c f585 c93a 662b f03b
00000020: 3acb 57bb 243d 44bc 30bd d4b8 8f77 40bc
00000030: c08c 07bc 4f51 97bb 1732 d03b 25da 4a3c
00000040: 69af 2a3a 2593 dfbc 3e8e 41bc d4cf 7e3c
00000050: 7cb4 80bb fde2 de3c 5797 1e3b b749 52bc
00000060: 340d fdbb 49e2 b239 34fd 323c 7b6f 99bb
00000070: 9590 c8bc 59b8 113c 9d5c 363a 5ace 5ebc
00000080: 2b90 a43c 2c25 41bc cd7b 3f3c 1231 2bbb
00000090: e90e 5ebb d895 273c 3226 deba 0690 4d3b
000000a0: 4ad8 f1ba c52e e1bc 17e5 1fbc 5503 39bb
000000b0: 9f90 8b39 deb5 05bc f771 77bc 7292 afbb
000000c0: fb1d adbc b56d c9bb c837 94ba 5e58 a33b
000000d0: fd23 c9bb a6b0 21bb 937c 29bc c9e8 febb
000000e0: 3aec f83b 4c90 89bc f0a9 37b9 c24d 59ba
000000f0: fc34 b1bb 5b92 1bbb 28c4 023b 17d4 37bc
00000100: 5aa0 f4ba 8a59 e6bb b743 2ebc f329 633b
00000110: b672 cfbb 5db3 663c 7ba2 c43b 0736 79bc
00000120: bc27 423b 0f72 033c 8be9 50bc c0c1 393b
00000130: 320b 06bc 5439 7a3b 339e d43a 8516 80bc
00000140: 71a9 9cbb 26e5 263c 34ca 5c3c 43b9 05bc
00000150: 1839 093c 880c 1fbb 9014 9a3b eecb cbbb
00000160: 5c93 cd3b f650 663c 5f23 f1b9 ae97 393c
00000170: e998 76bc 909a 75bc c7bd 54bb a1c8 fa3b
00000180: e111 77bc ab31 313c ab92 143c 3f53 45ba
00000190: b9c4 82bc e196 96bb e236 3fbc c879 66bc
000001a0: 61f7 88bc 3bda 0b3c 8113 2cbb 063c 5b3c
000001b0: 83be 4cbc 4975 2f3c 9d36 a13c 36c6 09bc
000001c0: 21c8 a63b 03c6 9abb 640a 23bc 711d 493b
000001d0: f733 5bb8 1716 92bb 214e d9bb b972 9fbc
000001e0: 9e55 373c 7fc8 b43b ca9a 26bc 99bd bcbb
000001f0: 9770 b03b fba4 403b fb70 37bc 1248 373c
00000200: b391 9bbb 45fc 13ba c9a5 783c 42ad e03a
00000210: 4c59 21ba fb97 9cba 04e0 0e3c d5a7 f8bb
00000220: 0ca6 42ba 0db6 43bc c25d d43b c49e d03b
00000230: 68c3 bebc da03 5bbc ee7e 15bc 2f91 98bb
00000240: 601b e5bb b9c8 bdbb c73e 2c3b 581d 3d3b
00000250: 1b27 7cbc 5e66 143c 5511 b23b 5901 a6ba
00000260: 6fcc 033c 87f0 323a 21cd 9cbb c0ec 07bc
00000270: 276a e73a e4cd b4bc 94e0 4ebc 7273 20bc
00000280: 025b 78bb cb4b 5cbb cad6 6cbb ddaf 133c
00000290: 0de2 fe3b 19f4 0d3c 27b1 46bc 00b5 f1bb
000002a0: 8a6e 303a 3411 2b3b 6d6f 893b 0da3 ef3a
000002b0: 9cfa b63b b57e 5bbb d592 3e3b f32b ac3c
000002c0: 99d5 243c 559f 853b 40fc e9bb 5d77 9d3b
000002d0: 4594 07bc 33c0 51bb eae9 7e39 90c4 6b3b
000002e0: 11cd 62bc 3ac9 133c 0b0b b3bb bf84 e33b
000002f0: b100 1fbc 2abe b4bc fe54 893b edd8 5eba
00000300: f8f9 68bc 1a91 bebb 7431 8a3b 21ef ad3b
00000310: 1722 a83b 25eb 82bc 44c4 173c 4c9d 1d3c
00000320: 5bc1 40bc b07c f0bb cbcf 01bc e9bf 85bc
00000330: 08a7 84bc 4c83 34bb b839 8cbb 0833 c4bb
00000340: d1fd 1dbb 9703 013b 512e 10bc 7b1d bfbb
00000350: 478b cabb 2699 02bc 6db5 2cbc dd84 2e3c
00000360: 39da e0ba 25e4 d2b9 f9a2 d138 9c0f f539
00000370: 6cc4 86bb f5eb b0bb 0067 4b3b 4b9c 143c
00000380: d0dc 273c 015c 0fbc 81ec 2f3c c868 323c
00000390: 6fbc 003b 04eb 673c 4b48 82bb 6e28 683b
000003a0: a71e 56bc 1414 0bbc 72df 70bb 530c 883b
000003b0: ea1d 313c dce4 82bb 05a5 94bb ec86 4cbb
000003c0: ea67 04bc ec09 12bc 3f0e 62bb a614 62bc
000003d0: d589 493c 4c37 29bc 0d7b 22bc 209f 83bb
000003e0: a886 f3bb 0c04 bf3c 648f b8bc df85 30bc
000003f0: 0695 cb3b 3aed 39bc 9298 5e3c 063e 32bb
-0.0049654343 -0.008370663 -0.0010748554 -0.003979585 -0.0056268177 0.023820838 0.0015375005 0.0073293922
-0.003292753 -0.011977468 -0.00010144187 -0.011747255 -0.0082733035 -0.004617847 0.0063536274 0.012381111
0.00065111235 -0.027291844 -0.011813698 0.01555248 -0.0039277654 0.027207846 0.0024199092 -0.012834958
-0.007722521 0.000341194 0.010924626 -0.004682479 -0.024483005 0.00889405 0.00069565495 -0.013599003
0.020088276 -0.011788648 0.011687231 -0.0026121777 -0.00338834 0.010228597 -0.0016948639 0.0031366362
-0.00184513 -0.027488122 -0.009759209 -0.0028230746 0.00026619897 -0.008161036 -0.015102855 -0.005358034
-0.02113246 -0.0061471113 -0.0011308128 0.0049848994 -0.0061383233 -0.002467194 -0.010344642 -0.007779215
0.00759652 -0.016792439 -0.00017515547 -0.000828948 -0.0054079276 -0.0023738358 0.0019953344 -0.01122
-0.0018663511 -0.007029717 -0.010636262 0.0034662455 -0.0063308133 0.0140808495 0.0060008145 -0.015210635
0.0029625734 0.008022799 -0.0127509935 0.0028344244 -0.00818138 0.0038181143 0.0016221463 -0.015635738
-0.004780941 0.010186469 0.013475943 -0.008161846 0.008375429 -0.0024268944 0.0047021583 -0.0062193787
0.00627367 0.0140573885 -0.00045993456 0.011327667 -0.015051105 -0.014990464 -0.003246175 0.0076533114
-0.015079946 0.010815064 0.0090681715 -0.0007527358 -0.015962945 -0.004595623 -0.0116708 -0.014067121
-0.016719522 0.008535917 -0.0026256742 0.01338101 -0.012496593 0.010709115 0.019679362 -0.008409074
0.005089775 -0.004723312 -0.009951208 0.0030687714 -5.2262065e-05 -0.0044581997 -0.006631628 -0.019463884
0.011189846 0.005517065 -0.0101687405 -0.0057599065 0.0053845155 0.002939521 -0.01119637 0.0111866165
-0.0047475933 -0.0005645196 0.015176245 0.0017141479 -0.0006154969 -0.0011947149 0.008720402 -0.0075883665
-0.00074252556 -0.01194526 0.0064809034 0.0063665826 -0.023286536 -0.0133676175 -0.009124501 -0.004655979
-0.0069917887 -0.0057917503 0.0026282535 0.0028856602 -0.015390183 0.009057609 0.005434195 -0.0012665197
0.008044346 0.00068260025 -0.0047851955 -0.008296192 0.0017655537 -0.022070833 -0.012626786 -0.009793149
-0.0037896042 -0.0033614512 -0.0036138766 0.009014097 0.007778412 0.008664154 -0.012127197 -0.007376313
0.0006730339 0.0026102783 0.004194191 0.0018282846 0.005584074 -0.0033492271 0.0029079218 0.02101705
0.010060691 0.0040778317 -0.0071406662 0.004805489 -0.008275096 -0.0032005429 0.00024310467 0.0035975315
-0.013842837 0.009020144 -0.005463963 0.006943315 -0.009704755 -0.022063334 0.00419104 -0.00085009524
-0.014219753 -0.0058156373 0.004217321 0.0053080474 0.005131017 -0.015981266 0.009263102 0.009620022
-0.01176485 -0.0073390827 -0.007923077 -0.016326861 -0.016192928 -0.002754408 -0.0042793415 -0.0059875287
-0.0024107585 0.0019685978 -0.008800105 -0.005832372 -0.006181154 -0.007971084 -0.010541302 0.010651794
-0.0017154879 -0.00040224302 9.9962526e-05 0.0004674167 -0.004112771 -0.005399222 0.0031036735 0.009070466
0.010245517 -0.008749963 0.010737539 0.01088924 0.0019643565 0.014155153 -0.003975903 0.0035424489
-0.0130688315 -0.008488674 -0.0036754278 0.00415186 0.010810355 -0.0039945673 -0.0045362734 -0.003120835
-0.008081416 -0.008913498 -0.0034493355 -0.013798868 0.012300928 -0.010328125 -0.009917033 -0.004016772
-0.0074318238 0.02331736 -0.022529311 -0.010774105 0.0062128333 -0.011348063 0.01358618 -0.0027197613

network_body.linear_encoder.seq_layers.2.weight f4 [256, 256]
00000000: 2403 b0bb 67bc 03bc 1d0a dcbb dff2 f33c
00000010: efdc cabd 02a1 3cbd a139 8bbc 08b6 353d
00000020: eab8 dc3d 781a 493c 3c8d e73d 5507 9e3b
00000030: da95 89bd b147 d7bd 6bab 58bc 6528 c4bd
00000040: 0c71 78bd 38ca 08bd 64e2 8cbb 57a4 a9bc
00000050: b09a de3c 7f17 3f3d 8700 19bd f3c3 44bd
00000060: 412e c83d 3267 e53c a23d 833d 3c1a 60bd
00000070: 843d 563d 2890 a23d 4b6b 94bc 37b0 783d
00000080: 9f86 06bd 6fb6 6a3c 67cb 4e3d 76d9 03bd
00000090: d423 8fbc 2652 a73d 3c3c 9c3d 62c3 36bd
000000a0: eba2 b03c d7e1 d2bd e92c 8ebc a10d 8b3d
000000b0: 68a2 86bd 344b d3bd 25dc ccbd b9b3 1c3d
000000c0: 1c16 64bd e289 633d 174d abbd b2e4 753b
000000d0: 7a84 0b3d 4945 163b 43b0 b5bd 0e08 36bd
000000e0: cb1f ffbd 7dd7 903d 8fec 23bd ce8a 39bd
000000f0: d52c 8abd 919f 203e a5c4 efbd 2a3e b43d
00000100: 5f26 eabb 66ad 8c3d 1bfc 39bb 880a 40bc
00000110: 2320 27bd 14bc c6bc 4f4b 823d cf16 ec3d
00000120: f5b1 41bd dabe dbbd 0551 eebd e9da f33d
00000130: 3915 01be 2526 39bd 977c 52bd b208 bd3d
00000140: 8d04 1e3d b69b 26bc f0b2 c8bc cc18 70bd
00000150: 7bde 803c d444 af3c 0109 cb3b a645 e3bc
00000160: c5c9 4c3d a5b7 853d 2932 083e 1ac2 673d
00000170: 69f4 313e e12f 3ebd 3765 2b3d 747f ccbc
00000180: 26b0 22be 62c8 9d3d d2c5 ac3d 2c17 8b3c
00000190: 8c4c 60bb 356a a7bd 1a5e 4e3c 878e 98bc
000001a0: 560a 3dbd a3f9 013d 6201 19bd 6a71 94bd
000001b0: 8100 d3bb db10 353d 01a9 c2bc ab5d d73c
000001c0: 96f6 5ebd d85b 8abc 50be f8bd b3c7 5ebd
000001d0: b9c6 3f3d e96c 15bd d4e4 a43c c0bb cebc
000001e0: a153 c93c 052d e3bd f59e e7bb 2fc4 0e3d
000001f0: b44e 9e3d da05 13be e6dc 48bd b94e bebc
00000200: 3d6c c3bc 61d6 b53d c3ec e8bd e6f5 aabd
00000210: 26df 2fbd 3d9e c03d 1eb8 53bd 4e78 09bd
00000220: 53b5 63bd 21ae 9a3d a1f3 17be 7f4d ed3d
00000230: 5d8e 32bd 13ca 913d 5569 da3d 8a37 893d
00000240: d35f 573d 5a63 a8bd 59ae 5fbd 39f3 17be
00000250: 4b98 f4bb 73e8 dd3d 9212 e0bd c093 3e3d
00000260: cfe4 8d3d 93f6 4abc 3249 a6bd 6f5d 6cbd
00000270: 6e5e c33d 0bfe 81bd a3e9 6cbd 25af a5bb
00000280: a048 12be 10e7 58bc e958 b03d 48af 1f3c
00000290: 33de bfbc 38d1 e5bd 56fc 48bd ac4a 2a3d
000002a0: f342 4bbd cf30 0d3e bd15 41bc 4f15 21bd
000002b0: dc73 9a3d 57d9 50bc 2f9d 9f3b d5fe 263d
000002c0: 4ed5 61bd b295 87bd ff5a db3d c25d 5d3c
000002d0: be8e 10bc eb2d a7bd b195 9cbd 07ea 5a3d
000002e0: 8588 203e d638 8a3d e1b9 09be 2d1d b33d
000002f0: 2da2 c13d ca0c 863d c8a9 56bd 372f 50bd
00000300: 9a56 31bd efd3 66bb 28ae 393d 94be 4dbd
00000310: cb46 c0bd a0b2 44bd e963 db3c b61f d8bd
00000320: d73f 063c c17a 163d 8ce3 a73d 02c3 65bd
00000330: 7e15 e23c 400d 133e 1e99 8c3d 81fc e7bd
00000340: b853 b23b b9f5 7fbc 3ec8 2a3d 7bd9 0fbd
00000350: 9ee3 f3bd 6bd9 b5bc 2db9 843d 80b1 44ba
00000360: 6e00 4c3d 7ed2 22bd f484 673d b675 513d
00000370: aabf 57bb e714 62bd 5d95 2f3d 7dc8 a1bd
00000380: b04f 1f3d 1f28 543d 8a67 15bc 3e45 a6bc
00000390: b1c9 cd3d edbe d039 e8be 16bd 4a15 093d
000003a0: 5082 523e 3d6a babc 3ca6 8e3d d5ff e7bb
000003b0: 39ee 95bd 086f 52bd 40a8 253d 2c32 a5bb
000003c0: e1ef a0bc c8ab 0a3e 59bb 9fbc 01e8 5cbd
000003d0: b86e fb3d c3f5 4dbd 89cf e8bb 880d 8cbc
000003e0: d780 863c 01f3 073d 01ca 493d a20a 5bbc
000003f0: f5b3 3e3d 5d6d edbd 6e52 d93d 6c50 83bc
-0.005371468 -0.008040524 -0.006715073 0.029778896 -0.09905421 -0.046051987 -0.016995253 0.04436305
0.10777457 0.012274377 0.11306235 0.0048226514 -0.06718035 -0.10511721 -0.013224463 -0.09578017
-0.060654685 -0.033395976 -0.004299449 -0.020708246 0.02717337 0.046653267 -0.03735402 -0.048038434
0.09774447 0.028003309 0.0640824 -0.05471252 0.05230476 0.07937652 -0.018117568 0.060714927
-0.03284323 0.014325722 0.05048695 -0.03218981 -0.017473139 0.081699654 0.07628676 -0.044619925
0.02156206 -0.10296982 -0.0173554 0.06789709 -0.06573945 -0.10317078 -0.10002927 0.038257334
-0.055685148 0.055551417 -0.08364313 0.0037520346 0.034061886 0.002292948 -0.0887151 -0.044441275
-0.12457236 0.07072351 -0.04002052 -0.04529839 -0.06746832 0.1568587 -0.11707429 0.08800919
-0.0071456875 0.068690106 -0.0028379026 -0.011721261 -0.040802132 -0.024259605 0.0636202 0.11527788
-0.047288854 -0.107297614 -0.11636547 0.11906988 -0.12605752 -0.045202393 -0.05138835 0.09230174
0.03857856 -0.01016896 -0.024499387 -0.0586174 0.015731087 0.021395124 0.0061961417 -0.027743172
0.04999711 0.06529168 0.13300385 0.056581594 0.17378391 -0.04643238 0.041844573 -0.024963118
-0.15887508 0.077042356 0.08436169 0.016978823 -0.0034225313 -0.08174554 0.012595678 -0.01862265
-0.046152435 0.031732213 -0.037354834 -0.072481945 -0.006439269 0.044205528 -0.023762228 0.026289782
-0.05443438 -0.016889498 -0.12145674 -0.054389667 0.046820376 -0.036480818 0.020128645 -0.02523601
0.02457601 -0.11092571 -0.0070685097 0.034855064 0.07729855 -0.14357701 -0.04903879 -0.023230897
-0.023855323 0.0887878 -0.11373284 -0.08347683 -0.04293742 0.094051816 -0.05168926 -0.033561997
-0.055592846 0.07552744 -0.14839031 0.11587047 -0.0435928 0.07118621 0.10664622 0.06700046
0.05258162 -0.08222075 -0.05460963 -0.14838876 -0.007464444 0.10835352 -0.10941042 0.046527624
0.069284074 -0.012387889 -0.0811943 -0.057706293 0.095394954 -0.06347283 -0.05784 -0.0050562792
-0.14285517 -0.013238683 0.08610708 0.00974638 -0.023421383 -0.11221546 -0.04906877 0.04157512
-0.049624395 0.1378815 -0.011784968 -0.039326962 0.0754163 -0.01274713 0.0048710327 0.04077037
-0.055135064 -0.06620349 0.107107155 0.013511123 -0.008823095 -0.08163055 -0.07645739 0.053445842
0.15677078 0.06749122 -0.13449813 0.08745799 0.09454761 0.06545408 -0.05240801 -0.050826278
-0.04329548 -0.0035221537 0.045332104 -0.050230578 -0.09388503 -0.048021913 0.02678104 -0.105529234
0.008193932 0.03673816 0.08197698 -0.056094177 0.027598139 0.14360523 0.06865142 -0.11327458
0.005442109 -0.01562255 0.041694872 -0.035119515 -0.11908649 -0.0221984 0.06480632 -0.0007503256
0.049805097 -0.039751522 0.05652328 0.05113765 -0.0032920637 -0.055195715 0.042867053 -0.07899568
0.038894355 0.051796075 -0.009118924 -0.02029669 0.10048235 0.00039815102 -0.036803156 0.03346757
0.20557523 -0.022755736 0.069653004 -0.007080058 -0.07320828 -0.05137542 0.04044366 -0.0050413813
-0.019645633 0.13542092 -0.019498514 -0.053932194 0.12276977 -0.050283205 -0.0071048182 -0.017096296
0.016418857 0.03319073 0.04926491 -0.013369234 0.04655834 -0.11593125 0.10611425 -0.01602956

network_body.linear_encoder.seq_layers.4.bias f4 [256]
00000000: 7ffb 83bc dc5a 493c 7491 f23b df06 f33b
00000010: 0584 37bb 2fb7 a93b 2cce 4ebb 7ec2 47ba
00000020: b6fd 8fbc 7879 dc3b 63b3 bd3b ce35 453b
00000030: af3a e2bb 03a3 7c3c e33e 87bc 7e22 40bc
00000040: 99a3 78bb 1d76 e5ba d5b8 60bc 7d0b 8bbc
00000050: 8eb4 fdbb c37a a9bc 634e 65bc ba3f 223c
00000060: e8e3 993c 3bba 47bc ca89 2e3a 6b26 bd3a
00000070: 7147 993b fbbc f03b 7fe8 01bb 4cef 843b
00000080: 99ef 0bbc 48c2 64bc 51f1 293c ecd1 96bb
00000090: b078 823b ac82 d4bc f2aa 20bc 550c a13c
000000a0: 43d0 29bc 9d6c 9fbc 31f2 99bc a4b9 53bc
000000b0: 9e09 91bc bcf6 27bc b155 89bc 69fd 97bc
000000c0: 38e3 20bc 4558 1cbb 551a 6cbb 09c5 dc3b
000000d0: cb17 933a 7495 84bc 7d5f ef3b 1568 603c
000000e0: 1962 4fbc 76bc 0f3c 629e 583c 89f7 c2bb
000000f0: 764f a1bb a97d f13b a1d6 f4bb 995a 563c
00000100: e6ce f8bb 6df9 713b 7fdc 703b a015 58b9
00000110: c19e 223c 21dd b3bb d204 08bc 24b6 edbb
00000120: d6ce fb3b a862 1abc 544d 9d3b 0ec4 73bc
00000130: c472 813c 268b 71bc 2e2d 163c 7fd2 96bc
00000140: c0d9 7dbc 0c46 b63a 31b8 1bbb 8a3f bfbb
00000150: 66dd ecbb 8326 06bb 5553 dd3b 431c 31bc
00000160: 5b18 b8bb a57a 44bc 4bb2 0e3c 6a68 12bc
00000170: c66b d33a 496d 283c 118a 5fbb 97ba 033c
00000180: 545f c23a 397a 373b 8984 cbbb af1b 3dbc
00000190: 3536 4b3c d6d9 f63b e99d c63b 29d3 8abc
000001a0: df71 1f3c e3af e739 8bd4 a8bc d5c5 12bc
000001b0: a8b0 80bc ab8f 45bc 1fce 503b eb5f 29bc
000001c0: dbc3 30bb c0fe 08bc 8f8b 0ebb c5a1 c3bc
000001d0: 2c6c 503c 0336 30bc 93c6 8fbc 8675 75bc
000001e0: f2fa 46bc 558f ff3b 9d41 08bc 6cf5 c1bc
000001f0: 9907 13bc 9ddf b5bc b5cf 8fbc c2dd 9d3b
00000200: cdd7 92ba 9a97 77bb 22c5 22bb 5cac b4ba
00000210: e053 99bc 09a0 bebb e301 3abc 8995 4f3b
00000220: 7b99 8cbb 4d11 06bc 101f dfbb 1f71 0c3c
00000230: 06de 31ba 025b 9bbb 3e81 b5bb f9d7 503c
00000240: ca4c 8b3b f030 043c b1cd 0abc 81f6 673b
00000250: c84c 3ebc 8d30 4abc 8f21 9bbc 7ac5 53bc
00000260: 8f92 4bbc cb1c 7a3c 6605 8ebc 2189 93bc
00000270: 3d8d cb3b 0513 173c 360c 733b 68fb 52bc
00000280: 0747 e1bb c058 13bc dfa3 9cbb b495 833b
00000290: d7c5 11bc 3abe 18bc 68a1 72bc eff5 05bc
000002a0: db07 b8bb f602 2c3a baa0 93bc 6b78 1abc
000002b0: af7f 2b3b 3f6c 763b d6c5 97bb 6cbb 403a
000002c0: 330f d23b 4bf6 ab3b 82f9 4cbc ac00 c3bc
000002d0: 038a 38bc 281b 7cba ee83 d13b d17e 663c
000002e0: bee2 663a 1cc1 39bc cbe3 843c 5637 943c
000002f0: dc56 7ebb 4ffe 25bb 912b 95bb ad53 76bc
00000300: 5d55 3fbc d1da dbba f221 6d3b 2d98 aebc
00000310: 2059 e43b 6200 f13a 565d 30bc bd22 9bbc
00000320: 2e98 ffbb 3838 353c 30ee 81bc d0e7 8a39
00000330: 87b0 9c3a 326f 18bc ebd2 283b 27e9 97bb
00000340: 226b 27bc f753 51bb 7749 143b 7c26 d0bb
00000350: 2b0f a9bb b1a3 81bb 98a8 d03b 6507 a73b
00000360: 6d97 c0bb d96d 6a3c 1382 fc3a 7d14 81bc
00000370: 8f7b 2cbc ad85 6a39 2bc4 adb9 c2c8 3b3c
00000380: d3f9 ef3b ee10 13bb aa6d f13a 476b 1f3b
00000390: 9d59 fbbb 5eaa c93a 6207 89bb 2dd3 3fbc
000003a0: e527 a53b d986 6fbc 6331 c4ba 1245 0ebb
000003b0: be92 5f3b d08c 8eb9 6739 3b3b 9447 33bc
000003c0: 41c0 78bc 2001 063c a755 9aba 6e99 09bc
000003d0: 85f2 b43a 0dbb aabb f088 28bc fc5f e83b
000003e0: a88a 37bc 2612 19bc 83c5 aebb 4a3d d33b
000003f0: 86f1 2e3c 0371 613c 4721 3abb 6b33 eb3a
-0.016111134 0.012289729 0.0074025933 0.0074165906 -0.0028002274 0.005179308 -0.0031555993 -0.0007620229
-0.017577033 0.0067283474 0.005789207 0.0030091885 -0.0069039683 0.015419724 -0.016509479 -0.011726974
-0.0037939309 -0.0017506514 -0.013715942 -0.016973251 -0.007742471 -0.02068842 -0.01399574 0.009902889
0.018785432 -0.012190397 0.00066581054 0.0014431005 0.004677706 0.007346747 -0.0019822416 0.0040568467
-0.008541011 -0.013962336 0.010372476 -0.0046026614 0.003981672 -0.025941215 -0.009806382 0.0196592
-0.010364595 -0.01946097 -0.018792244 -0.012922678 -0.017704781 -0.010251697 -0.016764494 -0.018553453
-0.009819798 -0.0023856324 -0.0036026437 0.0067373556 0.0011222301 -0.016184546 0.0073050843 0.01369669
-0.012657666 0.00877296 0.013221355 -0.0059499186 -0.0049228026 0.007369716 -0.007471875 0.013083124
-0.0075930236 0.003692235 0.003675252 -0.00020607421 0.009925545 -0.005489007 -0.0083019305 -0.007254379
0.007684569 -0.009422936 0.004800478 -0.014878286 0.015801795 -0.014742648 0.009166045 -0.01841092
-0.01549381 0.0013906374 -0.002376091 -0.005836432 -0.007228541 -0.0020469732 0.0067543187 -0.010809961
-0.005618138 -0.011992131 0.008709501 -0.008936027 0.0016130141 0.010279962 -0.0034109394 0.008040092
0.0014829435 0.0027996434 -0.006210868 -0.011542245 0.012403061 0.0075332923 0.006061305 -0.016946392
0.009731739 0.000441908 -0.02060916 -0.0089583 -0.015709236 -0.012058179 0.003186114 -0.01033781
-0.0026972208 -0.008361518 -0.0021750664 -0.023880849 0.012721103 -0.010755065 -0.017550742 -0.014981633
-0.012144791 0.007799069 -0.008316425 -0.023676597 -0.008973979 -0.022201354 -0.017555097 0.0048176954
-0.001120323 -0.003777957 -0.0024836739 -0.0013784277 -0.018716753 -0.0058174175 -0.011352989 0.0031674823
-0.0042907572 -0.008182836 -0.006809123 0.008571892 -0.0006785098 -0.0047410736 -0.0055390885 0.012746804
0.0042510973 0.008068308 -0.008471892 0.003539473 -0.011614986 -0.012340677 -0.0189369 -0.0129255
-0.012425079 0.015265654 -0.017336559 -0.018009724 0.0062119053 0.009220843 0.0037086136 -0.012877323
-0.006874922 -0.008993328 -0.004780277 0.0040156487 -0.008897266 -0.009322697 -0.01480899 -0.008176311
-0.005616171 0.00065617205 -0.018020976 -0.009428124 0.0026168635 0.003760114 -0.004631738 0.0007352147
0.0064105033 0.0052478663 -0.012510659 -0.023804031 -0.011263373 -0.00096170837 0.006393901 0.014068321
0.0008807591 -0.011337545 0.016221901 0.018092792 -0.0038809096 -0.0025328582 -0.0045523127 -0.015034598
-0.011678067 -0.0016773586 0.0036183563 -0.021312797 0.0069686323 0.0018386955 -0.0107644405 -0.018937463
-0.0078001237 0.011060767 -0.015860647 0.00026494125 0.0011954465 -0.009303855 0.0025760483 -0.004635948
-0.010218414 -0.0031940916 0.0022626796 -0.006352244 -0.005159279 -0.003956281 0.006367754 0.005097317
-0.0058774264 0.014308416 0.0019264839 -0.01575684 -0.010527506 0.00022365777 -0.00033143288 0.011461439
0.0073234825 -0.002244051 0.0018419523 0.0024325417 -0.007670595 0.0015385856 -0.0041817883 -0.011708063
0.005040156 -0.0146195525 -0.0014968332 -0.002170865 0.0034114565 -0.00027189264 0.002856815 -0.0109423585
-0.015182556 0.008178979 -0.0011774794 -0.008398397 0.0013805187 -0.0052102865 -0.010286555 0.0070915204
-0.011202492 -0.009342706 -0.005333604 0.006446515 0.010677701 0.013759854 -0.0028401182 0.0017944401

network_body.linear_encoder.seq_layers.4.weight f4 [256, 256]
00000000: 1f32 e03c 1059 03bc f8fe b03c f9bc 99bd
00000010: 6f2d 73bd 03e6 fd3c f22c c73d 435a 853c
00000020: 8606 a83c fdaf c5bb 9a04 c23d 4b1f c23c
00000030: 6831 d2bc 8b33 523d d13e c8bd 3791 d23b
00000040: 6181 0dbe abec 66bd 97e6 893b 0e06 b7bd
00000050: da85 e03b b031 f5bc f63e fd3c 7b89 433c
00000060: 5ad1 d13b 9357 333d 6fac dcbd a052 9dbd
00000070: 30ca 00bd e48e bebd c783 393d 3031 bbbd
00000080: 2e8b 423d 7146 1b3d 4fd9 46bd 6c9c cbbc
00000090: 2bd8 9f3d f430 49bd 82ec 92bc 7787 59bd
000000a0: c313 253e bac9 cbbc 8dba 82bd 2334 6bbb
000000b0: d9dd 063d b991 843d 9444 b93b 5449 e1bc
000000c0: 8109 97bd 0d5c ccbd 0080 70bd d225 073d
000000d0: 37ee e13d 50ac a73b 7e9c 9a3d 42a3 ac3d
000000e0: e43f 483d 4c0d ee3c 4dec 633d 7456 97bd
000000f0: 1250 463d 98a0 67bd d583 81bc 8244 d9bc
00000100: 278a 303d df74 123c 1e1a 603d 7f68 dc3c
00000110: 3207 083c f10b a3bd a2ec 973d 5741 92bc
00000120: 572b 49bd 281a 8bbc 1811 87bd 3ce9 bebd
00000130: 39b3 543c 9f12 1ebe 03e3 eb3c 27d2 20bd
00000140: b819 b03d 4171 803d 3605 0fbd 72a3 003d
00000150: c201 923d a138 06bd f4f7 1a3d ff5d babd
00000160: 2b7a ddbc 3c96 f8bc 4a9c a0bc 0cbd c23b
00000170: ae03 a4bd 6227 febc 3d26 133d f7b9 a6bb
00000180: 71a9 12be 1e87 0b3c 3daa 9a3d 5cf7 af3d
00000190: 32b7 b63d 551e 67bd 11fd f33b bdcf 0ebd
000001a0: aa02 54bc 32fb d33b 1904 7a3d 845e 0cbe
000001b0: c2c6 213d c50f 94bd 2862 bcbd 83e4 7a3b
000001c0: 74d4 0fbe eded 98bd 644b 2f3d 290f e43a
000001d0: e299 d8bd 1710 2d3d fd37 013d b5db 263d
000001e0: 8ad5 c63d 2678 983b 87da 36bc 69c8 763c
000001f0: dcf7 3abd c3a5 443d 9d47 eabd d683 c1bd
00000200: 2744 45bc 521c cfba 517a 83bb afcc 2ebd
00000210: 3c77 bbbd ffce dfbd ea40 d5ba 2751 6b3d
00000220: 1e9e 03bd f3b3 a3bd ef2b 2f3d fe2a d23d
00000230: ca9a 8b3d 0199 8ebc db28 d0bd 9173 b5bc
00000240: 3d6e 023d 51b9 4abc 638d cbbd 06ae ab3c
00000250: fa69 fd3c b4ea fb3d b940 c6bd 76e6 e13b
00000260: 3fdf 8a3d 8745 1b3a 1df4 97bd fc65 0fbd
00000270: 1a2c 493c badd f43a 57a8 3ebd a896 b23d
00000280: d92d 39be 8ace 09bd ba32 fb3c 3958 27bd
00000290: 33c1 5f3d 5f1f 943c 5d20 a23d 24bb c6bc
000002a0: a011 e5bc a1d0 be3c 4d19 0dbc 3e26 9fbd
000002b0: 7aa4 b73d 3e75 063e dab3 fdbc d256 703d
000002c0: ddc9 00bc 0cef ae3d 4118 3c3d fdb9 5a3c
000002d0: 7444 9e3d 0f86 d8bc 528f 803d 889a d4bc
000002e0: 42be b1bd 11ca 35bc 9eb7 053d f9b4 5a3c
000002f0: 0c34 373b 0257 a3bc 44d3 8abd 83a2 0fbc
00000300: 2b08 acbb a807 66bd 8405 193e b709 82bc
00000310: c438 683d 8609 09bd 8055 57bd bc1e c03d
00000320: d21d 65bd a3a9 133d 4846 a0bd d757 143c
00000330: 7959 bfbd d705 41bd f59c 39bc a7ba 933d
00000340: 25e5 5a3d 152c 5b3d c5e4 afbc d6bf 02be
00000350: b291 933c cb2e abbc 1f50 083d 677f aebc
00000360: 9b63 aebd a8ee ccbd d9b6 e53d d81d 683d
00000370: 2436 0bbd 966e e23b 1fbb a0bd 3c10 313d
00000380: 3f2a 413d cddb 22bc a30d cfbd e561 83bd
00000390: c0c8 00bd ecad 803b 4adb f03c d0a7 483d
000003a0: 3b71 ddbc 2550 a8bd f811 84bd 81f0 483d
000003b0: 674b 6dbd ad1d 773c a8c3 04be 46b4 2a3e
000003c0: bb4f 143d c118 73bd 4182 bd3d 5a6a c03d
000003d0: cdd1 e5bc a329 2abc 2d66 813d 77c7 b1bc
000003e0: 5d94 493c b573 0c3d 5f3e d13d 2537 9ebd
000003f0: f936 7c3d 1643 b13d d4f5 df3b 6477 ccbd
0.02736765 -0.00801684 0.021605954 -0.07506747 -0.0593695 0.030993467 0.097253695 0.016278392
0.020510923 -0.0060329423 0.09473534 0.023696562 -0.025658324 0.051318686 -0.09777606 0.0064260024
-0.13818885 -0.056378048 0.0042083967 -0.08936702 0.006851894 -0.02993092 0.030913811 0.011934633
0.0064031305 0.04378469 -0.107750766 -0.07681775 -0.03144282 -0.09304598 0.04529169 -0.09140241
0.047496013 0.037908975 -0.048547085 -0.024854861 0.07804903 -0.04911895 -0.017935041 -0.053107705
0.1612082 -0.024876464 -0.06383238 -0.003588923 0.032926414 0.06473107 0.005653927 -0.027500786
-0.073748596 -0.09978495 -0.05871582 0.032995053 0.11031764 0.005116977 0.0754938 0.084295765
0.048889056 0.029059075 0.055645276 -0.073895365 0.048416205 -0.05654964 -0.015809933 -0.026521925
0.043100502 0.008938997 0.054712407 0.026905296 0.008302497 -0.07961262 0.07418181 -0.017853422
-0.049113598 -0.016980246 -0.06595057 -0.0932183 0.012982183 -0.15436791 0.028794771 -0.039262917
0.085986555 0.062716015 -0.03491708 0.031405874 0.071292415 -0.03276885 0.037834123 -0.090999596
-0.027035793 -0.030345075 -0.019605774 0.0059429463 -0.08008514 -0.031024639 0.03592514 -0.0050880867
-0.1432245 0.008516101 0.075520016 0.08592102 0.089216605 -0.05642541 0.0074459394 -0.034866083
-0.012940088 0.006469154 0.061039064 -0.1370793 0.03949619 -0.0722957 -0.09198409 0.0038283176
-0.14045888 -0.07467256 0.042796507 0.0017399538 -0.10576226 0.042251673 0.031547535 0.040736873
0.09708698 0.0046529947 -0.011160499 0.01506243 -0.045646533 0.048009645 -0.114394404 -0.09448974
-0.012040175 -0.0015801287 -0.004012384 -0.04267567 -0.091536015 -0.10928153 -0.0016269956 0.05745044
-0.032133214 -0.07993307 0.042766508 0.10262106 0.06816633 -0.017406942 -0.101640426 -0.022149833
0.031843413 -0.012373284 -0.09939077 0.020957004 0.030934323 0.123006254 -0.096803136 0.006893928
0.06780862 0.0005923141 -0.07419608 -0.03500937 0.012278581 0.0018681802 -0.04654726 0.08720142
-0.18083896 -0.033644237 0.030663837 -0.04085562 0.05462761 0.018081365 0.07916329 -0.024259157
-0.027962506 0.023292841 -0.008611989 -0.07770966 0.08966918 0.13130662 -0.030969549 0.05867655
-0.007860628 0.08541688 0.045921568 0.013350007 0.077279 -0.026431112 0.06277336 -0.025952592
-0.08678867 -0.01109554 0.032645814 0.013348811 0.0027954606 -0.01993895 -0.06778577 -0.008766773
-0.005249997 -0.056159645 0.1494351 -0.015873773 0.05669476 -0.033456348 -0.052571774 0.09380862
-0.055936642 0.03605045 -0.07825905 0.009054146 -0.093432374 -0.04712471 -0.011328925 0.072133355
0.053441186 0.053508837 -0.02147139 -0.12768492 0.018013809 -0.020896336 0.033279534 -0.021300985
-0.08515092 -0.100064576 0.11216516 0.056669086 -0.03398718 0.0069101555 -0.078481905 0.043228373
0.04715943 -0.0099401 -0.10110023 -0.06415156 -0.03144145 0.003926983 0.02940144 0.048988163
-0.027031532 -0.08218411 -0.0644874 0.049057487 -0.057933237 0.015082759 -0.12965262 0.16670331
0.03620885 -0.05934978 0.092533596 0.09395285 -0.028054142 -0.0103859035 0.063183166 -0.021701558
0.012303439 0.034290034 0.102169745 -0.07725362 0.061575864 0.08655374 0.006834725 -0.099837095

network_body.vector_processors.0.normalizer.running_mean f4 [8]
00000000: 7c53 663f d1ea 763f 193a 55bf f6f6 ae3e
00000010: 6590 92bf 1a3c 963d 4c28 ba3e 4dd1 bebd
0.8997114 0.9645205 -0.83291775 0.3417279 -1.1450316 0.07335682 0.3635887 -0.09317265
