results/2022_0313_2108/Fight/Fight-499971.onnx (onnx, 542530 bytes, 10 tensors)

65 f4 [8]
0	0x3eaaeffa	0.33386213
1	0x3e169582	0.1470547
2	0x40827000	4.076172
3	0x40960443	4.68802
4	0x408469e1	4.1379247
5	0x4091ffa4	4.562456
6	0x3e41b90d	0.18918248
7	0x3f146148	0.5796094

action_model._discrete_distribution.branches.0.bias f4 [4]
0	0x3b9ee19a	0.004848671
1	0x3c2b3a78	0.010450952
2	0xbc7e5a18	-0.01552441
3	0xba3db5af	-0.0007236851

action_model._discrete_distribution.branches.0.weight f4 [4, 256]
0	0xbba9bc9f	-0.005179956
1	0xbca110c8	-0.019661322
2	0x3c3d8ac4	0.011568729
3	0x3c423469	0.011853316
4	0xbb99297f	-0.004674136
5	0xbbe01171	-0.0068380167
6	0x3bcf89fd	0.006333588
7	0xbcee23e6	-0.029069852
8	0xba3f2b55	-0.0007292529
9	0x3c15b515	0.009137412
10	0xbcc62835	-0.024189094
11	0xbc9a3b9f	-0.018827258
12	0xbae231dd	-0.0017257292
13	0xbb9f883b	-0.004868535
14	0xbb550036	-0.0032501346
15	0xbb8a7d6b	-0.004226377
16	0x3b211fdc	0.002458564
17	0xba9633e9	-0.0011459562
18	0x3c3462b3	0.01100986
19	0xbc235eb5	-0.00997131
20	0xbb51908f	-0.0031977033
21	0x3ab63fa0	0.001390446
22	0xbc34158e	-0.010991467
23	0x3bbf61ea	0.0058405297
24	0x3cb9598d	0.022625709
25	0xbc51dd60	-0.012809128
26	0xbb9bdade	-0.0047563156
27	0xbc8f1751	-0.017467173
28	0x3b8d6e48	0.004316125
29	0x3c722a2e	0.014780564
30	0x3c2eef42	0.010677161
31	0x3c1cdffe	0.009574888
32	0xbcd6986f	-0.026195733
33	0xbb060b73	-0.0020453602
34	0x3c8023ff	0.015642164
35	0x39923793	0.00027888696
36	0x3bb5a63f	0.0055434997
37	0x3b60665d	0.00342407
38	0x3c9b9383	0.018991238
39	0x3cb06afd	0.021535391
40	0x39cc939d	0.00039019893
41	0x3bc7e9a5	0.0061008506
42	0x3c073541	0.008252443
43	0xbc33ee9b	-0.010982181
44	0xbc7f74b9	-0.015591794
45	0xba39ee2f	-0.0007092682
46	0x3bdf40e8	0.0068131573
47	0xbb00e08a	-0.0019665086
48	0xbc718cbf	-0.014743029
49	0x3c7ee101	0.015556575
50	0x3bf2fad0	0.007415153
51	0x3b91242f	0.0044293622
52	0xbcb8c410	-0.022554427
53	0xbb680499	-0.003540313
54	0xbcd3cf71	-0.025855752
55	0xba83db96	-0.0010059949
56	0xbc44a6b6	-0.012002638
57	0x3c693eb5	0.014236142
58	0x3b48579e	0.0030569802
59	0xbc80276e	-0.015643802
60	0xbc04f2c2	-0.008114519
61	0x3aeade03	0.0017918948
62	0xbb47b285	-0.0030471396
63	0x3c82bea3	0.015960043
64	0xbbbf1e7a	-0.0058324905
65	0x3c8c1207	0.01709844
66	0xbb5d2ece	-0.0033749822
67	0x3cb7b534	0.022425272
68	0xbd106d9f	-0.035260793
69	0x3c33d34a	0.010975668
70	0xba952b37	-0.0011380677
71	0xbbf18e43	-0.0073716952
72	0xbbcbf1f5	-0.006223912
73	0xbb22a8e8	-0.0024819914
74	0xbb66cc29	-0.0035216904
75	0x3adddb76	0.0016926366
76	0x3b087ead	0.0020827458
77	0x3bec8672	0.0072181756
78	0xbc8866df	-0.016650615
79	0xbc989168	-0.018624023
80	0xbc383779	-0.011243694
81	0xbb4e6766	-0.0031494736
82	0x3c4802ba	0.012207681
83	0x3ba60a8a	0.0050671743
84	0x3bf88391	0.0075840433
85	0x3cd0f465	0.025507161
86	0xbc413b84	-0.011793975
87	0xbc60a358	-0.013710819
88	0xbc12395d	-0.008924809
89	0xbb31787b	-0.0027079869
90	0x3c011d89	0.007880577
91	0x3c20ff3b	0.009826477
92	0x3c234fa0	0.009967715
93	0xbc40efba	-0.011775905
94	0xbb749d3f	-0.0037325171
95	0x3cb8ec4d	0.022573614
96	0x3bab8289	0.005234067
97	0xbba0be39	-0.004905489
98	0xba1d636e	-0.0006003891
99	0x3b9e0ced	0.004823318
100	0x39404c02	0.00018338862
101	0x3c0780f7	0.008270494
102	0xbb5e1b17	-0.0033890659
103	0x39ce0d69	0.00039301373
104	0xbb82b5c7	-0.0039889547
105	0x3c9c3a87	0.019070877
106	0xbb830b56	-0.003999154
107	0xbc1e88b3	-0.009676146
108	0xbc2fd59c	-0.010732081
109	0xbc8d298a	-0.017231721
110	0x3c4b0843	0.0123921065
111	0xbc564525	-0.013078009
112	0x3be2ac68	0.006917525
113	0xbbb6eb30	-0.0055822358
114	0xbcc8f97f	-0.024533032
115	0x3c626397	0.013817689
116	0x3b04fb1e	0.002029128
117	0x3c4ae140	0.012382805
118	0xbba3e6c0	-0.005001873
119	0xbc27b916	-0.010236999
120	0x3c4bbb5a	0.012434805
121	0xbc36b389	-0.011151203
122	0x3acc770f	0.0015599447
123	0xbc1df57c	-0.009641048
124	0xbcbffb74	-0.023435332
125	0xbc93d3df	-0.018045364
126	0xbc0d481a	-0.008623147
127	0xbb934221	-0.004493967
128	0x3c1fe319	0.009758734
129	0xbb204e69	-0.0024460799
130	0xbb1f1937	-0.0024276504
131	0x3c8a6b5a	0.016896892
132	0xbacdeb14	-0.0015710318
133	0x3bf68c54	0.0075240526
134	0xbc23c180	-0.009994864
135	0x3c3c628d	0.011498106
136	0xbc58e0d5	-0.013237198
137	0xbc026195	-0.007957836
138	0xbc663f99	-0.014053249
139	0x3bf1569a	0.00736506
140	0x3b8390d4	0.0040150676
141	0xbc8ad9ed	-0.016949618
142	0xbb8fd8ac	-0.004389843
143	0xbc2faf94	-0.010723013
144	0x3c8404ca	0.016115565
145	0xbc179cf0	-0.009253725
146	0x3c44e54c	0.012017559
147	0xb8f45899	-0.00011651329
148	0xbb6a47ec	-0.0035748435
149	0x3ce351bd	0.027748937
150	0xbc182f95	-0.009288688
151	0x3b7bef77	0.0038442293
152	0x3c875feb	0.01652523
153	0x3c55654b	0.013024638
154	0xbaa1dd34	-0.0012349249
155	0x3aa8906d	0.0012860425
156	0xbcc81008	-0.024421707
157	0x3aa7ff98	0.0012817262
158	0x3c8d8f45	0.01728023
159	0xbb3bfe41	-0.0028685483
160	0xbbb2c030	-0.0054550394
161	0xbb3cca36	-0.002880705
162	0xbcb9cf05	-0.022681722
163	0x3c4464f1	0.011986957
164	0xbbe37abd	-0.006942122
165	0x3bdf9291	0.006822892
166	0xbc0471d9	-0.008083784
167	0xbc423af6	-0.011854878
168	0xb9826435	-0.00024870192
169	0x3c1a212d	0.009407324
170	0xbca28e75	-0.01984332
171	0x3be7b740	0.0070714056
172	0xbb621b1a	-0.0034501017
173	0xbbec3d98	-0.007209491
174	0xbb16892b	-0.0022969942
175	0xbb3089d5	-0.0026937623
176	0xbc7b4a6c	-0.015337568
177	0x3c80de2f	0.015730945
178	0xbbbcb8c8	-0.0057593323
179	0xbc677e2b	-0.014129202
180	0xbc2df063	-0.010616395
181	0xbc547577	-0.012967459
182	0xbbed2e04	-0.0072381515
183	0x3c4f32c8	0.012646385
184	0x3b855ee8	0.0040701516
185	0xbc0b0115	-0.008484145
186	0x3b5fa3a3	0.0034124635
187	0x3c939652	0.018016014
188	0x3a3652b0	0.00069550704
189	0xbc09ba9d	-0.0084063085
190	0xbb7c853f	-0.003853157
191	0x3a04fba3	0.0005072897
192	0x3c065153	0.0081981
193	0xbc38b692	-0.011273997
194	0xbbf7dc2f	-0.0075640897
195	0xbc18f7fd	-0.009336469
196	0xbc0a66a7	-0.008447326
197	0x3c54e1c4	0.01299328
198	0x3ada9345	0.001667597
199	0xbc0fcef1	-0.008777366
200	0x3b5ce116	0.0033703498
201	0x3c85c2ec	0.016328298
202	0xbc0001a8	-0.007812895
203	0x3c465ee2	0.012107583
204	0xbba2aaac	-0.0049641933
205	0xbbeab401	-0.0071625714
206	0xbc9368d9	-0.017994331
207	0xbbb44dc2	-0.0055024335
208	0xbc20bff2	-0.009811388
209	0x3bd295b9	0.0064265397
210	0x3c2d1a63	0.010565373
211	0x3c2aaa09	0.010416516
212	0xbb36d4f8	-0.0027897935
213	0xbc86cd98	-0.016455457
214	0x3b054a11	0.0020338336
215	0x3caa0bc4	0.020757563
216	0x3b753262	0.0037414064
217	0xbccc1aad	-0.024915064
218	0x3c44f5ab	0.012021462
219	0xb9e7a119	-0.0004417978
220	0xbc0231f1	-0.007946477
221	0x3ca8b737	0.020595176
222	0xbcb1501d	-0.021644646
223	0x3cdbb4c2	0.02681959
224	0xbaa9a20b	-0.0012941969
225	0xba415772	-0.0007375396
226	0x3b6e96ac	0.0036405725
227	0x3b86b650	0.004111089
228	0x3b94d375	0.004541809
229	0xbc33e7aa	-0.010980526
230	0xbbeacb2d	-0.0071653337
231	0x3a17f57b	0.00057967723
232	0x3c4870ab	0.012233893
233	0xbc6d4437	-0.014481596
234	0x3b1043c8	0.0022013057
235	0x3b63ceac	0.0034760637
236	0xbb9b4545	-0.004738482
237	0x3cc9e734	0.024646379
238	0x3ba577b5	0.0050496706
239	0xbbb11c5d	-0.0054049925
240	0x3b23c74d	0.0024990619
241	0x3b1f83df	0.0024340076
242	0x3c91f254	0.017815746
243	0xbc3bd6ab	-0.011464755
244	0xb9b801b7	-0.00035096493
245	0x3c232802	0.009958269
246	0xbb8e1c1d	-0.0043368475
247	0xbc58a09d	-0.013221887
248	0xbcb30a16	-0.021855395
249	0xbb13ca7d	-0.0022551112
250	0x3bf2a677	0.007405098
251	0x3bf6ead5	0.0075353184
252	0x3b7a1da4	0.003816464
253	0x3c60c2ba	0.013718301
254	0xb9dfd178	-0.0004268994
255	0xbc759f88	-0.0149916485

network_body.linear_encoder.seq_layers.0.bias f4 [256]
0	0x3bfc1cd4	0.0076938663
1	0x3bab6b4b	0.005231296
2	0x3b245ddc	0.0025080359
3	0x3c1804c2	0.009278478
4	0xbc172cbc	-0.009226974
5	0xbc0c68f5	-0.008569946
6	0xbb28de4d	-0.0025767267
7	0x3b966381	0.0045894985
8	0xbc1b9518	-0.009495996
9	0xbcafb757	-0.021449728
10	0xbba158cf	-0.004923917
11	0x3bfd058b	0.007721608
12	0xbada59e2	-0.0016658867
13	0xbc8633d2	-0.016382132
14	0x3c1da95d	0.009622899
15	0x3b804932	0.0039149756
16	0xb89e892e	-7.559579e-05
17	0xbc6387ba	-0.01388734
18	0xbc328694	-0.010896344
19	0x3c28f625	0.010312592
20	0xbcb119fe	-0.02161884
21	0x3c0883e3	0.0083322255
22	0x3c5c47c7	0.013444847
23	0x3ac4d4ae	0.0015016997
24	0x3c160ba2	0.009158047
25	0x3c42fae0	0.011900634
26	0xbc0d66e5	-0.008630489
27	0xbbf3ee38	-0.0074441694
28	0xbc4a1430	-0.012333915
29	0x3b7b70bd	0.0038366758
30	0x3ba3b347	0.0049957368
31	0xbc395657	-0.011312089
32	0x3b9b5154	0.0047399197
33	0xbc524871	-0.012834654
34	0x3bef7a60	0.0073082894
35	0x39f46664	0.00046615594
36	0x3b75ee27	0.0037525983
37	0xbcee0612	-0.029055629
38	0xb8eac12c	-0.000111939706
39	0x3bf0e2f8	0.0073512755
40	0xbbe965c8	-0.007122729
41	0xbbfd0dc8	-0.00772259
42	0xbb78e5e4	-0.0037978822
43	0x3ac9e86e	0.0015404352
44	0x3c0ddb8c	0.008658301
45	0xbc8d3565	-0.017237375
46	0xbbcfe324	-0.006344216
47	0x3cb6d6b8	0.022319183
48	0xbb6a9e5f	-0.0035799963
49	0xbb19f131	-0.0023489709
50	0x3c449857	0.011999211
51	0xbbf6fbbd	-0.0075373338
52	0x3a900064	0.0010986445
53	0xbb9ba798	-0.0047502033
54	0xbb4f1458	-0.003159782
55	0xbbb19004	-0.0054187793
56	0x3b581079	0.0032968803
57	0x3c6acac0	0.014330566
58	0x3b76d82b	0.0037665467
59	0xbb44ab23	-0.0030009232
60	0x3c42f354	0.011898834
61	0xbb9170b5	-0.0044384846
62	0x3c9da87d	0.01924538
63	0x3b9358aa	0.0044966536
64	0x3bc9cf94	0.0061587784
65	0xbbb118af	-0.005404554
66	0xba701891	-0.0009158934
67	0x3b51e159	0.0032025187
68	0xbc479e0d	-0.012183678
69	0x3ca39edd	0.019973213
70	0xbc4df062	-0.012569519
71	0x386d658b	5.6599773e-05
72	0x3b8b2e47	0.00424746
73	0xbc248303	-0.010041001
74	0x3c02d2eb	0.007984857
75	0xbb74fe8e	-0.0037383172
76	0x3b341f59	0.0027484505
77	0xbbec2907	-0.0072070393
78	0x3c4a1287	0.012333519
79	0xbc3a1f95	-0.011360069
80	0xbaceac3b	-0.0015767881
81	0xbc819720	-0.015819132
82	0xbc1c10d9	-0.009525501
83	0xbc012557	-0.007882438
84	0xbc124835	-0.008928348
85	0x3b8b248d	0.0042463006
86	0xbc73e371	-0.014885769
87	0xbbda7e09	-0.0066678566
88	0xbc9624eb	-0.01832815
89	0xbc261f04	-0.010139231
90	0xbb1eb202	-0.0024214988
91	0xbc489b0e	-0.012243999
92	0xbb1cff53	-0.0023955896
93	0xbc2fef06	-0.01073814
94	0x3c88a78a	0.016681451
95	0x3b19ca01	0.002346635
96	0x3c40b4f9	0.011761897
97	0x3c96ced6	0.018409174
98	0xbceaab69	-0.028646188
99	0x3b9ec32c	0.0048450436
100	0x3a8f255f	0.0010921172
101	0x3c31657c	0.010827418
102	0x3c3301e0	0.01092574
103	0x3a1deffe	0.00060248363
104	0x3bb35e3c	0.00547388
105	0xbb24b3a3	-0.0025131486
106	0x3c09c62d	0.008409065
107	0xbb19113e	-0.0023356224
108	0x3c861c5b	0.016370943
109	0xbba6134a	-0.0050682174
110	0xbb89d1e2	-0.004205928
111	0x3be079ce	0.0068504578
112	0xbc22da20	-0.0099397
113	0x3beac4e7	0.007164586
114	0x3adac8ab	0.0016691884
115	0x3b3d6c10	0.0028903522
116	0x3be26386	0.006908837
117	0x3c949dc7	0.01814164
118	0x3b9655ea	0.0045878785
119	0x3b0ee8ec	0.0021806313
120	0x3c58a9b0	0.01322405
121	0x3cb1dff7	0.02171324
122	0x3c259a6d	0.010107619
123	0xbb11e96c	-0.0022264374
124	0xbc1d944f	-0.009617879
125	0x3c09d804	0.008413319
126	0xbc56c164	-0.013107631
127	0x3b07f1be	0.0020743455
128	0x3c26aaa3	0.010172519
129	0xbb0dbfd8	-0.002162924
130	0x3bd04df1	0.0063569476
131	0x3b83a5b7	0.0040175575
132	0xbc37103b	-0.011173303
133	0xbbf472fc	-0.0074599963
134	0xbc6f206c	-0.014595132
135	0xbc46bc22	-0.012129815
136	0xb942e6da	-0.0001858728
137	0x3b59e7c5	0.0033249718
138	0x3bca942c	0.0061822142
139	0xbc07fce2	-0.008300038
140	0xbb2e1ece	-0.0026568654
141	0xbc3da2fd	-0.011574504
142	0x3c69cf80	0.014270663
143	0xbc8ea28f	-0.017411498
144	0x3a18ced3	0.0005829159
145	0xbb0561b7	-0.0020352432
146	0x3c321a36	0.010870507
147	0x3bd5f4f7	0.006529446
148	0x3c552f67	0.01301179
149	0xbb9f227f	-0.004856407
150	0x3aa2bee3	0.0012416508
151	0xbad02e51	-0.0015882944
152	0x3b35bf42	0.0027732407
153	0xbc8faa4c	-0.017537259
154	0x3c4dbe62	0.012557598
155	0x3b941806	0.0045194654
156	0x3b483183	0.003054709
157	0x3cc13919	0.023586797
158	0x3c250ef6	0.010074368
159	0xbca60ada	-0.020268846
160	0x3a75a1d1	0.0009370121
161	0xbb07e0ad	-0.0020733282
162	0xbb4901f9	-0.0030671342
163	0xbac4653f	-0.0014983787
164	0xbc090702	-0.008363487
165	0x3c81b7fc	0.0158348
166	0xbb8e8368	-0.004349161
167	0xbc5e9678	-0.013585679
168	0xbc1a24b8	-0.0094081685
169	0xbc259e92	-0.010108607
170	0x3b71d0b8	0.0036898088
171	0xbc8272d8	-0.015923902
172	0x3b906b10	0.004407294
173	0xbca02c6a	-0.019552428
174	0x3ba8ac2f	0.005147479
175	0xbc5b60b6	-0.013389757
176	0xbba63fae	-0.005073509
177	0xbb516143	-0.0031948842
178	0x3c15b799	0.009138011
179	0xbc396b3e	-0.011317072
180	0xbb2acb34	-0.002606106
181	0xbb8ea4b0	-0.0043531284
182	0xbc2e3782	-0.010633351
183	0x3bc77fb0	0.0060882196
184	0x3b051d47	0.002031164
185	0xbb94206b	-0.004520466
186	0x3c404741	0.011735738
187	0xbaa475a4	-0.0012547267
188	0x3b532c16	0.0032222322
189	0x3c79e5ef	0.015252574
190	0x3c19213f	0.009346305
191	0xbcbc7b81	-0.02300811
192	0xbbb150a7	-0.005411226
193	0xbbab3071	-0.0052242805
194	0xbc1cfc14	-0.0095815845
195	0xbc8c7eb7	-0.017150266
196	0xbc33abc0	-0.010966241
197	0xbb97be67	-0.004630852
198	0xbb8330ea	-0.0040036337
199	0x3c853780	0.016261816
200	0x3bc93732	0.006140613
201	0x3c373358	0.011181675
202	0xbcb9efdf	-0.022697387
203	0xbb5f47ab	-0.0034069817
204	0xbc9660ef	-0.018356768
205	0x3b954e94	0.0045564864
206	0x3be12565	0.006870913
207	0x3c1efcc8	0.009703822
208	0x3baaf4b6	0.00521716
209	0xbba74765	-0.0051049464
210	0xbbdccb51	-0.0067381044
211	0xbca6d8e4	-0.020367093
212	0x3cbd1f2b	0.023086151
213	0x3c764689	0.015031465
214	0xbc6ec58e	-0.014573468
215	0x3bb7ade5	0.0056054466
216	0x3b2aef89	0.0026082715
217	0xbaf8d2dc	-0.001898374
218	0xbc057e82	-0.008147838
219	0xbc9596be	-0.018260356
220	0xbae2efc5	-0.0017313889
221	0x3ca347e5	0.019931743
222	0xbc47979a	-0.012182141
223	0x38ede7fb	0.000113442504
224	0xbbffa9e5	-0.0078022354
225	0x3b2c2ed5	0.0026273031
226	0x3c642bff	0.013926505
227	0x3c506494	0.012719292
228	0xba1876b6	-0.0005816029
229	0x3846ce55	4.739904e-05
230	0xbaa49eb5	-0.0012559505
231	0xbbb85754	-0.0056256447
232	0x3cca8d8c	0.024725698
233	0xbab4cedb	-0.0013794558
234	0xbbac35af	-0.005255423
235	0x3b446d2c	0.0029972298
236	0x3b894a46	0.0041897623
237	0xbc5bd0ad	-0.013416451
238	0xbb993806	-0.004675868
239	0x3c4b9a01	0.012426854
240	0xba3909fb	-0.0007058677
241	0xbb8f13d9	-0.0043663797
242	0x3beb9ea3	0.007190542
243	0x3a161a32	0.00057259493
244	0xbab87940	-0.0014074221
245	0xbc4fade2	-0.012675734
246	0x3b43356c	0.002978648
247	0xbc2d771f	-0.010587483
248	0x3b450ac6	0.0030066236
249	0xbba845ad	-0.005135259
250	0xbb61996b	-0.003442372
251	0xbbdd97ad	-0.006762466
252	0xbc71fdfa	-0.014770025
253	0xbc9b1a71	-0.018933507
254	0xbb2ac04b	-0.0026054557
255	0x3ca6f406	0.020380031

network_body.linear_encoder.seq_layers.0.weight f4 [256, 8]
0	0xbdd509e6	-0.104022786
1	0x3eb34763	0.350154
2	0xbe47b90a	-0.1950418
3	0x3e8c9789	0.27459362
4	0x3f1e9768	0.6194978
5	0x3e26b642	0.16280463
6	0x3dc628b0	0.09675729
7	0x3ec2c2b3	0.3803917
8	0xbf5149d7	-0.81753296
9	0x3dfddc28	0.12395507
10	0xbe62e796	-0.22158656
11	0x3df90d01	0.121606834
12	0x3e61f14a	0.220647
13	0xbdeef142	-0.1166711
14	0xbece6a94	-0.40315688
15	0xbe54dcb1	-0.20787312
16	0xbec67d26	-0.38767356
17	0x3e94803b	0.29004082
18	0xbeefbfdb	-0.46826062
19	0x3f079666	0.52963865
20	0xbd7db45b	-0.06193958
21	0xbdc0b600	-0.09409714
22	0x3e01e65c	0.12685531
23	0x3d9d9567	0.07694512
24	0x3e9c9bb2	0.30587536
25	0x3e58b7d0	0.21163869
26	0xbf4dd94e	-0.80409706
27	0xbf2ae430	-0.66754436
28	0xbe5f1d6c	-0.21788567
29	0x3e583025	0.21112116
30	0x3d884bdf	0.06655096
31	0x3d6d763d	0.05797409
32	0xbe4325cd	-0.19057389
33	0x3efb7d93	0.49119243
34	0x3e97cd0b	0.29648623
35	0xba8db47e	-0.0010811237
36	0x3eed28d5	0.46320215
37	0x3c0d26c5	0.0086152
38	0x3e3ef2fe	0.18647382
39	0x3c98c502	0.018648628
40	0x3ea08f71	0.31359437
41	0xbe9284bd	-0.28616896
42	0xbd972c5a	-0.07381506
43	0x3c7812d4	0.015141208
44	0xbe7ba48b	-0.24574487
45	0xbbcee074	-0.006313378
46	0x3eabf87e	0.33588022
47	0x3db09ec6	0.08624034
48	0xbe1870f7	-0.14886843
49	0x3dd3ae72	0.10336007
50	0xbca8f4cd	-0.020624543
51	0xbd0ca782	-0.034339435
52	0x3eac7cbd	0.33688918
53	0x3de91ad8	0.11382073
54	0xbeb62bdd	-0.3558034
55	0x3e5ce2d3	0.21570902
56	0x3a3bbdd6	0.00071617716
57	0x3e0fc509	0.14040007
58	0x3e9003e1	0.2812796
59	0xbf27a982	-0.65493023
60	0x3efb5029	0.49084595
61	0xbf667182	-0.9001695
62	0xbe7fd196	-0.24982294
63	0xbe9294ef	-0.28629252
64	0xbf1fe0e2	-0.6245252
65	0x3e10f39c	0.1415543
66	0xbf0e9e33	-0.5571014
67	0xbe3cf999	-0.18454589
68	0xbe48035f	-0.19532536
69	0xbd390da7	-0.045179036
70	0x3eeb14ee	0.45914406
71	0x3dc3000c	0.09521493
72	0x3e61da3d	0.22055908
73	0xbf1c0d7b	-0.6095807
74	0x3ef9f4f4	0.48819697
75	0xbed4170e	-0.4142384
76	0x3d7cb979	0.061700318
77	0x3f626225	0.88431007
78	0x3ec6a59c	0.38798225
79	0xbe622e37	-0.22087942
80	0xbe2f460c	-0.17116565
81	0xbe4dac90	-0.20085359
82	0x3ea667e0	0.32501125
83	0x3f09ffac	0.5390575
84	0xbe238a54	-0.15970737
85	0x3e5c10be	0.21490762
86	0x3f12bcfe	0.5731963
87	0x3bd7baa6	0.0065835295
88	0xbe990083	-0.29883203
89	0x3ee535fc	0.4476775
90	0xbf04022e	-0.51565826
91	0xbe2a749e	-0.16646048
92	0x3ebbe920	0.36701298
93	0x3eed3dba	0.46336156
94	0x3e0c6cdf	0.13713406
95	0xbebbd8f1	-0.3668895
96	0xbeebff56	-0.46093243
97	0x3f4423bf	0.76617044
98	0x3dd05b99	0.10173721
99	0xbd2f5d09	-0.042813335
100	0x3ec4627f	0.38356397
101	0x3ee26a91	0.4422193
102	0x3ebffd73	0.37498054
103	0x3f1e4b2d	0.6183346
104	0x3e899a4b	0.2687553
105	0xbf1d3004	-0.6140139
106	0x3d88721f	0.06662392
107	0xbd098318	-0.033572286
108	0x3d53bccd	0.051693726
109	0xbea21e82	-0.316639
110	0x3ecbfa66	0.39839476
111	0x3dfeb9f9	0.12437815
112	0x3f2ddb48	0.6791272
113	0x3f1d5c7e	0.61469257
114	0x3e6f6ad4	0.23380595
115	0x3e5db1a1	0.21649791
116	0xbdb99468	-0.09061509
117	0xbf03a7bf	-0.51427835
118	0xbf56613a	-0.83742106
119	0xbe565958	-0.2093252
120	0xbea5d23d	-0.32386962
121	0x3ec6254a	0.38700324
122	0x3eaad726	0.3336727
123	0x3dbb030e	0.09131442
124	0x3dae80f6	0.08520691
125	0xbf096c85	-0.5368121
126	0xbdae28c1	-0.08503867
127	0xbead4b7b	-0.3384665
128	0xbcd2bcd9	-0.025724815
129	0xbe0922bd	-0.13392158
130	0xbe6269fb	-0.22110741
131	0xbdbe1896	-0.09282033
132	0xbe8c1193	-0.27357158
133	0xbf3136cd	-0.69224244
134	0x3e41c5c3	0.18923096
135	0x3e1bcd9f	0.15215157
136	0xbecc1835	-0.39862218
137	0x3e28af69	0.16473164
138	0x3c52cb9b	0.012865926
139	0x3c24f25d	0.0100675495
140	0x3ed0e917	0.40802833
141	0x3dc2f159	0.0951869
142	0x3f076963	0.5289518
143	0x3e8302c5	0.2558805
144	0xbe204a33	-0.15653305
145	0xbe74fce4	-0.23924595
146	0xbea6fdbf	-0.32615468
147	0xbe3d39a9	-0.18479027
148	0x3d866ce2	0.065637365
149	0xbf2625da	-0.64901507
150	0x3eeadc8a	0.45871383
151	0x3e1e2506	0.15443811
152	0x3eaefe49	0.3417838
153	0xbe6b761a	-0.22994271
154	0xbde6a312	-0.11261572
155	0x3f116e74	0.56809163
156	0xbd52a4b3	-0.0514266
157	0x3d9de930	0.077104926
158	0xbf54720b	-0.82986516
159	0xbe15e1cf	-0.1463692
160	0xbd91879c	-0.071059436
161	0xbf241fa1	-0.6411076
162	0xbdd7d47a	-0.105385736
163	0x3eb53a82	0.353962
164	0x3f116a54	0.5680287
165	0xbe4880da	-0.19580403
166	0x3f0a61e7	0.5405564
167	0xbce1cfff	-0.027565
168	0xbe812bb2	-0.2522865
169	0xbe992fc6	-0.2991926
170	0x3c91ed65	0.017813394
171	0xbf5c5ca7	-0.86078876
172	0xbeaec996	-0.34138173
173	0xbf47e499	-0.7808319
174	0x3d65db0b	0.0561171
175	0xbe2adb08	-0.16685116
176	0x3f3ad4c8	0.7298093
177	0x3eae7762	0.34075457
178	0xbf68605e	-0.90772045
179	0x3e3fc45a	0.18727246
180	0xbee523b1	-0.44753793
181	0x3e3a55ab	0.18196742
182	0xbed2611c	-0.41089714
183	0x3e6f2e7b	0.23357575
184	0x3e0547e7	0.1301571
185	0xbe31c81c	-0.17361492
186	0xbe372107	-0.17883693
187	0xbf00f9b2	-0.50381005
188	0xbf1e0de6	-0.6173996
189	0xbe3763fd	-0.17909236
190	0xbe5b48e3	-0.21414523
191	0x3ba96f9b	0.005170775
192	0x3ebb758a	0.36613113
193	0xbc6464a5	-0.013940011
194	0x3dbc18a2	0.09184386
195	0x3f19ad3a	0.6002995
196	0xbf022f5c	-0.50853515
197	0xbe0eaee5	-0.13933904
198	0xbe5e58fe	-0.21713635
199	0x3e9b8c11	0.303803
200	0x3ec32a8a	0.38118392
201	0xbe8bf0c8	-0.2733214
202	0x3e49327e	0.19648167
203	0x3cca14d4	0.024668135
204	0x3e0a394a	0.13498417
205	0x3dc8ac55	0.09798495
206	0xbebf3949	-0.37348393
207	0xbf1fa71d	-0.6236437
208	0xbe50d105	-0.20392235
209	0xbd6098c7	-0.0548332
210	0x3f19d807	0.60095257
211	0xbe33ae09	-0.17546858
212	0xbdc6c4be	-0.09705494
213	0xbeb0b3eb	-0.34512267
214	0xbf0e9216	-0.5569166
215	0xbc063dd2	-0.00819345
216	0x3e9467fd	0.28985587
217	0xbdeddeb7	-0.11614745
218	0xbd1232d9	-0.035693023
219	0xbd548203	-0.0518818
220	0x3ec183a4	0.37795746
221	0xbe752286	-0.23938951
222	0xbf097fb5	-0.5371049
223	0x3edbb5cf	0.42912146
224	0x3ec0d78c	0.3766445
225	0xbef37a6d	-0.4755434
226	0x3f051c34	0.5199616
227	0xbf087437	-0.5330233
228	0xbf273b26	-0.6532463
229	0x3e4f2dd7	0.2023233
230	0xbe5b4c9d	-0.21415944
231	0x3ecbd822	0.39813334
232	0xbef0cc92	-0.47031075
233	0x3f1352ef	0.5754842
234	0x3d5afa27	0.05346122
235	0xbe90dee3	-0.2829505
236	0xbee62d46	-0.44956416
237	0xbe225af1	-0.15855004
238	0x3e282a19	0.16422309
239	0x3ebbdac4	0.36690342
240	0xbe8ebb53	-0.27877292
241	0x3f21581a	0.6302506
242	0xbd7cb8e6	-0.06169977
243	0xbb3292dc	-0.002724818
244	0xbee4a89f	-0.44659898
245	0x3e6ffb21	0.23435642
246	0xbf86b8b8	-1.0525122
247	0x3f0f11d9	0.5588661
248	0xbf16f1ee	-0.58962905
249	0xbe960eda	-0.29308206
250	0xbe018292	-0.12647465
251	0xbe32fdf8	-0.17479694
252	0x3e901f7f	0.2814903
253	0xbcccf885	-0.025020847
254	0xbeb3f675	-0.3514897
255	0x3d854fa4	0.06509331

network_body.linear_encoder.seq_layers.2.bias f4 [256]
0	0xbbb8fa19	-0.0056450483
1	0xbc0e3479	-0.008679503
2	0xbad0252e	-0.0015880221
3	0xba2fb75d	-0.00067030435
4	0xbb9df258	-0.0048201494
5	0x3cdbc1f5	0.026825884
6	0xb7f8a4a2	-2.9640567e-05
7	0x3b92c985	0.0044795894
8	0xbbb766ad	-0.0055969567
9	0xbbde9222	-0.0067923227
10	0xbbe10426	-0.0068669496
11	0xbbdfc4f4	-0.0068288986
12	0xbb622728	-0.0034508202
13	0xbb8c3f4a	-0.0042800056
14	0x3c12a5da	0.008950675
15	0xbb821a5d	-0.003970428
16	0x3b810b3a	0.003938106
17	0xbc9cbd1f	-0.019133149
18	0xbc32215f	-0.010872214
19	0x3c312e36	0.01081424
20	0xb7835b44	-1.5658916e-05
21	0x3ce9f1a3	0.028557604
22	0x3c88f432	0.016718004
23	0xbbefb38b	-0.0073151044
24	0xbb971bc4	-0.004611464
25	0x3b0a12ff	0.0021068451
26	0x3c2dc932	0.010607051
27	0x399c1258	0.00029768306
28	0xbca83ed1	-0.020537766
29	0x3c3eb0cb	0.01163883
30	0x3c10b67c	0.00883257
31	0xbb40c605	-0.0029414904
32	0x3ca00789	0.019534843
33	0xbc4d99b2	-0.012548851
34	0x3b5f2ece	0.0034054997
35	0xbba4f58e	-0.005034155
36	0x3b38d28b	0.0028201665
37	0x3c1c5482	0.009541633
38	0xba352b54	-0.00069110584
39	0x3b3b61f4	0.002859232
40	0xbb80ce2d	-0.003930828
41	0xbc90486d	-0.01761266
42	0xbc7076c6	-0.014676755
43	0xb9e53cde	-0.00043723633
44	0xbae1c140	-0.0017223731
45	0xbb88b5e6	-0.0041720746
46	0xbc6587ff	-0.014009475
47	0xbc2267d0	-0.009912446
48	0xbc490918	-0.0122702345
49	0x3b524c2d	0.0032088861
50	0x3bb04f78	0.005380567
51	0xbbb8410a	-0.0056229876
52	0xbc3d872d	-0.011567873
53	0x3b72e4b9	0.00370626
54	0xbaceb04e	-0.0015769096
55	0xb9b633ed	-0.00034752433
56	0x3c08558b	0.008321176
57	0xbbebaf75	-0.007192547
58	0x3939a413	0.00017704097
59	0x3ac3f25d	0.0014949549
60	0xbc39392b	-0.011305134
61	0xbbf55d8f	-0.0074879597
62	0x3a3b630e	0.0007148244
63	0xbc1d51ef	-0.009602054
64	0x3be662e8	0.0070308335
65	0xbbda2d7b	-0.0066582537
66	0xbc019e26	-0.007911241
67	0x3b14ac40	0.0022685677
68	0xbc00f9ad	-0.007872027
69	0x3c95982c	0.018261038
70	0x3bd743b8	0.006569352
71	0xbbfbacb9	-0.0076805023
72	0xb9db7777	-0.00041859943
73	0x3c79642d	0.015221638
74	0xbc8d28ae	-0.017231312
75	0x38188a7a	3.636859e-05
76	0xbc89b057	-0.016807718
77	0x3bdea0ec	0.0067940857
78	0x3b6b1446	0.0035870238
79	0xbbb5b1f2	-0.0055448944
80	0xbae9ec43	-0.0017846901
81	0x3be6cc3c	0.0070433896
82	0x3c2fe851	0.010736541
83	0xbb548538	-0.0032428037
84	0x3c0d2c58	0.008616529
85	0xbc22a970	-0.009928092
86	0x3b311cbc	0.0027025184
87	0xbbb1667d	-0.005413829
88	0x3ba9bae9	0.005179752
89	0x3c6be000	0.0143966675
90	0x3b0fcee7	0.0021943392
91	0x3c12b44b	0.008954118
92	0xbcc8cab9	-0.024510728
93	0xbbd824d0	-0.0065961853
94	0x3b2d88cc	0.0026479242
95	0x3bb2765c	0.0054462384
96	0xbbadb502	-0.005301119
97	0x3b8a9e99	0.004230332
98	0xba8c4503	-0.001070172
99	0xba4caac1	-0.0007807427
100	0xbc0f086d	-0.008730036
101	0xbbc6f7e6	-0.0060720323
102	0xbc897811	-0.016780885
103	0xbbac4261	-0.0052569364
104	0xbc22a850	-0.009927824
105	0x3b64afbc	0.0034894785
106	0x3a74977c	0.0009330434
107	0x3c361f07	0.011115796
108	0xbc0589a7	-0.008150495
109	0x3c5db79f	0.013532548
110	0x3cc49c6b	0.024000367
111	0xbc14f696	-0.009091994
112	0x3b570239	0.0032807721
113	0xbc6f5313	-0.014607209
114	0xbc3aa25a	-0.011391247
115	0xbbcfa6f9	-0.0063370434
116	0xbc1f054f	-0.0097058555
117	0xbc0e2a48	-0.008677073
118	0xbb7b62bf	-0.0038358418
119	0xbc529d35	-0.012854864
120	0x3c0c4a9a	0.008562708
121	0xb9edb2bf	-0.0004533734
122	0xbba30fcd	-0.004976249
123	0xbc01c1b9	-0.007919722
124	0x3c15a5d6	0.009133777
125	0x3c1c1cff	0.009528398
126	0xbb496fc1	-0.0030736777
127	0x3c18ae4c	0.009318899
128	0xbac8a257	-0.001530717
129	0xba2513fa	-0.0006297227
130	0x3c5aeb7c	0.013361808
131	0x3bb2d6b5	0.005457724
132	0xbafa30b4	-0.0019088001
133	0xbba8511e	-0.005136623
134	0x3c0b69a4	0.008509073
135	0xbb0e0dca	-0.00216757
136	0x3b2efb5c	0.0026700115
137	0xbc4f68f3	-0.012659299
138	0xba9fadad	-0.0012182497
139	0x3ab10e19	0.001350823
140	0xbcb126fb	-0.021625033
141	0xbc03de0a	-0.008048544
142	0xbbd527a6	-0.0065049706
143	0xbb3e33e6	-0.0029022633
144	0xbbdf6164	-0.00681703
145	0xbb429b22	-0.0029694517
146	0xb9c17be8	-0.00036904146
147	0x3bb1a25b	0.0054209656
148	0xbbdd07ba	-0.006745306
149	0x3c93d939	0.018047916
150	0x3c69e5f6	0.014276018
151	0xbbec7b23	-0.0072168275
152	0x3c3170ee	0.010830147
153	0x3beb5d61	0.0071827625
154	0xbc01166f	-0.007878884
155	0xbc32a3d8	-0.010903321
156	0x3bcc0801	0.00622654
157	0xbcc23e33	-0.0237113
158	0xbb973f80	-0.004615724
159	0xbb4af581	-0.0030969086
160	0xb8c88fbb	-9.563515e-05
161	0xba848720	-0.0010111071
162	0xbb844c9a	-0.004037452
163	0x3adc3dae	0.001680305
164	0x3bc4eff0	0.006010048
165	0xb94d13c9	-0.00019557694
166	0xbc44a9bc	-0.012003358
167	0xbb93af91	-0.004507013
168	0xbb58e975	-0.0033098136
169	0xbbb08d41	-0.0053879325
170	0x3bea12a4	0.0071433354
171	0xbb32e0dd	-0.0027294673
172	0x3b4cf8fb	0.0031276334
173	0x3b1353f5	0.0022480462
174	0x3bec5cf6	0.0072132302
175	0x3c665a32	0.01405959
176	0xbaca9615	-0.0015456105
177	0xbb37ef5c	-0.0028066253
178	0xbbd9bc9a	-0.0066447975
179	0xbbe3fd6f	-0.006957702
180	0xbc4d9e2b	-0.012549917
181	0xb8f95da4	-0.00011890687
182	0x3b5b6b63	0.0033480756
183	0x3c141d25	0.009040152
184	0xbbf4b02a	-0.0074672895
185	0x3c5f0189	0.013611206
186	0xbb486d5d	-0.0030582764
187	0x3b1c9ffa	0.0023899064
188	0xbaa980e9	-0.0012932095
189	0xbc32a474	-0.0109034665
190	0x3b8c8e73	0.004289442
191	0xbbbcf92a	-0.0057670074
192	0xbc243226	-0.010021722
193	0xbc210f54	-0.009830315
194	0xbc4c73b4	-0.012478758
195	0x3b3ea8c2	0.0029092287
196	0x3c889b35	0.016675571
197	0xbc21f1d8	-0.00988432
198	0x3bd19010	0.0063953474
199	0x3c0db594	0.008649249
200	0xbc257204	-0.010097984
201	0x3b3021a2	0.0026875515
202	0xbb6db0e1	-0.0036268758
203	0xbc6163f0	-0.013756737
204	0xbbfa779a	-0.007643652
205	0xbb5adac4	-0.0033394555
206	0xbbd5e6d1	-0.0065277596
207	0xbc122e4d	-0.008922172
208	0xbb64ba80	-0.0034901202
209	0xbc25db55	-0.010123094
210	0xbbb22eff	-0.0054377313
211	0x3b040b95	0.0020148505
212	0xb9c39ead	-0.0003731152
213	0xba80954a	-0.0009810117
214	0xbc34dfbb	-0.01103967
215	0x3b41ca5f	0.0029570085
216	0x3a9d0660	0.0011980049
217	0x3b903512	0.0044008577
218	0x3b5f078c	0.0034031598
219	0xbae81b93	-0.0017708413
220	0xbaa3a963	-0.0012486394
221	0x3b08cc2c	0.002087365
222	0x3c5fa789	0.013650783
223	0x3c685c47	0.014182157
224	0x3bd20607	0.00640941
225	0xba58200b	-0.0008244521
226	0x3c757764	0.014982078
227	0x3bd5fefa	0.0065306397
228	0xbbb43b33	-0.005500221
229	0x3ca8a392	0.020585809
230	0xbbdd1f33	-0.006748104
231	0xbb7c31ea	-0.00384819
232	0xbc4af820	-0.012388259
233	0xbb876e19	-0.0041329977
234	0x39cfed43	0.0003965889
235	0x3b5b9493	0.0033505305
236	0x3c1f901e	0.00973895
237	0x3b5db140	0.0033827573
238	0x3c02057a	0.007935876
239	0xbb87d894	-0.004145691
240	0xbc143aec	-0.009047251
241	0xbc169c19	-0.00919249
242	0xbbbd26ef	-0.0057724635
243	0xbc14557b	-0.009053583
244	0x3c38aa80	0.011271119
245	0xbc056750	-0.008142307
246	0xbb80a756	-0.003926198
247	0x3a92ad2b	0.0011190524
248	0xbc084a9b	-0.008318569
249	0x3ce02849	0.02736296
250	0xbc909460	-0.017648876
251	0xba1d2cfc	-0.0005995778
252	0x3ba58e96	0.005052398
253	0xbc5ff3f2	-0.013669001
254	0x3c425243	0.011860433
255	0xbad2599e	-0.0016048437

network_body.linear_encoder.seq_layers.2.weight f4 [256, 256]
0	0xbc24fd24	-0.010070119
1	0xbc2e40e8	-0.010635592
2	0xbc4de28f	-0.012566223
3	0x3d1ef7a5	0.03881039
4	0xbdd33eec	-0.10314736
5	0xbd328c98	-0.043591112
6	0xbc9279d4	-0.017880358
7	0x3d40ca75	0.047068078
8	0x3dd7d659	0.105389304
9	0x3c75b4eb	0.0149967475
10	0x3ddc84d3	0.10767522
11	0xbb64f79b	-0.0034937623
12	0xbd7f2c0f	-0.062297877
13	0xbddc4297	-0.107548885
14	0xbc67cc60	-0.014147848
15	0xbddc15e0	-0.1074636
16	0xbd6d171f	-0.057883378
17	0xbd3219b2	-0.043481536
18	0xbc0337b2	-0.008008884
19	0xbc9ddb8b	-0.019269725
20	0x3ca884fc	0.020571224
21	0x3d4f1298	0.05055484
22	0xbd0afb9c	-0.03393136
23	0xbd16553e	-0.036702387
24	0x3dcd1c96	0.10015218
25	0x3d1693a4	0.036761895
26	0x3d883aaa	0.06651814
27	0xbd74fab8	-0.059809417
28	0x3d62fbd4	0.055415943
29	0x3db05d09	0.08611495
30	0xbd01337e	-0.031543247
31	0x3d7863c9	0.060642038
32	0xbce92bbe	-0.02846324
33	0x3c0bbd79	0.0085290605
34	0x3d59d26d	0.053179193
35	0xbd0fbc12	-0.035091467
36	0xbc816f90	-0.015800267
37	0x3da13dc9	0.07873113
38	0x3da2dca9	0.07952244
39	0xbd312855	-0.043251354
40	0x3ce6f1ee	0.028191533
41	0xbdca1e0b	-0.098690115
42	0xbcabb263	-0.020959085
43	0x3d848efa	0.06472583
44	0xbd814db4	-0.06313649
45	0xbdd88a80	-0.10573292
46	0xbdc9df14	-0.09857002
47	0x3d229c6f	0.039699968
48	0xbd63678d	-0.055518676
49	0x3d6c1d3a	0.05764506
50	0xbda8aaae	-0.082356796
51	0xba9cc152	-0.0011959469
52	0x3d07f8e4	0.033196345
53	0x3b84549b	0.004038406
54	0xbdae6be2	-0.08516671
55	0xbd237452	-0.039905854
56	0xbe080b11	-0.13285471
57	0x3d68943f	0.056782003
58	0xbd5876ab	-0.052847546
59	0xbd327770	-0.043570936
60	0xbd75dd36	-0.060025416
61	0x3e1dc3ad	0.15406676
62	0xbdf77c0f	-0.12084209
63	0x3db6fb13	0.08934607
64	0xbc243bde	-0.010024039
65	0x3d8f5786	0.06999116
66	0xbb2cf7d4	-0.0026392834
67	0xbb0e9b2d	-0.0021759972
68	0xbd0c7a58	-0.034296364
69	0xbcf989aa	-0.030461151
70	0x3d89ff44	0.06738141
71	0x3df6ad08	0.12044722
72	0xbd4b795c	-0.049676284
73	0xbdd9874a	-0.106215075
74	0xbddf2e3e	-0.10897492
75	0x3df755cd	0.12076912
76	0xbe08ceb0	-0.13360095
77	0xbd204e75	-0.039137322
78	0xbd3cf9f3	-0.046136808
79	0x3dae8fc2	0.085235134
80	0x3d00142c	0.031269237
81	0xbb82f90d	-0.0039969743
82	0xbcc3942e	-0.023874369
83	0xbd815bfd	-0.063163735
84	0x3c5b64e6	0.013390755
85	0x3cbd33c7	0.023095978
86	0x3ba461bf	0.005016535
87	0xbcbdcf78	-0.023170218
88	0x3d530354	0.051516846
89	0x3d8a4877	0.06752103
90	0x3e0899c4	0.13339907
91	0x3d5cc056	0.053894363
92	0x3e3244f2	0.17409113
93	0xbd4ab7ab	-0.049491566
94	0x3d22aeef	0.03971761
95	0xbcb1fb74	-0.021726348
96	0xbe1edaa1	-0.15513088
97	0x3daa115a	0.08304091
98	0x3db5981f	0.088669054
99	0x3c8983dc	0.016786508
100	0xbb49efe9	-0.0030813164
101	0xbd967c62	-0.07347943
102	0x3ca1e3e6	0.01976199
103	0xbc96e3e5	-0.018419215
104	0xbd5a41e9	-0.053285513
105	0x3cb2a0e2	0.02180523
106	0xbd1496ce	-0.03627663
107	0xbd96ffcd	-0.07373009
108	0xb9aa61c8	-0.0003249778
109	0x3d0a7b08	0.033808738
110	0xbc92985e	-0.01789492
111	0x3cfee302	0.031114105
112	0xbd52eaff	-0.05149364
113	0xbc4da780	-0.012552142
114	0xbdfd8867	-0.12379532
115	0xbd692970	-0.056924284
116	0x3d3f6068	0.0467228
117	0xbcef2e23	-0.029196804
118	0x3c81d31e	0.015847739
119	0xbccecd76	-0.025244456
120	0x3ce4d640	0.027934194
121	0xbdc0c138	-0.094118536
122	0xbbcf859e	-0.006333067
123	0x3d2a72c4	0.041613355
124	0x3da55ef6	0.08074753
125	0xbe1238bf	-0.1427946
126	0xbd5421c5	-0.051790018
127	0xbc9fef7a	-0.019523371
128	0xbc6bbc22	-0.014388116
129	0x3dcda38b	0.10040959
130	0xbdd6ef40	-0.10494852
131	0xbdaa1d33	-0.083063506
132	0xbd47f636	-0.04881879
133	0x3dad7220	0.08469033
134	0xbd613f3c	-0.054991946
135	0xbd23795f	-0.03991067
136	0xbd77f0a5	-0.06053223
137	0x3d8b614c	0.06805667
138	0xbe0e8b94	-0.13920432
139	0x3debc8d6	0.11512916
140	0xbd1c3945	-0.038140554
141	0x3d96615c	0.073427886
142	0x3dd0d19b	0.10196229
143	0x3d840518	0.06446284
144	0x3d5a289a	0.053261377
145	0xbda78808	-0.08180243
146	0xbd308526	-0.04309573
147	0xbe1b6d8b	-0.15178506
148	0xbc188578	-0.009309165
149	0x3ddd075f	0.107924215
150	0xbdca5d0f	-0.09881031
151	0x3d206da5	0.039167065
152	0x3d85169a	0.064984515
153	0xbcb94aea	-0.02261873
154	0xbda290e4	-0.07937792
155	0xbd81a3c2	-0.063300624
156	0x3dcbf255	0.099583305
157	0xbd8a545c	-0.067543715
158	0xbd87f710	-0.0663892
159	0xbb267572	-0.0025399593
160	0xbe18a4b8	-0.14906585
161	0xbc602864	-0.013681505
162	0x3da8f450	0.08249724
163	0x3c9f4801	0.019443514
164	0xbc59ec73	-0.013301003
165	0xbdf4a342	-0.119452015
166	0xbd4e6218	-0.05038652
167	0x3d1f6f65	0.038924593
168	0xbd74af82	-0.05973769
169	0x3e07ef01	0.13274767
170	0xbc26181d	-0.010137585
171	0xbd447adf	-0.04796874
172	0x3d9f8094	0.07788196
173	0xbcd5e101	-0.026108267
174	0x3bc9e8cd	0.006161785
175	0x3d14d919	0.036339853
176	0xbd62fae9	-0.055415068
177	0xbd862a2f	-0.06551015
178	0x3dd7f872	0.10545434
179	0x3c698040	0.014251769
180	0xbbfe9a7b	-0.0077698804
181	0xbdacab24	-0.0843108
182	0xbd9de4c4	-0.07709649
183	0x3d546a60	0.05185926
184	0x3e24a50a	0.16078582
185	0x3d9c34f3	0.07627287
186	0xbdfead92	-0.1243545
187	0x3dad816f	0.08471953
188	0x3dcba4e0	0.09943557
189	0x3d8ca0be	0.06866597
190	0xbd565493	-0.05232675
191	0xbd11897c	-0.035531506
192	0xbd2e5e66	-0.042570494
193	0xbb3003c3	-0.002685771
194	0x3d0901a9	0.03344885
195	0xbd2a1155	-0.041520435
196	0xbdccc6d3	-0.0999886
197	0xbd5e1e96	-0.054228388
198	0x3cd774ca	0.026300807
199	0xbddc5ebf	-0.10760259
200	0x3bf155d4	0.007364968
201	0x3d1b8c6e	0.03797572
202	0x3da948b8	0.08265823
203	0xbd5797d1	-0.052635018
204	0x3ccfe537	0.025377853
205	0x3e11abdb	0.14225714
206	0x3d966bf3	0.073448084
207	0xbddb6d23	-0.107141756
208	0x3b1bf140	0.002379492
209	0xbc9ba05f	-0.01899737
210	0x3d2e6f86	0.042586826
211	0xbd087929	-0.033318672
212	0xbdeadd98	-0.11468047
213	0xbcb7d779	-0.022441613
214	0x3d7fd26e	0.06245654
215	0xbb46853b	-0.0030291814
216	0x3d32bdec	0.043638155
217	0xbd20d62e	-0.039266758
218	0x3d5486c7	0.051886346
219	0x3d3fff3e	0.046874277
220	0xb816dd9f	-3.5969188e-05
221	0xbd4f3587	-0.050588157
222	0x3cf5efb1	0.03002152
223	0xbdafc3c9	-0.08582265
224	0x3cf87691	0.030329974
225	0x3d3618f6	0.0444574
226	0xbc0e4e9f	-0.008685737
227	0xbcc813eb	-0.02442356
228	0x3dc916e4	0.09818819
229	0xbb901717	-0.004397284
230	0xbcedc9ce	-0.029026892
231	0x3cf7bfa0	0.030242741
232	0x3e56f580	0.20992088
233	0xbd0d8153	-0.03454716
234	0x3d9bccd3	0.076074265
235	0xbc92c9ca	-0.017918486
236	0xbd985482	-0.074379936
237	0xbd53ece8	-0.051739603
238	0x3d0c444d	0.034244824
239	0xbc5982ff	-0.013275861
240	0xbce376e6	-0.027766656
241	0x3e0ade63	0.13561396
242	0xbcb3eaa2	-0.021962468
243	0xbd68523e	-0.056719057
244	0x3debdf6a	0.11517222
245	0xbd55a8f1	-0.05216307
246	0x397bb72e	0.00024005465
247	0xbc6f4dfc	-0.014605995
248	0x3c7f9274	0.015598882
249	0x3cfafa3f	0.030636905
250	0x3d496a1c	0.04917346
251	0xbc3173e2	-0.010830851
252	0x3d408d72	0.047009893
253	0xbde14b70	-0.11000717
254	0x3dde914c	0.10867557
255	0xbba35e90	-0.004985638

network_body.linear_encoder.seq_layers.4.bias f4 [256]
0	0xbc39967d	-0.011327383
1	0x3c5e56ce	0.013570501
2	0x3bcc2b6f	0.0062307636
3	0x3c11f91d	0.008909491
4	0xbaf81de1	-0.0018929803
5	0xba95609d	-0.0011396591
6	0xbb959ad4	-0.004565576
7	0xba06596a	-0.0005125018
8	0xbc5bb850	-0.013410643
9	0x3b8c0c3c	0.0042739194
10	0x3c185375	0.009297241
11	0xba2e2469	-0.0006642999
12	0xbc1cfe29	-0.009582081
13	0x3c3255a0	0.010884672
14	0xbc6a3070	-0.014293775
15	0xbbc0862b	-0.005875369
16	0xbb155fa3	-0.00227926
17	0x3b44f2c5	0.0030051928
18	0xbc3bdd5f	-0.011466353
19	0xbc1893d8	-0.009312592
20	0x3a059e3b	0.00050971255
21	0xbcaaffb7	-0.020873887
22	0xbc1ba41b	-0.009499575
23	0x3c3ccc66	0.011523342
24	0x3ca8ab6d	0.020589555
25	0xbc3eff71	-0.011657582
26	0x38ecb920	0.00011287839
27	0xbb0cdd8c	-0.0021494357
28	0xbbc3a14e	-0.0059701568
29	0x3c1fefa0	0.009761721
30	0x3aa67d6a	0.0012702171
31	0x3b9ac3fb	0.0047230697
32	0xbae3ed13	-0.0017389379
33	0xbc18d8b0	-0.009329006
34	0x3c4b4bb7	0.012408189
35	0xbb91ad11	-0.00444568
36	0x3aa32df0	0.0012449604
37	0xbcb7f441	-0.022455337
38	0xbb910a89	-0.0044263047
39	0x3ca7c335	0.020478824
40	0xbc1b1fed	-0.009468061
41	0xbc872766	-0.016498279
42	0xbc94f348	-0.018182412
43	0xbbde3857	-0.0067816186
44	0xbc4cac06	-0.012492185
45	0xbc23bbda	-0.009993518
46	0xbcbe9f0b	-0.023269197
47	0xbc832940	-0.01601088
48	0xbba4ceca	-0.005029534
49	0xb9947dfc	-0.00028322625
50	0xbbaf47b2	-0.005349123
51	0x3b9bb4ae	0.0047517633
52	0x3b662342	0.003511623
53	0xbc7f8262	-0.0155950505
54	0x3c56d22f	0.013111635
55	0x3c903ef3	0.017608142
56	0xbc1e6634	-0.009667922
57	0x3c9e5901	0.01932955
58	0x3bb6a204	0.005573513
59	0xbc094452	-0.008378105
60	0xbb847f29	-0.004043479
61	0x3b48c9f3	0.003063795
62	0xbb4bb7aa	-0.0031084814
63	0x3c3e1017	0.011600516
64	0xbbf2df28	-0.007411856
65	0x3a9e88cb	0.0012095211
66	0x3b370fb6	0.0027932948
67	0xbb31b338	-0.002711488
68	0x3c2cfaeb	0.01055787
69	0xba88f72a	-0.0010449637
70	0xbc28e598	-0.010308646
71	0xbbd4f373	-0.006498748
72	0x3b2846eb	0.0025677036
73	0xbc2d86db	-0.010591234
74	0xba34b08d	-0.0006892763
75	0xbc541999	-0.012945556
76	0x3c42fec1	0.011901558
77	0xbc96303a	-0.018333543
78	0x3b326767	0.0027222277
79	0xbc4c101b	-0.012455012
80	0xbc0b19a1	-0.008489997
81	0x3b9726e9	0.0046127927
82	0xbb4c9317	-0.0031215602
83	0xbc40031e	-0.011719493
84	0xbba86ef4	-0.00514018
85	0x3b383ec8	0.0028113592
86	0x3bd88c47	0.0066085192
87	0xbbcac5ec	-0.006188145
88	0xbbb7bb36	-0.005607034
89	0xbc50c8d6	-0.0127431955
90	0x3bd603cb	0.006531214
91	0xbbe96dee	-0.0071237003
92	0x3a93dfb6	0.0011281881
93	0x3c114ca8	0.008868374
94	0xbb823739	-0.003973868
95	0x3bd0fa77	0.006377514
96	0xbb7df134	-0.0038748505
97	0xbb2ae8b0	-0.0026078634
98	0xbc21ebd0	-0.009882882
99	0xbc533b67	-0.012892581
100	0x3c16f6c8	0.009214111
101	0x3c21d7bb	0.009878094
102	0x3bdefb4f	0.0068048607
103	0xbc8f14b4	-0.017465927
104	0x3b88a447	0.004169974
105	0x3b406269	0.0029355532
106	0xbc6d924c	-0.014500212
107	0xbbfa6b1a	-0.007642162
108	0xbbd234ed	-0.0064150007
109	0xbc087844	-0.008329455
110	0x3b354f5b	0.0027665708
111	0xbc39a492	-0.0113307405
112	0xbbd95885	-0.006632867
113	0xbc37ff10	-0.011230245
114	0x3a264a21	0.00063434435
115	0xbcb55441	-0.022134902
116	0x3c303536	0.010754874
117	0xbc0e4d05	-0.008685355
118	0xbc7d51ea	-0.015461424
119	0xbc4f1d1b	-0.012641217
120	0xbc54557f	-0.012959837
121	0x3a949974	0.0011337237
122	0xbb99b7ae	-0.004691086
123	0xbca62fb0	-0.020286411
124	0xbb0a6d26	-0.0021122186
125	0xbc8d4911	-0.017246755
126	0xbc473b4d	-0.0121601345
127	0x3a212d51	0.0006148415
128	0x3a4ddf0d	0.00078533666
129	0x3a1295af	0.00055917626
130	0xbc0b4b86	-0.008501893
131	0x3a339edf	0.0006851982
132	0xbc71a8f2	-0.014749752
133	0xbb090bc0	-0.0020911545
134	0xbc1bfc5e	-0.009520618
135	0x3b893f3a	0.0041884454
136	0xba47bcde	-0.0007619391
137	0xbbcd1fa6	-0.0062598763
138	0x3aea96de	0.0017897745
139	0x3bb7aee2	0.0056055645
140	0x3b50981f	0.0031828952
141	0xbae36679	-0.0017349265
142	0xbc16860d	-0.009187234
143	0x3ca93a8c	0.0206578
144	0x3c03d94a	0.008047411
145	0x3bb0d9fb	0.005397079
146	0xbc14eeb6	-0.009090116
147	0xb9d33aef	-0.00040288965
148	0xbbf1550f	-0.007364876
149	0xbb5276b1	-0.0032114203
150	0xbc64b001	-0.013957978
151	0xbc6751ed	-0.014118654
152	0xbc3ee3ad	-0.011650962
153	0x3c1522f8	0.0091025755
154	0xbc82d635	-0.015971282
155	0xbc48031b	-0.012207772
156	0x3c2b020f	0.0104375025
157	0x3b47ea92	0.0030504805
158	0xbba9616f	-0.0051690857
159	0xbc4aad08	-0.012370355
160	0xbbf5365d	-0.0074832872
161	0xbc1f73f1	-0.009732232
162	0xba19d54f	-0.0005868272
163	0x3c1a4cf8	0.009417765
164	0xbb35e42d	-0.0027754412
165	0xbbfb9b1e	-0.0076784035
166	0xbc44d52d	-0.012013716
167	0xbc143307	-0.009045369
168	0xbc423f57	-0.011855922
169	0x3bb67cca	0.0055690752
170	0xbc489ee8	-0.012244917
171	0xbbc8edd6	-0.006131868
172	0xbc0230c4	-0.007946197
173	0x39857442	0.00025454356
174	0xbb9ad83b	-0.0047254837
175	0xbb24a56d	-0.0025123016
176	0x3c1f47ca	0.009721706
177	0x3bdd4fb3	0.0067538857
178	0xbc55da96	-0.013052603
179	0xbc92360d	-0.017848039
180	0xbc1d1ed4	-0.0095898695
181	0x3b963370	0.0045837685
182	0x3b10ce0d	0.0022095472
183	0x3c37539c	0.011189368
184	0xbb732530	-0.0037101023
185	0xbbc61881	-0.0060454016
186	0x3c1a46f9	0.009416335
187	0x3c801b45	0.015638003
188	0xbbbeb40a	-0.005819802
189	0xbae35787	-0.0017344811
190	0xbb527fe6	-0.003211969
191	0xbc3ed9a6	-0.011648571
192	0xbbdfae9c	-0.006826235
193	0xbb21e45f	-0.002470277
194	0x3b9c5ee0	0.004772052
195	0xbc8cc7e3	-0.017185157
196	0x39392ddc	0.00017660059
197	0x3b47f988	0.0030513722
198	0xbc2bdf1c	-0.010490205
199	0xbc8776be	-0.016536113
200	0xbc8e9efb	-0.017409792
201	0x3b86d7ad	0.004115066
202	0xbbf10169	-0.0073549044
203	0xba8927b5	-0.0010464104
204	0xbb88b0e4	-0.0041714776
205	0xbc168621	-0.009187252
206	0x3b9018e8	0.0043975003
207	0xbbb02de0	-0.0053765625
208	0xbc24f906	-0.010069137
209	0xbba22686	-0.00494844
210	0x3b98cee6	0.004663336
211	0xbc84c25c	-0.016205959
212	0xbb96ef6b	-0.0046061776
213	0x3b9e6196	0.0048334105
214	0x3ba0fea5	0.0049131685
215	0x3c0ab54c	0.008466076
216	0xbba09faf	-0.0049018483
217	0x3c738333	0.014862823
218	0x39d86d6d	0.0004128026
219	0xbc2aa248	-0.010414667
220	0xbc47ec90	-0.012202397
221	0x3b98e431	0.0046658744
222	0x3bec9b50	0.007220663
223	0x3c59234e	0.013253046
224	0x3c038935	0.008028318
225	0x3b895635	0.004191185
226	0xb8423ea0	-4.631153e-05
227	0xbc0b8fa9	-0.008518138
228	0xbc2bf4e7	-0.010495401
229	0x3ac6e150	0.001517335
230	0xbb306633	-0.0026916384
231	0xbc627805	-0.01382256
232	0x3bb03dd3	0.005378464
233	0xbc26c3e3	-0.010178539
234	0x3a70e559	0.0009189449
235	0xbb8baa3d	-0.0042622373
236	0xbb87bbd4	-0.004142264
237	0xba550f68	-0.0008127601
238	0x3aba3573	0.0014206603
239	0xbc057fd8	-0.008148156
240	0xbc0b50e5	-0.0085031735
241	0x3b92c4da	0.004479033
242	0x3ab577f0	0.0013844948
243	0xba08cfb5	-0.0005218939
244	0x3a05239a	0.00050788524
245	0xbb508ad3	-0.0031821027
246	0xbc639b04	-0.013891939
247	0x3bd2c114	0.006431708
248	0xbbab3f44	-0.0052260477
249	0xbb9063ab	-0.0044064126
250	0xb88bfb24	-6.674815e-05
251	0x3b4c2ca1	0.003115453
252	0x3a2caf0f	0.0006587365
253	0x3c55bd17	0.013045571
254	0xbb200dfe	-0.0024422402
255	0x3b12ab9f	0.0022380126

network_body.linear_encoder.seq_layers.4.weight f4 [256, 256]
0	0x3d034914	0.032052115
1	0x3b3a488f	0.0028424596
2	0x3cddd03b	0.027076831
3	0xbd95e423	-0.07318904
4	0xbd87f16e	-0.06637846
5	0x3cf6b2d6	0.030114572
6	0x3dd1c6f8	0.102430284
7	0x3c9972d5	0.018731514
8	0x3ce627b4	0.028095104
9	0xbbf12dd0	-0.0073601976
10	0x3dc4e12e	0.09613262
11	0x3d0db895	0.03459986
12	0xbcac97c4	-0.021068461
13	0x3d26d14e	0.040726952
14	0xbdc07386	-0.09397034
15	0x3c3791fd	0.01120424
16	0xbe0b616f	-0.13611387
17	0xbd535ab6	-0.05160018
18	0x3c795ec7	0.015220351
19	0xbd9bb272	-0.07602395
20	0x3aac0fda	0.0013127283
21	0xbcb0ab93	-0.021566188
22	0x3cda953c	0.026682489
23	0x3c4d0bb1	0.0125149945
24	0x3bce108a	0.0062885927
25	0x3d2bad73	0.04191346
26	0xbdc7e80b	-0.097610556
27	0xbd9c2029	-0.076233216
28	0xbcce77b7	-0.025203569
29	0xbdc263d0	-0.09491694
30	0x3d417ae2	0.04723633
31	0xbdb27b52	-0.08714928
32	0x3d596430	0.053074062
33	0x3cf1b5dd	0.029505664
34	0xbd3223fc	-0.04349135
35	0xbca6ab1a	-0.02034526
36	0x3d9e7929	0.07737953
37	0xbd2f8210	-0.042848647
38	0xbc975ec1	-0.0184778
39	0xbd3ea20d	-0.046541262
40	0x3e2b5922	0.1673322
41	0xbc964b88	-0.018346563
42	0xbd82927e	-0.063755974
43	0xbc2309e5	-0.0099510895
44	0x3d2ee302	0.04269696
45	0x3d726711	0.059180323
46	0xba8d1d52	-0.0010766184
47	0xbcaf25f7	-0.021380408
48	0xbd916140	-0.07098627
49	0xbdc6b048	-0.09701592
50	0xbd77fce0	-0.060543895
51	0x3d1e55d7	0.038656082
52	0x3dfe676c	0.1242207
53	0x3b96962c	0.0045955386
54	0x3da40a05	0.080097236
55	0x3db00e43	0.0859647
56	0x3d73437e	0.059390537
57	0x3d06cdb1	0.032911006
58	0x3d5eec50	0.054424584
59	0xbd90a47f	-0.07062625
60	0x3d69ce92	0.057081766
61	0xbd75aaf9	-0.059977505
62	0xbc6f036e	-0.01458822
63	0xbcbeb8c1	-0.023281457
64	0x3d156bfe	0.036479943
65	0x3c31d034	0.010852862
66	0x3d5d4f04	0.054030433
67	0x3d072240	0.032991648
68	0x3c52756a	0.0128453765
69	0xbda699fc	-0.08134839
70	0x3da2038c	0.07910833
71	0xbc89351a	-0.016748954
72	0xbd33793b	-0.043816786
73	0xbc906711	-0.01762727
74	0xbd852fde	-0.065032706
75	0xbdb578c2	-0.08860923
76	0x3cb52c58	0.022115871
77	0xbe1b86bd	-0.15188117
78	0x3d0f5a1e	0.03499805
79	0xbd13b3c5	-0.036060113
80	0x3dbe2e2c	0.0928615
81	0x3d2c983a	0.042137362
82	0xbd2d5100	-0.042313576
83	0x3cc5dff3	0.024154639
84	0x3da06ca7	0.07833224
85	0xbca6e523	-0.020372933
86	0x3d320c9a	0.04346905
87	0xbdcd6ae8	-0.100301564
88	0xbc8314f6	-0.016001206
89	0xbcb47003	-0.022026068
90	0xbc74b580	-0.014935851
91	0x3c7552e6	0.014973378
92	0xbd914f6c	-0.07095227
93	0xbcabc73e	-0.02096903
94	0x3d281c8a	0.041042842
95	0x3b9a44d3	0.0047079115
96	0xbe11e8ea	-0.14249006
97	0x3c9038cb	0.017605206
98	0x3da62f8b	0.08114537
99	0x3dbbd2ba	0.09171052
100	0x3dc50f08	0.096220076
101	0xbd6c2f73	-0.05766244
102	0x3ba2de2c	0.0049703326
103	0xbd005800	-0.031333923
104	0xbbecf14c	-0.0072309133
105	0x3c3b5b43	0.011435333
106	0x3d5d771e	0.054068677
107	0xbe04c10c	-0.12964267
108	0x3d52a212	0.051424094
109	0xbda1ca68	-0.07899934
110	0xbdb7765e	-0.089581236
111	0x3b624946	0.0034528538
112	0xbe0aa2af	-0.13538621
113	0xbda093b7	-0.07840674
114	0x3d20c63e	0.03925156
115	0x3c27ce79	0.010242098
116	0xbdc91844	-0.098190814
117	0x3d3a63dd	0.045505393
118	0x3d1c6e10	0.0381909
119	0x3d1bdb74	0.038051084
120	0x3dd66c1b	0.10469838
121	0x3c9d2a59	0.019185232
122	0xbbee4d63	-0.007272409
123	0x3c96c342	0.018403653
124	0xbd2ebb30	-0.042658985
125	0x3d6b168b	0.057394546
126	0xbdddc886	-0.108292624
127	0xbdabe1b5	-0.083926596
128	0xbc2e790f	-0.01064898
129	0xba451388	-0.0007517864
130	0xbb0e78fd	-0.0021739595
131	0xbd40e358	-0.047091812
132	0xbda11251	-0.07864822
133	0xbdd98de6	-0.10622768
134	0xbbf915da	-0.007601482
135	0x3d938862	0.07203747
136	0xbce3668b	-0.027758857
137	0xbda8e6b4	-0.08247128
138	0x3d56b2e2	0.05241669
139	0x3dd45e8e	0.103695974
140	0x3d81e92b	0.063433014
141	0xbc0d41ba	-0.008621627
142	0xbdcd974f	-0.100386254
143	0xbc92a14d	-0.01789918
144	0x3d24ec32	0.040264316
145	0xbc1fbf4b	-0.009750198
146	0xbdc31a3b	-0.095264874
147	0x3cc7d411	0.024393113
148	0x3cd58db9	0.026068555
149	0x3e04289e	0.12906119
150	0xbdca3425	-0.09873227
151	0x3b5392a5	0.0032283452
152	0x3d952dbe	0.07284115
153	0x3a86a9b8	0.0010273969
154	0xbd8bf1c5	-0.06833223
155	0xbce37197	-0.027764125
156	0x3b33cadb	0.0027434144
157	0x3bbaeab8	0.00570425
158	0xbd2ad40a	-0.041706122
159	0x3dca26d3	0.098706864
160	0xbe34cd28	-0.17656386
161	0xbcd532ae	-0.026025143
162	0x3cfd0dd4	0.030890383
163	0xbd21df25	-0.039519448
164	0x3d85a313	0.065252446
165	0x3ce5cf51	0.028052958
166	0x3daab210	0.08334744
167	0xbc56046f	-0.0130625805
168	0xbcddd22d	-0.027077759
169	0x3d0eac74	0.034832433
170	0xbbeb4c07	-0.007180694
171	0xbd9f9f5c	-0.07794067
172	0x3db7dd01	0.089777
173	0x3df90aa4	0.12160233
174	0xbcb01a99	-0.021497058
175	0x3d8c6daf	0.06856858
176	0x3bb79cde	0.005603417
177	0x3dcaebcb	0.09908255
178	0x3d51af35	0.05119248
179	0x3b0498ef	0.0020232757
180	0x3d947a54	0.07249895
181	0xbc72c432	-0.014817284
182	0x3d7df62b	0.062002342
183	0xbcb87fb0	-0.022521824
184	0xbdb53a3c	-0.08848998
185	0xbc00a4c0	-0.007851779
186	0x3d246b6c	0.040141508
187	0x3c4a9baf	0.012366219
188	0x3c0e0f9d	0.008670715
189	0xbc96ee39	-0.01842414
190	0xbd9148af	-0.070939414
191	0xba8a6330	-0.0010558125
192	0xba34fc93	-0.00069040916
193	0xbd6f76fd	-0.058463085
194	0x3e11ea2c	0.14249486
195	0xbc38da6f	-0.011282547
196	0x3d412746	0.047156595
197	0xbd01a66c	-0.031652853
198	0xbd3db535	-0.04631539
199	0x3dc7b9b5	0.09752218
200	0xbd6b11bd	-0.057389963
201	0x3d314bc4	0.043285146
202	0xbda057a7	-0.07829218
203	0x3c227c03	0.009917262
204	0xbdc0d671	-0.094159015
205	0xbd2b0ec8	-0.041762143
206	0xbc259c16	-0.010108015
207	0x3dad5408	0.08463293
208	0x3d4cdd60	0.050015807
209	0x3d85d4fe	0.06534766
210	0xbc9ac62d	-0.018893326
211	0xbdfd365c	-0.12363884
212	0x3cdcd7bf	0.026958345
213	0xbcad6c85	-0.02116991
214	0x3d09b4a9	0.033619557
215	0xbc30fca0	-0.010802418
216	0xbdac262a	-0.08405717
217	0xbdc19105	-0.094514884
218	0x3deaf45e	0.114723906
219	0x3d5b68dc	0.0535668
220	0xbd27eb92	-0.04099614
221	0xbb814480	-0.0039449334
222	0xbda72a6f	-0.081623904
223	0x3d2a1e93	0.041533064
224	0x3d4d8ba4	0.050182
225	0xbbb77496	-0.005598615
226	0xbdb2285d	-0.08699105
227	0xbd5438b0	-0.051811874
228	0xbca750ed	-0.02042433
229	0x3b4d113a	0.0031290785
230	0x3d191571	0.037373964
231	0x3d4ffd21	0.050778512
232	0xbca6ca2f	-0.02036008
233	0xbda4f2c7	-0.080541186
234	0xbd59c0aa	-0.053162254
235	0x3d5bf4d2	0.053700276
236	0xbd5c26bb	-0.053747874
237	0x3c9c4075	0.019073704
238	0xbe096e19	-0.13420905
239	0x3e2708f9	0.16312017
240	0x3d393a90	0.045221865
241	0xbd7db739	-0.061942313
242	0x3dcc6513	0.09980216
243	0x3dc6fb65	0.097159185
244	0xbc64ebbd	-0.01397222
245	0x3b7697c4	0.003762708
246	0x3d8bc8cd	0.06825409
247	0xbc678d32	-0.014132785
248	0x3c98de48	0.01866068
249	0x3d3213ec	0.04347603
250	0x3ddc4e9c	0.10757181
251	0xbd918e6a	-0.071072415
252	0x3d90a381	0.07062436
253	0x3dbd7a74	0.09251872
254	0x3bc98b74	0.0061506573
255	0xbdcacb70	-0.09902084

network_body.vector_processors.0.normalizer.running_mean f4 [8]
0	0x3f5f4900	0.87220764
1	0x3f73c19e	0.9521731
2	0xbf65adb7	-0.8971819
3	0xbdfd72bb	-0.12375399
4	0xbfde49bf	-1.7366256
5	0xbf110aeb	-0.56657284
6	0x3ec77655	0.38957468
7	0xbdca0487	-0.09864145
