results/2022_0313_1627/Fight/Fight-1085909.onnx (onnx, 559045 bytes, 10 tensors)

65 f4 [24]
00000000: 928f 7b3a 247e ee3c 928f 7b3a 2000 123d
00000010: 928f 7b3a a5ed 0b3d 928f 7b3a e385 1a3d
00000020: 928f 7b3a 65f5 133d 928f 7b3a fe98 053d
00000030: 928f 7b3a 544e 083d 928f 7b3a 5c91 f13c
00000040: 928f 7b3a 5c91 f13c df03 d13f 1e99 bf3f
00000050: 7aea ed3f 50b1 153f d8d7 9a3d 43af ef3e
0.0009596284 0.029112883 0.0009596284 0.03564465 0.0009596284 0.034162182 0.0009596284 0.03772534
0.0009596284 0.0361227 0.0009596284 0.032616608 0.0009596284 0.033277825 0.0009596284 0.029488258
0.0009596284 0.029488258 1.6329306 1.4968603 1.8587182 0.5847368 0.075607 0.46813402

action_model._discrete_distribution.branches.0.bias f4 [4]
00000000: ee5d 01bc 1d61 64bc 57a7 893c ec1f cf3b
-0.00789593 -0.013939169 0.016803427 0.006320944

action_model._discrete_distribution.branches.0.weight f4 [4, 256]
00000000: cb0e ce3b c879 d83b dbdd 2cbd 67b3 d63c
00000010: fc3d ea3c a4fa d53a 02a6 333c 21ef 513b
00000020: b18b c8bb 1aa5 9b3c edd0 303b ebba 963c
00000030: 1b44 bc3c 1c28 543b 383e 2a3a 4fff ad3c
00000040: 3f8b eb3b 750f fbbc 3448 7e3c 300e 203c
00000050: 1d1b c9bc 60f9 363c abb6 02bd f501 44bc
00000060: 5c57 6eba 68f1 2b3c 7e85 f3bc b185 273c
00000070: 1d81 183c 74e3 753c 53ae 55bb 9fcc deba
00000080: 94b7 dc3c 37a7 463c 339d 9dbc d7ca 263c
00000090: 3e34 10bd 36bc a13c ab2a be3b 8a9a dfbc
000000a0: 0e12 943b ddfa 953b 6e13 363c 6f20 e2b8
000000b0: 08ad 89bc bc34 d6bc c92e 893c ee95 f03c
000000c0: f251 4e3c b0bf 46bc cec3 79bc 6871 4c3c
000000d0: 9968 ae3c 456f c73c 2b5e a93c 096a 793b
000000e0: 23a0 833c f10e 6e3a 0825 45bd dcbe 0a3c
000000f0: 0deb 2c3a 4cad 50bc c8cb 103c 2a04 393c
00000100: 188f ae3c ae3b f2ba 7716 323c f41d 703c
00000110: 9e8c 55bb 1831 eebc ce2a 75bb d4b7 bb3c
00000120: d4ae c1bc 1999 033d 4d03 8c3c 1ceb 213b
00000130: bdb3 b43a ad82 403c 6418 85bc cf49 9bbb
00000140: 8839 05ba 9fc3 c13b b9d1 64bc 82e0 94bb
00000150: c1ef 34bc 46d0 bdbc e74e 653c 6387 2b3c
00000160: 4f65 92bc 4b57 8e3c 5ed2 c5bc 4c17 b839
00000170: 1595 463c 8526 643c ac97 41bd 3707 d63c
00000180: 6d6b 603c bd32 53bc b6a3 d2bc f741 c73c
00000190: 74d3 823b aa8e 853a d98e 8d3c 04e1 0a3b
000001a0: 4b33 063a 7264 b73c a8fc bd3b 79d5 1bbd
000001b0: ead7 3abd 248a e33c e75a 4f3c e4e5 65bc
000001c0: 2f28 623c 4c2b 39bc 7f74 b93b eb2a b63c
000001d0: cb71 acbb 86a7 ab3c 874d 983c e1fe 3b3c
000001e0: 3fb1 213c 7e62 3e3c 1085 703c fe53 823b
000001f0: 05e7 ca3b 52ac 293c 7461 15ba 13f1 7b3c
00000200: 6ea7 d43b b382 c03b e7d5 3ebd 05e1 1d3c
00000210: 6ec8 cc3b 53e1 723c c550 ffbc 9cb2 ae3c
00000220: 1c6b a23c a3c3 8b3b ba87 beba 4083 323c
00000230: 43c6 8639 5f51 16bd cd4b b93b 5457 dd3a
00000240: 7df5 973c 713c 4237 2565 c73c b0bd 08ba
00000250: d6b9 4a3c 5aa6 5cbc f786 8a3c ed50 073c
00000260: 1655 f6bc 0258 6c3c 86f5 383c 5199 b23c
00000270: 4563 2fbc 8dcb 75bb 0aaa edba f024 a8bb
00000280: aaa8 573c efff aa3c fdc3 523c 2b88 bf3b
00000290: aa66 21bc a9ac 98ba 8068 c33c e13a 5d3c
000002a0: ee9d 063d f3d1 4abb 9cc9 793c 37b8 61ba
000002b0: 1110 963c 47e0 d73a 2f9a 5e3c 3c1d d83c
000002c0: 0937 fd3b c7db 7e3c 94c0 c5bc b9af e9bc
000002d0: e8ba 4abc e2e3 f7bc a81b 55bd 156e 033d
000002e0: 143d 4f3c bbf7 53bc 55bb 523c 36f4 c23b
000002f0: e88c 593c b014 59b9 fb76 07bc ce32 d33a
00000300: 24f5 e53c 6197 a63a bd41 7b3c 4fc0 893c
00000310: 036f 1a3c a2a0 eaba dac5 f43c 91cd c5bc
00000320: 7594 caba 5cef 58bd 9061 ac3c 51b1 063c
00000330: 0cf8 8cbc a123 603b 3a36 ff3a abaf 49bc
00000340: ee2c 843c a1b9 e73a 9780 f73b 60a0 30bc
00000350: 13cf a43c 7806 713c 89cb b5bc 9d7a d6bc
00000360: e912 693c 736c 443c aaf6 39bb 074e bcbc
00000370: 80c5 523c d112 97ba b181 2bbc 65c3 11bd
00000380: e368 763c e5b8 8e3c 670e f63a a455 c43c
00000390: 35ad bc3c f889 3abd c4db 163c 87c6 0d3b
000003a0: b4a4 723c 96e9 1ebb 72a2 62bb bbfa e33c
000003b0: ebcb 11bd 8bb8 983b 9cfe ae3a 81dd 143c
000003c0: 49aa 17bb b6a7 803c 4ae5 943c 12d3 1dbc
000003d0: 597e 823c 04c5 ae3c 1a5d 6f3c 8fda 9ebc
000003e0: 31bb 513c ba68 edbc da63 ab3a 36ae d93b
000003f0: f6e0 563c 7549 8abb 38e0 7d3b 29e3 1b3c
0.0062883846 0.0066063143 -0.042203765 0.026208593 0.02859401 0.0016325307 0.010964872 0.00320334
-0.006120168 0.018999625 0.0026979998 0.018399676 0.022981694 0.003237254 0.00064942567 0.021239905
0.0071882303 -0.030647019 0.015520144 0.009769008 -0.024549061 0.011167854 -0.031912487 -0.011963357
-0.0009091997 0.010494567 -0.02972674 0.010224746 0.009308127 0.015007842 -0.0032605126 -0.0016998238
0.026943006 0.012124828 -0.019239997 0.010180197 -0.035206072 0.019743066 0.0058034263 -0.02729537
0.004518754 0.0045770244 0.011113031 -0.00010782561 -0.01680614 -0.026148193 0.016745942 0.029368367
0.0125927795 -0.012130663 -0.015244437 0.01247821 0.02129011 0.02434505 0.020674786 0.0038057587
0.01606757 0.0009081206 -0.04813102 0.008468356 0.00065963046 -0.01273663 0.008837648 0.011292497
0.021308467 -0.0018480921 0.010869614 0.014655579 -0.0032585035 -0.029076144 -0.0037409547 0.022914805
-0.023642935 0.032128427 0.017091418 0.0024706786 0.0013786476 0.0117499055 -0.016246982 -0.0047390233
-0.000508212 0.0059132124 -0.013966017 -0.004543365 -0.01104349 -0.023170602 0.013995863 0.01046929
-0.017870573 0.017375609 -0.024148162 0.00035112572 0.012120505 0.013925199 -0.047263786 0.026126487
0.013697487 -0.012890515 -0.02571283 0.024323447 0.0039924923 0.0010189612 0.01728003 0.0021191249
0.00051193376 0.022386763 0.0057979412 -0.03804538 -0.045616068 0.027775832 0.01265595 -0.014031861
0.013803526 -0.011301827 0.0056596394 0.022237262 -0.0052625886 0.020953905 0.018591655 0.011474342
0.009868919 0.011620162 0.014680162 0.003977298 0.0061920905 0.010356026 -0.00056984206 0.015377301
0.0064896857 0.0058749556 -0.046590712 0.009636168 0.006249479 0.014824229 -0.031166444 0.021325402
0.019826464 0.004265265 -0.0014536299 0.01089555 0.00025706188 -0.036698695 0.005654788 0.0016886988
0.018549675 1.1577374e-05 0.024340222 -0.0005216254 0.012373408 -0.013467396 0.01691006 0.00825904
-0.030069869 0.01442528 0.011289006 0.021801623 -0.01070482 -0.003750536 -0.0018132341 -0.0051313564
0.013162771 0.020873992 0.01286411 0.00584509 -0.009851137 -0.0011648136 0.02385354 0.013502807
0.032865457 -0.0030947893 0.015245821 -0.0008610519 0.018318208 0.0016470038 0.013586565 0.026381128
0.007727508 0.015555329 -0.02413968 -0.028526174 -0.0123736635 -0.03026003 -0.05202833 0.032087404
0.0126488395 -0.0129374815 0.012862046 0.0059495224 0.013278224 -0.0002070244 -0.008268113 0.0016113163
0.028070994 0.0012709909 0.015335497 0.016815333 0.009425881 -0.0017900656 0.0298795 -0.024145873
-0.0015455621 -0.052962646 0.021042615 0.008220986 -0.017208122 0.0034200924 0.0019471117 -0.012309949
0.016134705 0.0017679223 0.007553171 -0.010780424 0.020118272 0.014711015 -0.02219178 -0.026181513
0.0142257 0.011988747 -0.0028375783 -0.022986425 0.0128644705 -0.0011525993 -0.010467933 -0.035586733
0.015039655 0.017422149 0.0018772603 0.023966618 0.02303181 -0.045541734 0.00920767 0.0021633224
0.014809776 -0.0024248115 -0.0034581688 0.027829519 -0.035594862 0.004660671 0.0013351026 0.009086014
-0.002314227 0.01570497 0.01817574 -0.009632843 0.015929388 0.021334179 0.0146095995 -0.019391326
0.012800978 -0.028980602 0.0013076023 0.006643082 0.013115158 -0.0042201825 0.003873838 0.009514608

network_body.linear_encoder.seq_layers.0.bias f4 [256]
00000000: 45e3 a63b a0ca fc3a e4cd 803b d25a 75bb
00000010: f06d 35ba dd3a c7bb 0b75 c0bb 117f ae3c
00000020: 572c d2bb b576 7cbc 6f18 0b3d 7ea5 48bc
00000030: 02fc 11bb 1148 8b3c 736b 71bb ab1f 543d
00000040: cab9 97bc 3f72 06bc 0262 d63c 61db 9ebc
00000050: a8f8 c13b 67ff d33b cc2d c63b c4e9 263b
00000060: 01da fe3c 3af6 843c cc2c 8dbc 24db 8a3c
00000070: e031 073d 7144 9cbc 7313 473c 1e49 eabb
00000080: 46ab 3cbc 005d 663b 5dff 98ba fbd7 d0bc
00000090: 388f 88bc 59c7 6f3a 4597 ec3c f0ad b53a
000000a0: e676 4fbc 4a93 633c 8c03 b93c 2f79 e83c
000000b0: b1bb 05bc 6f44 7bbb 3e54 2e3b 5596 62bc
000000c0: cc24 b43c bdc7 00bd a7bf 28bc 0dab d53b
000000d0: 0c30 25bd 60d2 143d f524 dd3b 6ae0 a23c
000000e0: 00fb c9bb 2f40 193b e956 7f3c 6033 c43b
000000f0: f546 e239 faf5 8d3c f13c 88bc d3de c13c
00000100: e05d ad3c a16e c7bc 3a9d bdbb 9ed7 20bc
00000110: ca2b d93b d666 01bc 6227 973c 7c00 56bc
00000120: 7c10 c2bc 1353 e8ba 6ac0 b73c 8357 4e3c
00000130: 8fe8 9a3a acee 19bc d01b 4e3c 702a efbc
00000140: 661a 38bd 54ac 4cbc 7b9a 4b3d 21fa cf3c
00000150: 5185 38bc 0ec5 be3b 1508 e9bb 29b7 2fbc
00000160: 3c25 d33b 30d5 183c e0ee e73c f069 12bd
00000170: b58d a33c 150d 4c3a 71da 1d3c d026 82bc
00000180: e55b cbbc 7b51 65bc b01b 8f3b f924 d7bb
00000190: 6485 0b3d 1ee5 183c c3ae 3dbc 6a9b aabb
000001a0: aa8a 24bc 3a5d 5a3c 6fa4 1abc 89d8 96bb
000001b0: 61c4 4e3d 9e64 8dbc 3cfe 8abc c903 493b
000001c0: 5766 c33a 0692 96ba 1d28 ccbb 18fe 9a3b
000001d0: 6d24 8bbc c668 d6bb b2f3 7e3c e8e1 c53c
000001e0: 3d3b 90ba 8378 ab3c 962c 2fbb 1879 903c
000001f0: 862c e9bb 57fb ac3b 2d40 2dbc 0251 00bd
00000200: d903 d53b c722 23b9 55fb 043d 0d50 81bc
00000210: be99 54bc 7ec5 0a3b a9c8 a93c 0eb5 b33c
00000220: 8321 d63b 805e e83c 74ac af3c 88be 93bc
00000230: 3697 bebc b9c9 053b 4ae8 ef39 b2ce 213d
00000240: 5c1e 443c d718 c7bc aa18 9d3c 351d 32bc
00000250: fec5 71bc be92 183d cf20 8a3c 7132 e03c
00000260: 51aa 053d 4ae8 78bc b679 9ebc 7e06 cd3c
00000270: 148c 853c de83 65ba 6f04 81bc 74a6 8f3c
00000280: b160 a33b 8eb9 e03b af52 cdbb 6b7b 17bb
00000290: b4fc 353c 883e e4bb ee8b 22bc 40c7 80bc
000002a0: 7198 0a3b 5ad3 babb 17ac 1cbd 8ef1 dcbc
000002b0: be25 86bb 9c03 f53c 27fd 833a 10b5 b5b9
000002c0: 5d60 4cbc 5e86 a1bc b8b7 ef3c 640b 7ebc
000002d0: c066 023c 3e49 53bc 70bc 7ebc 95b2 df3c
000002e0: 0e5b c4bc c68c df3c f506 3d3b db8a e53c
000002f0: c39b 8a3c 7533 d33c 802c 9cbb fbcf 7ebb
00000300: 3761 4a3c 0ef2 963b c247 ca3c 1ee4 053d
00000310: a29f a03c 84e1 72bb c428 bf3b e14c 8e3b
00000320: 114f 30ba 2d42 36bc f37d 9dbc a072 b5bc
00000330: 2ae5 1cbc a6aa 8dbb 8ad9 a6bb 1430 64bc
00000340: 342a 4abc ab79 cfbc 1b0c 863b cad2 0a3d
00000350: 4df5 5dbc de56 1cbb 6ad7 e83c a25d 92bc
00000360: 8cef 0fba 06fd da3c 3493 ab39 ce4e 8bbc
00000370: 62b0 92bc 5549 bb3b 1b6e 8dbc 3424 72bb
00000380: a0de dc3c 2e1e 0d3c 7294 263c 95ca 613c
00000390: dfe1 2a3d d5a7 2e3a 4b97 81bc d5fa 0dbc
000003a0: 935f 83bc 1d51 d33c 411b c03b 47d6 c33c
000003b0: 4bd9 6fbb ed23 0cbc 4c25 07bc 2aaa 3e3c
000003c0: b5a8 993c 81e7 03bb 96f9 9d3a 551e a53b
000003d0: 4615 813c d67a 823a b091 c6bb 9a1e 1cbb
000003e0: 57a7 04bc 12f9 58bc e682 7e3c 9143 e2bc
000003f0: 576e c33c 4bd5 6c3c 75fe 053d b6b5 3b3c
0.0050930106 0.0019286461 0.003930794 -0.0037438166 -0.0006920984 -0.006080015 -0.0058733276 0.021300824
-0.006413977 -0.015409161 0.03395885 -0.012246488 -0.0022275453 0.017002137 -0.0036837726 0.051788013
-0.018521208 -0.008205949 0.02616978 -0.019391717 0.0059195347 0.0064696553 0.00604794 0.0025468925
0.031109812 0.016230691 -0.017233275 0.016950198 0.03300655 -0.019075604 0.012150633 -0.0071498295
-0.011515444 0.0035150647 -0.0011672784 -0.025493613 -0.016669855 0.00091468316 0.028880725 0.0013861042
-0.012662625 0.013890097 0.0225847 0.028378097 -0.008162425 -0.003834035 0.0026600505 -0.013829787
0.021990202 -0.031440485 -0.0102996 0.006520635 -0.040329024 0.03633344 0.0067487904 0.0198824
-0.0061639547 0.0023384204 0.015584686 0.0059875697 0.00043158946 0.017329205 -0.016630622 0.023665821
0.021162927 -0.024344744 -0.005786565 -0.009817032 0.0066275345 -0.007898053 0.018451396 -0.013061639
-0.023689501 -0.0017724953 0.022430617 0.012594107 0.0011818575 -0.009395283 0.012579873 -0.02919504
-0.04494705 -0.012492258 0.04970787 0.025387825 -0.011262254 0.0058218306 -0.007111559 -0.010724821
0.0064436477 0.009328172 0.028312147 -0.03574556 0.019965032 0.0007783932 0.0096346 -0.015887648
-0.024824092 -0.013996477 0.0043673143 -0.006565687 0.034062758 0.00933197 -0.011577311 -0.005206515
-0.010042826 0.013327891 -0.009438618 -0.0046034497 0.05048025 -0.017259892 -0.016966932 0.0030672422
0.0014907819 -0.001148761 -0.006230368 0.0047299974 -0.016985143 -0.0065432517 0.015561031 0.024155572
-0.0011003983 0.020931488 -0.0026729456 0.017635867 -0.0071159033 0.0052789855 -0.010574383 -0.031327255
0.006500703 -0.00015557847 0.03246625 -0.015785241 -0.012976108 0.0021174843 0.020725565 0.02193692
0.0065347566 0.028365374 0.021444537 -0.018035188 -0.023265462 0.0020414426 0.000457587 0.03950376
0.011970129 -0.024303837 0.0191768 -0.010871221 -0.014756678 0.03724932 0.016861347 0.027367802
0.03263313 -0.015192101 -0.019345146 0.02502751 0.016302146 -0.00087553065 -0.015749184 0.017535426
0.0049858917 0.0068580573 -0.00626596 -0.0023114334 0.011107612 -0.006965462 -0.009921057 -0.01572001
0.002114799 -0.0057014646 -0.038250055 -0.026970651 -0.0040938547 0.029908948 0.0010069952 -0.00034657912
-0.012474147 -0.019717392 0.029262409 -0.015505645 0.007959068 -0.01289588 -0.015547857 0.027306834
-0.0239692 0.027288806 0.0028843258 0.028020313 0.016919976 0.025781373 -0.004766047 -0.003888129
0.012352279 0.004606492 0.02469242 0.032688253 0.019607369 -0.0037060687 0.005833717 0.004342661
-0.0006725649 -0.011124176 -0.019225096 -0.022149384 -0.009576121 -0.0043233214 -0.0050918506 -0.013927478
-0.012339164 -0.02532657 0.0040907986 0.03389243 -0.013547254 -0.0023855488 0.02842303 -0.017866913
-0.00054907124 0.02673198 0.00032725336 -0.01700535 -0.017906372 0.005715529 -0.017264416 -0.0036947848
0.026961625 0.008613152 0.010167228 0.0137812095 0.041719314 0.0006662582 -0.015819212 -0.00866576
-0.016036784 0.025795514 0.005862624 0.023905886 -0.0036598023 -0.008553487 -0.008248638 0.01163725
0.018757204 -0.0020127 0.0012052532 0.0050390163 0.015757214 0.0009954821 -0.006059848 -0.002382195
-0.008096538 -0.013242977 0.015534138 -0.027620109 0.023856325 0.01445515 0.032713372 0.0114568975

network_body.linear_encoder.seq_layers.0.weight f4 [256, 24]
00000000: 010c 0cbe 136a 78bc fef9 67bc 9b06 0dbe
00000010: ed68 1fbe be27 5ebc 3b0c 2d3e 0e23 583e
00000020: 77cb fa3c cd37 9e3c b672 693c 45e9 b1bd
00000030: 8280 b43d 81d5 87be 4175 043f b184 c93e
00000040: 2e3c 273e e1a8 003d ea0d dd3e 47ea 04bf
00000050: 8f4a b2be 9a11 e1bd 3fcf 4b3e aba5 30be
00000060: 3e43 edbd 0bf3 2e3d 339c 373e e70c bd3e
00000070: 2d85 a6bd 0ae8 76be a770 1abe d198 4bbe
00000080: 43f2 9dbd 34d6 c13e 2bc3 773e eeeb 5e3e
00000090: 32e6 b33e c2ef 07bd bb20 5dbe 6d45 55bc
000000a0: 9923 38bd 781d 6e3c 62a2 6ebe 1fdd fc3d
000000b0: 6034 9d3c 9a41 e1bd 33d2 793d 9df4 133e
000000c0: ea48 133e 8918 7a3e 8a8c 60be 1795 05be
000000d0: 9257 4b3d b9c6 733d c249 cd3d c680 55be
000000e0: d94b ae3d 65d9 19bd 1224 bfbe 2387 0bbd
000000f0: 8e9d ec3d 8eba bfbc e0a7 19bc baa1 b4bd
00000100: 7e0d f23c 3623 9abb f56f 5f3e 3148 08bd
00000110: 5812 913d 396c 2cbe 2b00 c33e 7a48 c8bd
00000120: cf91 82be e699 90be ae93 bc3e 4a58 233e
00000130: ed00 c9ba 9fd6 49bd ec91 243e 5376 01bf
00000140: f7e2 abbe a2d2 3dbc 9059 abbe ae9e 2ebe
00000150: cbea 8cbd 4904 803d dc63 b1bd dff0 ef3d
00000160: 20d4 363e 260f 5a3e 2a34 36bd ec44 b63b
00000170: ca9f 92be fc3d b6be 08e6 883c ad58 243e
00000180: 251f 51bc 6092 f1be 9861 e33d bbcf 80be
00000190: 6091 ab3d 6b36 f3be 2b3d 9e3e 43fb 3abe
000001a0: 1f28 fe3b 0de2 633e 10d6 8abd 1594 2dbf
000001b0: 3829 803e 5d67 43bd b01e d4bd 6d1b 88be
000001c0: e850 ea3d c9fa 3abd 5388 1d3e 06ad b4bd
000001d0: bccc 343e b369 a2be f04c ccbd 639a 28bd
000001e0: 1089 6fbd 91ce 013e 2ebd 0cbe f461 b4be
000001f0: be4f 67be f1f9 f23c 2397 3c3d 445d 4e3e
00000200: 249a 143f c00f 36be 6472 74be a267 e33d
00000210: a2bf 703e 334f 99be 8306 3e3e 1da9 603e
00000220: f2bb cabd 0d7d 87bd 1795 0fbd 6e96 71bd
00000230: 1da4 98bc 0c72 61be 69ac 7a3d 4d34 b53d
00000240: f566 f6bd 6c33 6abd a168 c6be c90e 353e
00000250: ee95 62bc f086 e43d 8975 673e 2cc5 8ebe
00000260: 534d 6f3d ec1f 68be bfb3 1f3e 5443 84bd
00000270: 2c2d 573e 1b46 2ebe 0870 6bbe 17fa b63e
00000280: 028c 1ebe f6d8 eabd d072 4cbe a75b cbbe
00000290: 78e0 09be bdd2 803e 8132 2dbe 4343 6e3e
000002a0: 0518 9f3e 1255 313e 90cf d0bd e6fd 953d
000002b0: 6a26 0dbd 471a a53e 7592 b53d 833e 13be
000002c0: 5521 ecbc a693 a13e e1e8 08be 02ee 993e
000002d0: afa2 193e 4048 813e 1c47 253c 52e9 4d3e
000002e0: ae74 693d 9e47 c43e 59a0 543e 867b d1bc
000002f0: 3a4c 983e cf98 e6bd e478 8bbd 9707 0a3e
00000300: 0389 06be 58a1 29bd 2631 c83d c90c 9cbd
00000310: eac9 963e b55e 1b3e 049d 323d 78cf 5bbe
00000320: 56e0 a73e 8a69 af3d 132f 883c 86cc 3bbe
00000330: bdc8 143e 24f7 11bc 782f fc3d d1d4 db3b
00000340: 97dd 103e 1088 823e 14d6 54be 5956 24be
00000350: 381d efbd 3e6e 973d 5013 043f 13cb 903d
00000360: 68e5 253e cec9 083e 5892 793e ebfd 453a
00000370: be48 c73e c54e 873e 86cd 083e 0b29 3e3e
00000380: c2da 3abe 0a7c 403d d92a d93e 595d 44be
00000390: 774e bfbb 500a 5cbe 50cf 623d 5561 423e
000003a0: 1618 76bd 51c4 a9be f0d9 3cbe 22f0 0bbe
000003b0: 518d 993e 0dd4 923e 6a68 033e a390 cb3d
000003c0: dd0f 3e3d 808b d03e 99e2 993e 42ec 46bc
000003d0: efed 923e 852c 443d 1337 6dbe e915 1f3d
000003e0: b07e 133e 7dc4 f83d e0a9 ddba 631a d4bd
000003f0: 3721 273c 5918 303e 5838 e6bd c6c1 3f3d
-0.13676454 -0.015162009 -0.014158724 -0.13772051 -0.1556737 -0.01355928 0.16899197 0.21107122
0.030614598 0.019313717 0.014248541 -0.08687071 0.088135734 -0.26530078 0.51741415 0.39359048
0.1633155 0.031411055 0.43174678 -0.5191998 -0.3482251 -0.10989685 0.19903277 -0.17250697
-0.11585091 0.042712253 0.17930679 0.36923906 -0.0813087 -0.24111953 -0.15082036 -0.19882514
-0.077122234 0.37858737 0.24195544 0.21769688 0.35136563 -0.033187635 -0.21594517 -0.013017041
-0.044955824 0.014533393 -0.23304132 0.12346863 0.019190013 -0.10998841 0.060991477 0.14448781
0.14383283 0.24423422 -0.21928611 -0.13045155 0.04964406 0.05951569 0.10023834 -0.20849904
0.085105605 -0.03756084 -0.37332207 -0.034064423 0.11553489 -0.023404386 -0.009378403 -0.088199094
0.02954745 -0.0047039045 0.21820052 -0.033271972 0.07083577 -0.16838159 0.38086066 -0.09779449
-0.25501868 -0.28242415 0.3683142 0.15951648 -0.0015335359 -0.049276944 0.1607129 -0.50571173
-0.33571598 -0.011585863 -0.33466768 -0.17052719 -0.06880721 0.06250817 -0.08661625 0.117158644
0.17854357 0.21294841 -0.04448334 0.0055624153 -0.28637534 -0.35594165 0.01671125 0.16049452
-0.012763773 -0.47181988 0.11102599 -0.25158486 0.083773375 -0.47502455 0.30906042 -0.18259911
0.0077562477 0.222542 -0.067791104 -0.6780408 0.25031447 -0.047705997 -0.10357416 -0.26583424
0.11441213 -0.045649324 0.15384035 -0.08822064 0.17656225 -0.31721267 -0.09975612 -0.04116286
-0.058480322 0.12676455 -0.13744041 -0.35230982 -0.22589013 0.029660197 0.046042573 0.20152766
0.580477 -0.17779446 -0.23871762 0.11103751 0.23510602 -0.29943237 0.18557172 0.21939512
-0.09899129 -0.066156484 -0.035054293 -0.05898135 -0.018632943 -0.22016162 0.06119958 0.08847866
-0.12031356 -0.057177946 -0.387517 0.17681421 -0.013829691 0.1115855 0.2260343 -0.27884805
0.05842335 -0.22668427 0.15595911 -0.06458154 0.21013325 -0.1701893 -0.22991955 0.35737678
-0.15483096 -0.11467163 -0.19965672 -0.39718363 -0.13464534 0.2516078 -0.16913797 0.23267846
0.31073013 0.17317608 -0.101958394 0.07323818 -0.034460463 0.3224661 0.08865825 -0.14379315
-0.028824488 0.3155796 -0.13370086 0.30064398 0.15003465 0.25250435 0.010087755 0.20108536
0.05699604 0.3833589 0.20764293 -0.025571596 0.29745656 -0.11259615 -0.068101674 0.13479458
-0.13138203 -0.041413635 0.09774999 -0.07619626 0.29450923 0.15172847 0.043606773 -0.21465862
0.32788342 0.08565052 0.01662401 -0.18339738 0.145297 -0.008909021 0.123137414 0.0067087193
0.1414703 0.25494432 -0.2078479 -0.16048564 -0.11675495 0.07394074 0.5159197 0.07069983
0.16200793 0.13358232 0.24372232 0.00075527903 0.38922685 0.26427284 0.13359651 0.18570344
-0.18247512 0.046993293 0.42415503 -0.19176234 -0.005838211 -0.21488309 0.05537349 0.18982442
-0.060081564 -0.3315759 -0.18442512 -0.13665822 0.29990628 0.28677407 0.128328 0.09939697
0.046401847 0.4073143 0.30055693 -0.012141289 0.28697154 0.04789402 -0.2316554 0.038839255
0.14403796 0.12146852 -0.0016911589 -0.10356595 0.01020079 0.17196788 -0.112412155 0.046815656

network_body.linear_encoder.seq_layers.2.bias f4 [256]
00000000: 0b34 67bc e140 e8ba a6d9 083c e64c a5bc
00000010: 3f11 b23c 0c73 a83c 2840 f5bb 7d09 07bc
00000020: 269b 3dbb 30b2 b6bb 26ff 893c ea3b 26bb
00000030: 36f6 883b 956a bbbb d048 cdbc 31aa 0cbb
00000040: 06e7 ed3b 05c0 d43c 8f78 cd3c f9e4 c63c
00000050: 489d 113c 91c9 793b 868d 57bc 6f01 883c
00000060: 48cd dabc b4d6 923a 97c3 2c3c 6ab1 9bbb
00000070: 28c7 863c a2aa f33b 3976 afbb 1515 00bd
00000080: 31d8 c83c 11d6 68bc ba85 8abb 6a34 823c
00000090: 9bca da3b 4d51 10bc dd59 98bc 6c71 193d
000000a0: d372 2cbc 2a70 8b3b f3de 583c f426 213c
000000b0: 5432 133d f269 0d3c dea0 79bc d97b 473b
000000c0: 9ebb 89bc be52 f9bb bb2a d2bb 2e24 8b3b
000000d0: ced3 d1bb 0eb2 05bc fcb8 55bb 2053 8c3a
000000e0: bcd7 53bc 8bd4 b23c 69d7 3dbb fc48 e73b
000000f0: bc2a 613b dd05 ee3a 9141 233c c9f7 2c3a
00000100: 7415 cfbc 834f b83b b67e c53c 841d a93b
00000110: ca61 713a 2d0d b8bc 7445 53bb 98a1 923b
00000120: 6074 013c ce64 f03b 9bde 50bc 87a9 063b
00000130: 0882 ddba c247 02bc ae45 52bc 4a2a 69bb
00000140: 936d 0f3c d321 983c 8952 abbc 3912 b53b
00000150: ec1c 4f3c 9883 b9bc 368c df3c 0ce9 613c
00000160: d372 42bc 0db2 283c abfb 9f3b 1205 a6bc
00000170: 0bfe b53b 1120 753c d61e d03c 773e bb3b
00000180: 70dc 42bc 57cf 74bc 911d fabb a18b 603c
00000190: 0965 80ba 6fae 0a3d 9b09 093c f49e b63b
000001a0: 01e0 f83c baaa 75bc f5f4 2e3c c3a7 9bbc
000001b0: 7954 02bd a6cc 14bc d56f 7b3b bfdf 6ebc
000001c0: 48dd 73bc 661a 093d 2dc5 243b 3b6b a3bb
000001d0: cc2b 6b3c cf8a 903b 7ae7 173c c484 bcbb
000001e0: f5e7 903b cb91 a1bc 1750 ec3c 37f0 2eba
000001f0: c9cb 3b3c aa60 88bb 260e b7bb dd5a 6f3b
00000200: d04f cf3c a315 25bc 8032 13bc 87e0 82bc
00000210: 9d88 103c 20c6 143d 62ef 553b 0f7f 323c
00000220: e17e b0bb 916a 763c ea8e 0bba 8b51 1cbc
00000230: 1c8a 0f3d ffc9 93ba c595 bcbb 2589 92bc
00000240: 670e 41bc a0cd 533c f529 49bc 22ea b6bb
00000250: cc08 0ebc f730 78bc 8d3f 6a3b fa7f 413c
00000260: 4bbc 053c 805b 163a 17d0 513c 405c 2b3c
00000270: 4004 0b3c b7c4 4fbb 6862 52bc 124b 953b
00000280: 998c 44bc 0831 eebb 6aad 883c 1bd6 f6bc
00000290: f926 c9bb bd41 bbbc d9cd 26bc 55bc e23c
000002a0: 49fe 64bc 620f 2b3b 97ea 853b bb76 7bbc
000002b0: 86d5 403c 8ab1 7d3c e470 7d3b be46 2fbd
000002c0: 83e8 653c 8aa9 983c 2328 a93c a76a d9ba
000002d0: 73e2 633b f8a5 1b3c 07e0 f8bb 4ab8 fd3b
000002e0: 1ef8 63bb d0b9 003d 7c85 ccbc af50 01bc
000002f0: 102b 223c 8fb6 36bb 1a6c 74bc d17f 863c
00000300: 2a8d 393c b83a 41ba 0d66 a0bc 549a 59bc
00000310: 7c3c 2e3c 9961 9fbc 4fa6 17bc cda2 e03b
00000320: 128b 373d 518f 0fbd e87c 38bc f8e6 8abc
00000330: bacb 9c3c 6073 163c 1987 513c 54b8 4c3c
00000340: 2bc9 07bb b6db b3bc 0417 5cba fce5 0bbb
00000350: 2b1f 2cbc e9c9 413a 2494 ac3c e04e 3e3c
00000360: 014b 03bc 7453 69bc c268 303c 0737 2dbc
00000370: 44f4 bb3c b28f 2b3c dfca c73c 5893 90bc
00000380: a096 8bbc 740b 063c 65a1 a4bc 063e d53c
00000390: 52fa e43b 8097 b5bc ef13 b8bc 3d82 9bbc
000003a0: e7ab 61bc 2c9b 833c 2ca2 a53c 49f7 f23b
000003b0: 07d0 cb3c 6a61 653c 1991 8abc 417a 2738
000003c0: 7654 b9bb 914d 02bc 9c87 72bc 1b2f cfbb
000003d0: 6ce3 1a3d 7c79 9039 1b2a dd3c ca79 6ebc
000003e0: d4e6 953c 5926 073c 15cc f93b a255 d3bb
000003f0: 5344 a5bc 01ab 493c 64c8 39bc b876 91ba
-0.014111529 -0.0017719531 0.008352673 -0.02017827 0.02173674 0.020562671 -0.0074844547 -0.008242008
-0.0028931587 -0.005575441 0.016845297 -0.0025365301 0.0041797413 -0.0057194927 -0.025059134 -0.0021463747
0.007260206 0.025970468 0.0250819 0.024279105 0.008887596 0.0038114528 -0.0131563 0.016602246
-0.026709214 0.0011202903 0.010544679 -0.004751374 0.016452387 0.0074361125 -0.0053546694 -0.031270105
0.02451715 -0.014211194 -0.004227367 0.015894134 0.0066769845 -0.008808446 -0.018597538 0.037461683
-0.010525423 0.0042553144 0.013236749 0.009835947 0.03593667 0.008631216 -0.015236108 0.003043881
-0.016813096 -0.0076087406 -0.0064137853 0.0042462563 -0.006403423 -0.008160127 -0.003261148 0.0010705926
-0.012929853 0.021829864 -0.0028967506 0.007058261 0.0034357747 0.0018159706 0.009964363 0.0006598202
-0.025278784 0.005624713 0.024108272 0.0051609892 0.0009207992 -0.02246722 -0.0032237442 0.00447483
0.007901281 0.0073362356 -0.012748386 0.0020547824 -0.0016899714 -0.007951679 -0.012833996 -0.0035578185
0.008754152 0.018570816 -0.02091338 0.005525854 0.012641173 -0.022645757 0.027288537 0.013788473
-0.011868197 0.010296357 0.004882296 -0.02026609 0.005553966 0.0149612585 0.025405329 0.0057142335
-0.011893377 -0.014942012 -0.007632919 0.013705165 -0.0009795736 0.03385776 0.0083641065 0.005573148
0.03038025 -0.014994318 0.0106785195 -0.019000893 -0.03181884 -0.009081995 0.0038366218 -0.014579712
-0.0148843005 0.03347244 0.002514194 -0.004987148 0.014353704 0.0044110785 0.009271497 -0.0057531316
0.0044221827 -0.01972284 0.028846784 -0.0006673368 0.01146216 -0.004161914 -0.0055864034 0.0036522665
0.025306612 -0.010075959 -0.008984208 -0.015976204 0.008821634 0.03632176 0.0032643904 0.010894551
-0.005386219 0.015040056 -0.0005323725 -0.009540926 0.03504382 -0.001127541 -0.0057551586 -0.017887661
-0.011783219 0.012927443 -0.01227807 -0.00558211 -0.0086690895 -0.015148393 0.0035743446 0.011810297
0.008162568 0.00057356805 0.01280596 0.010459006 0.0084849 -0.0031702945 -0.012840845 0.004556068
-0.011996412 -0.0072690286 0.016684253 -0.03013139 -0.006138679 -0.022858495 -0.010180914 0.027677694
-0.013976642 0.0026101698 0.004086803 -0.015348132 0.011769658 0.015484223 0.0038672024 -0.042792074
0.014032486 0.01863553 0.020649021 -0.0016587571 0.0034772425 0.009500019 -0.0075950655 0.0077429162
-0.003478534 0.031427205 -0.024965994 -0.007892772 0.009897962 -0.002787981 -0.014918352 0.01641837
0.01132516 -0.00073711155 -0.019579912 -0.013281424 0.010634538 -0.019455718 -0.00925596 0.006855345
0.044810362 -0.035048787 -0.011260249 -0.016955838 0.019140113 0.009182781 0.012788557 0.012495119
-0.002071927 -0.021955352 -0.00083957636 -0.0021346798 -0.010505478 0.00073924527 0.021066733 0.011615485
-0.008013488 -0.014241088 0.010767164 -0.010572202 0.022943623 0.010471271 0.024388729 -0.017648384
-0.017039597 0.008181442 -0.02009649 0.026030552 0.0069878483 -0.022166967 -0.022470443 -0.018983
-0.013773895 0.016065203 0.020218931 0.0074147326 0.024879469 0.014000276 -0.016914891 3.992976e-05
-0.0056558205 -0.007953064 -0.01480284 -0.006322754 0.037814543 0.00027556333 0.026997617 -0.014555404
0.018298544 0.008248889 0.0076232054 -0.006449417 -0.020174181 0.012308837 -0.011339281 -0.0011098003

network_body.linear_encoder.seq_layers.2.weight f4 [256, 256]
00000000: 6f3b 94bd 34c7 0abd 5d5f bc3c d217 3b3d
00000010: febb 05bd e7f2 ab3b 80cf 29bd f104 9b3d
00000020: 9aad fbbd addd 783c 67c0 62be 9c80 443d
00000030: 1efd ebbc b442 67bd e3af 5cbd 21e3 d2bd
00000040: 4c19 17be 7ffa 933c 3802 cebd 5f6e 6fbd
00000050: 777f 2a3b 7b82 96bd 8e06 12bd 8887 173c
00000060: 59f9 febd daa6 7fbd ae28 173c 1ca8 3dbd
00000070: d35b 9a3d 4121 a0bd 6b27 7bbd 602d d2bd
00000080: 9784 8e3d 529c 043e 2839 af3d 7725 83bd
00000090: 7d5c 2d3d c447 0abd 0917 3abc 43e4 8dbc
000000a0: e18b bb3c be98 093b 5955 823d 5926 be3c
000000b0: 3a8b a53d 1d55 3cbd ea75 b2bd f6d8 713c
000000c0: bb16 d1bd 6037 4ebd 9410 ba3d 215d 8a3c
000000d0: 7f57 7bbc b306 89bc 7179 7c3d bd9a 86bd
000000e0: 8565 d8bb e951 d23d 8880 4c3d 1f4c 32bd
000000f0: 478d 52bd b646 b2bc 9d00 3b3e 3baf 6fbd
00000100: b8ca 553d 534c 03be 8198 dabc 0381 363c
00000110: b032 883b dda1 8ebd f12c 3a3d f09d bd3c
00000120: b29a d93b a4e3 c7bd 432d 0d3b 6faa 2fbd
00000130: 20dd ee3c c44d e53c dd5e 7fbd cf89 9ebc
00000140: 5ac6 4f3c 9f24 bd3c 089f c73d 5229 093d
00000150: 09da 323b df03 b93d 4d45 103d 3fe8 f13c
00000160: ce80 c4bc 8538 f13d 05ac 953d 3c7e 6fbd
00000170: 5a8d d13d 739c 533a 39d4 993a a92c 1a3d
00000180: d0a5 a13c 803b b2bb 6dd8 e63c c155 323d
00000190: 7848 b5bc 54d9 5fbd 1c9d 19bd 14d1 c2bd
000001a0: 4451 8abd 1f31 09bd 1f9e e23c 4a7f ad3b
000001b0: f5c6 c9bd e7d3 ec3d 04d8 c3bc 7b4a 973d
000001c0: 0224 1cbd 7b74 ab3d 7a19 ef3c 6e11 abbd
000001d0: 8c54 30bd 491f 5ebc c735 8c3d 8056 eb3b
000001e0: 5b92 cabc 7742 863d 5b15 f13c 9827 07bd
000001f0: 968e 253d 90d1 ff3d 9d8a c9bb 6e81 ff3d
00000200: c165 833b 90c3 fa3c 314d 80bb 6d5f e5bd
00000210: 0407 733c 18f1 b9bc 6510 8ebd eaf7 d53d
00000220: 199e 813d f064 17bd 3564 2bbd 8222 5cbd
00000230: b544 f0bd 723a 753c 9aa6 29bd 3ec7 9cbc
00000240: 5829 a13d 881f 103c 5f8b 763d 4d00 d23d
00000250: a5d2 763d 8f28 13bc e525 2abe 3001 4c3d
00000260: ccc3 82bc 31b3 6d3d ad4a 413d cf9b 42bd
00000270: 9e94 183b 8109 aebd 3917 a63d 34c7 503d
00000280: ddca 9f3d b798 9fbd 206c 9e3b 938c c8bc
00000290: ea4e 0abc 7506 de3b e715 753c 24f5 613c
000002a0: 34af 0ebb 21be d53d 4fb2 be3d 3e9b 8dbd
000002b0: e53a b2bb bcf9 f7bd a964 c2ba e362 cd3c
000002c0: e3f1 1ebd cc79 ec3c bdc9 003c 8f39 f73d
000002d0: ad48 95bd 3af3 543c 701d fb3d 5fbd 26bd
000002e0: f098 f9bd d753 343d 1709 a63c 8b64 823d
000002f0: 6ed8 9f3d d33e aebd 5155 a0bd def8 a93d
00000300: c52e d9bd 8602 933d 894a 87bc 3b09 5fbd
00000310: f85f 053e 2d73 cb3d 4a75 273c 1308 1fbb
00000320: 0754 6abd 8935 b13d d3e1 b93d 6c81 003d
00000330: bb07 b83d b9da bebb 9bd8 ca3c be9e b43d
00000340: 47a9 89bd 9ca9 683c 2e61 5a36 9304 323d
00000350: d28f 3fbc 0791 7c3d 5788 d7bd 6994 07bd
00000360: e846 953d 43f3 28bb 9eae 45bd e676 8038
00000370: f3fa 113b 9a78 77bc 04af 7d3d 8a63 36be
00000380: 14bb 86bb 5335 3ebd 1c95 a9bb ea46 87bd
00000390: 48d9 c0bc fe98 6a3c 0db6 2fbd edf1 3e3d
000003a0: adfe e7bc f36d 8b3d 76a0 0339 0b68 22bd
000003b0: b54c 0b3c af4c f03d 3660 123d 904d 0b3d
000003c0: 7754 ad3d e116 cd3c 5e2f 15bd 10ad b7bc
000003d0: f057 d5bd cbfa 9f3c 7b29 fb3d abff 513a
000003e0: fb08 bebd 2166 073e 390e 843b a235 823d
000003f0: c1dc 883d 579a 12bc 3a86 d6bc 655c 3cbd
-0.072378986 -0.03388138 0.022994692 0.045677014 -0.032649986 0.005247462 -0.041457653 0.07569302
-0.12288971 0.01518957 -0.22143708 0.047974214 -0.02880722 -0.056460097 -0.053878676 -0.10297228
-0.14755744 0.018063782 -0.10059017 -0.058454867 0.0026015916 -0.07349106 -0.035650782 0.009248622
-0.12449903 -0.06241498 0.009226007 -0.0463029 0.07537045 -0.07818843 -0.06131689 -0.10262561
0.06958883 0.12950256 0.085558236 -0.0640363 0.04232453 -0.033759847 -0.011358031 -0.017320758
0.022893848 0.0020995582 0.06363935 0.023211645 0.08083196 -0.045979608 -0.087138966 0.0147612
-0.102094136 -0.05034578 0.09085193 0.01689011 -0.015340685 -0.016726827 0.061639253 -0.06572483
-0.006603899 0.10269529 0.049927264 -0.043529626 -0.051404264 -0.021762233 0.18261953 -0.058516722
0.05219528 -0.12822084 -0.026684048 0.011139157 0.004156433 -0.06964467 0.045453016 0.0231466
0.0066407556 -0.09760216 0.002154187 -0.042887148 0.029158175 0.027991183 -0.062346328 -0.019352822
0.012681568 0.023088751 0.0974713 0.03348667 0.0027290604 0.090339415 0.03522234 0.029529689
-0.0239872 0.11778358 0.07308201 -0.058469996 0.10232039 0.0008072324 0.0011736221 0.037640247
0.019732386 -0.005439222 0.028179372 0.043538813 -0.022129282 -0.05465062 -0.037503347 -0.09512535
-0.067537814 -0.03349411 0.027663289 0.005294715 -0.09852401 0.11563855 -0.023906715 0.07387253
-0.038120277 0.08371826 0.029186953 -0.08352934 -0.04304938 -0.013557264 0.06846195 0.0071819425
-0.02472799 0.06555646 0.029429128 -0.032996744 0.040419184 0.12491143 -0.006150557 0.12475859
0.0040099327 0.03061083 -0.003915452 -0.11199842 0.014833216 -0.02269797 -0.06936721 0.104476765
0.06328983 -0.036961496 -0.04184361 -0.053743847 -0.11731855 0.014967548 -0.04141865 -0.019137975
0.07869214 0.00879658 0.06019151 0.102539636 0.06025948 -0.008981838 -0.16616018 0.04980582
-0.015962504 0.05803222 0.047190357 -0.047511872 0.0023281942 -0.084979065 0.08109898 0.050971225
0.07802365 -0.077928 0.004834667 -0.024481094 -0.008441666 0.006775672 0.014958835 0.013791356
-0.002177191 0.10436655 0.093113534 -0.06914376 -0.0054391497 -0.1210818 -0.0014831024 0.025071567
-0.0388049 0.028866671 0.007860598 0.12071525 -0.072892524 0.012997443 0.12261474 -0.040707942
-0.12187374 0.04402527 0.020268006 0.06366833 0.078049526 -0.085080765 -0.07828773 0.08299421
-0.10604624 0.07178216 -0.016515033 -0.054452162 0.1302489 0.099340774 0.010220835 -0.0024266287
-0.05720904 0.08652789 0.09076276 0.031373426 0.089858495 -0.0058244136 0.024761489 0.0881934
-0.0672174 0.014200594 3.2541097e-06 0.043461394 -0.011692004 0.061661746 -0.10524052 -0.03310052
0.07288915 -0.002577976 -0.04826223 6.125662e-05 0.0022274822 -0.015104437 0.061934486 -0.17811409
-0.004111657 -0.046437573 -0.005175246 -0.06605323 -0.023541108 0.014318703 -0.042898227 0.046617437
-0.028319681 0.068080805 0.0001255291 -0.039650004 0.008502175 0.11733376 0.035736285 0.034009516
0.08463376 0.025035324 -0.036422126 -0.02242139 -0.10417163 0.019528767 0.12263771 0.0008010815
-0.09279057 0.13222553 0.004030016 0.06357886 0.066827305 -0.00894793 -0.026187051 -0.04598655

network_body.linear_encoder.seq_layers.4.bias f4 [256]
00000000: 36fe f0bb 50ea 913b 285e f73c a6f5 773a
00000010: e139 dbbb d188 0b3c 73bf e3bb cbee 4f3c
00000020: 1fdb 8a3c 01dc 64bc 1b08 c7bc 5d4f 283c
00000030: 5913 dc3b 3c25 45ba 5663 9a3c f569 c53c
00000040: ca65 ac3b 7905 4b3c 4d3e abbc 480b 5dbc
00000050: c18c 0f3c 1f80 b4ba f5c4 973c 7a0a 313c
00000060: c932 55bb e080 d8ba dabf 1f3c 734c fe3b
00000070: 8bb2 a6ba 469e 973c 7f34 66b8 d18b 5fbc
00000080: 2c37 d93c b200 36bc eada 1f3c b57f 89bc
00000090: 899e 853c 5dd8 f2bc a43e 5f3c 84b6 413c
000000a0: f20c 85bc 761e a43c 3659 2abc 5b73 27bc
000000b0: 5d3b 063d ecc3 983b 4e52 823b 041a d6bb
000000c0: 8578 8fbc 09f7 8f3a d569 553c 4fc9 5cbc
000000d0: 71a9 ac3b cc26 d63a fbab c9bb d523 61bc
000000e0: dc24 8cbc 9cc5 9dbb 6585 de3c 4a6c a9bc
000000f0: bf73 de3c f897 153b e70f 3539 2c7a 883c
00000100: 180b a2bc e9f8 cbbc 10b9 c8bc fa9d e7bb
00000110: 147c 03bc bc27 593c 7a9f 7fbc b036 f33b
00000120: a79a ac3b 6b29 ed3b fbcc 80bb 9fb0 b0bb
00000130: 3468 17bc 882a 73bc 3940 033b 57b7 5c3a
00000140: 3002 1fb9 ea07 873c 31dc 7d3c 8d34 0b3c
00000150: 419b f6bb e4f3 873b 11d3 dfbc 1926 a9bc
00000160: d08a 8b3b 213f d33b d6de 3f3c 07f6 b93b
00000170: 675c b1bc 5c8d 2cbc d423 dd3c c922 e039
00000180: 3987 913c 6644 ae3b 8ae4 2b3b 0fcc e03c
00000190: 599d cfbc 658b e2bb fc66 17bb 62ba 0cbc
000001a0: 2138 e6bc fb65 bcba 7a83 9fbc 2ce7 b73c
000001b0: fc06 2f3c cd71 d7bb 2ff3 823c 3c2f 363c
000001c0: 9b85 64bc 1c50 3339 9e03 40bc 83da 9cbc
000001d0: 7e42 9bbc 3e79 a839 c11f a8bc d2e7 57bc
000001e0: 5065 ae3c d431 a7bc 3127 873b bfeb 2bbc
000001f0: 09d9 113c bc12 22bc f4b2 e2bb 8a57 80bc
00000200: f4f2 cdbc 094a a83b 0734 393c 308d 9bbb
00000210: 75ee b8bc b5e5 693c 0bf0 bc3c ed80 b6bc
00000220: 1adf f03b fcc4 9dba 3884 d3bc 86f0 a63c
00000230: 653b debc f899 be3c 56af 3e3b 6b48 87bc
00000240: 26eb 2ebb 4fb0 903b e8e7 9e3c 82dd 583c
00000250: 8176 3abb 1825 0e3c 4b22 303c 5a68 b6bc
00000260: 2724 a93c e1d1 d9bc ad3a 59bc f1e5 393c
00000270: faf2 0abc 33ae 88bc 583e bebc 49ec 883b
00000280: c3d3 d7bc cace 96bc 16d6 8ebc e09d 2fbb
00000290: fab3 1bbc 00fa 153c ee6f 8fbc e0a4 ae3b
000002a0: bfd5 033c 9f66 01bb d8b2 c1b9 a5b4 073b
000002b0: 4f40 203c 16e2 7c3c 367e dabb 0b9c 54bc
000002c0: 622c c3bc 37b2 c63b f1d2 d03b 057f 543c
000002d0: 54b7 9a3b af3c 203c 2891 b43c 61ad e23b
000002e0: 4960 adbc ae2b ba3c 52a4 b9bc 4d99 943c
000002f0: 6890 9abc 7bca 673c 6db4 0cbc 5d7f 20bc
00000300: 8355 4e3c afd1 d43b d81b cdbc 53e6 a13c
00000310: 00fd 85bc 7397 3a3c 6983 94bb 98ff bd39
00000320: 73cf 523c c0f8 dc3c 224e 9e3c aa01 47bc
00000330: 05b3 7c3c 40c6 853c f49f 88bc 43dc c53a
00000340: 6fc2 e5bc 745a 5dbb 2e8c 2ebb e700 1a3c
00000350: dff6 25bc d75f a63b a209 b53c 3517 a83c
00000360: afbd 9fbb a15c 873c 3f00 963c b97e 7b3c
00000370: aef8 333c 1352 883c fd4e 893c b761 d33c
00000380: 2da6 cd3c 7a2e cf3a 6dbc 8ebc 0b82 363c
00000390: 9354 bb3c 0cb7 d93c 92cc c03c 23e8 213c
000003a0: ffaf 903c ed79 403c b28b ab3c cee6 6b3c
000003b0: 8ee5 003c 0941 fa3a 72f1 363a 9eed bc3b
000003c0: 6ea4 0f3b 605c 39bb d648 163c 441b 723b
000003d0: d97e 1f3c 0bec 993c 2c63 32bc 9ba5 2f3a
000003e0: 9a9f 3a3c b9ab f43c b2cb b53c 9e8d 483c
000003f0: 0940 5dbc b72b 873c b4f3 09bd 3192 d337
-0.007354523 0.004452981 0.030196264 0.0009458907 -0.0066902493 0.008516506 -0.0069503128 0.01269121
0.016950188 -0.013968469 -0.024295857 0.010272828 0.0067161736 -0.0007520502 0.018846195 0.024098376
0.0052611576 0.0123914415 -0.02090373 -0.013491459 0.008761586 -0.0013771093 0.018526534 0.01080572
-0.003253149 -0.00165179 0.009750331 0.0077605783 -0.0012718005 0.018508088 -5.4885164e-05 -0.013644175
0.026515566 -0.011108564 0.009756783 -0.016784528 0.016310947 -0.029644186 0.0136257745 0.0118233
-0.016241524 0.020034056 -0.010397246 -0.010220374 0.032771457 0.0046620276 0.0039770966 -0.006533863
-0.017513523 0.0010983656 0.013025721 -0.01347573 0.0052692224 0.0016338467 -0.006154535 -0.013741453
-0.01710742 -0.0048148166 0.027163217 -0.020681519 0.027154801 0.0022826176 0.00017267429 0.016659819
-0.01978068 -0.024898963 -0.024502307 -0.007068393 -0.008025188 0.013254102 -0.015601987 0.0074222907
0.0052674594 0.0072376034 -0.0039306856 -0.0053921486 -0.009241153 -0.014841683 0.0020027293 0.0008419654
-0.00015164237 0.016483266 0.015494392 0.008496416 -0.007525832 0.004148947 -0.027322324 -0.02064805
0.004258491 0.0064467345 0.011710843 0.0056750807 -0.021650506 -0.01053175 0.026994623 0.00042750526
0.017764674 0.0053182123 0.002622875 0.027441053 -0.025343584 -0.00691359 -0.0023102155 -0.008589359
-0.028102936 -0.0014373654 -0.019471873 0.022449099 0.010682818 -0.0065748454 0.0159851 0.01111966
-0.01394787 0.00017100613 -0.011719612 -0.019147163 -0.018952604 0.0003213379 -0.020522954 -0.013177829
0.021288544 -0.020409502 0.004124545 -0.010493218 0.008901843 -0.009892162 -0.0069183055 -0.015666742
-0.025140263 0.005135779 0.011303908 -0.0047470555 -0.022574643 0.014275958 0.02306368 -0.022278273
0.0073508145 -0.0012036855 -0.025819883 0.020378362 -0.02712793 0.023266777 0.0029096208 -0.016514024
-0.0026690452 0.004415549 0.01939769 0.013236405 -0.0028451981 0.008675836 0.010750364 -0.022266556
0.020647122 -0.026589336 -0.013258618 0.011346326 -0.008480782 -0.016684627 -0.023223087 0.004178558
-0.026346093 -0.018409152 -0.017436069 -0.0026796982 -0.009503359 0.009153843 -0.017509427 0.005329713
0.0080465665 -0.0019745005 -0.00036945078 0.0020707038 0.009780957 0.015434762 -0.0066678775 -0.012976657
-0.023824874 0.0060637253 0.0063728024 0.012969737 0.0047215614 0.009780093 0.022041872 0.006917641
-0.021164076 0.022725906 -0.022661362 0.018139506 -0.018867686 0.014147396 -0.008587939 -0.009795991
0.01259363 0.006494723 -0.025037691 0.019763147 -0.016355991 0.011388647 -0.004532267 0.0003623932
0.012866843 0.026974082 0.019324366 -0.012146393 0.015423541 0.016329885 -0.016677834 0.001509555
-0.028046815 -0.0033775838 -0.0026633847 0.009399629 -0.010129659 0.005077343 0.02209932 0.020518878
-0.004874907 0.016523661 0.018310664 0.015350037 0.010984583 0.016640699 0.016761297 0.02580343
0.025103653 0.0015806698 -0.017423833 0.011139403 0.022867477 0.026576541 0.023535047 0.009882006
0.017662046 0.011747819 0.020940635 0.01439829 0.00786723 0.0019092868 0.0006978727 0.005765631
0.0021918076 -0.002828382 0.009172639 0.003694252 0.009734833 0.018789312 -0.010887902 0.00067003974
0.011390591 0.02986704 0.022191856 0.012240795 -0.013504037 0.016500337 -0.03367968 2.5221236e-05

network_body.linear_encoder.seq_layers.4.weight f4 [256, 256]
00000000: 4e3a cf3d 6307 113d 34d7 babd d5b2 793d
00000010: 3e09 ce3b 7753 1b3d 6aa3 da3d 038f 753d
00000020: 8b80 aebc 752f f93d 39e9 3f3d 4664 bb3d
00000030: 4045 9fbd 346b 9b3d f5f6 883d 414f 093e
00000040: 71a8 d53d 1ea5 093d 5a0a 6cbd 8fe6 87bd
00000050: b5d8 cd3d 6c4f f3bb 8fe6 ae3d 64d1 633d
00000060: d186 383c 8464 de3d b5db 20bd 9d64 653d
00000070: 2f5a fbbc 3458 b1b9 0552 ae3d 0e6b cbbb
00000080: 4ce9 40bd 2c8c 523d 8cc3 073e 266d 86bd
00000090: 6dda 053d bf4e 943b 147a b33d fb4f 9d3c
000000a0: 6744 c53c eb4a 08bc 3266 12bc 4d73 82bd
000000b0: 66d5 393c fb15 11bd c457 b23d 9edb 7e3c
000000c0: 72f4 87bd efda c33d f193 b8bd 37b8 94bc
000000d0: 244e 4cbb c66b 46bc e03b 343d a40f 993d
000000e0: e3b5 e7bc e089 57bd 0a9b cabc 102d d6bd
000000f0: 6780 18bd f42c 883d 46c3 bcbd 068c 10bc
00000100: d10c debd b130 0d3d 5fb4 c1bd fdbf 083c
00000110: bf1a d73d 4114 9cbd d665 3bbe 1b24 503d
00000120: e9e3 a63c 49fe efbb 0167 bb3d 26d7 813d
00000130: d84c f5bc 0766 3fbb 8039 79bd 5f96 5cbc
00000140: a0bd 4c3d 1ed4 acbd f979 0fbd a90f c3ba
00000150: edb8 a23c 7e76 e33d 3770 d5ba d17a 11bd
00000160: e3aa 0b3c f065 ddbc bc21 2b3d 0fd0 7c3b
00000170: 73a9 333e 5752 8c3d 64d0 1c3d 75b2 51bd
00000180: 07cb e3bc 2fbc 843b 393b 4a3d a68c 22bc
00000190: be38 afbd 7ac3 18bd 3529 5b3d 7796 1fbb
000001a0: 4676 fdbb afbc 81bd 3141 0f3d 1c35 2dbd
000001b0: f04d 923d 7b86 d8bd d697 5cbd 455c 8d3d
000001c0: 8acd 0dbd 7c93 b93d dcd7 e93d f83d 8a3c
000001d0: 0832 e93b 9a00 51bd 5e05 81bd 5be5 693c
000001e0: fdb9 abbd db7e 8bbd 8c2f 803d 56f2 a8bd
000001f0: a026 5dbd 8ff3 ccbb d345 0b3d 3bb6 e63c
00000200: 108a 613b b175 513d 9086 3bbb ef78 2fbd
00000210: 1939 88bd bb97 88bd 3db7 443d 79c0 51bc
00000220: e101 733d eb1a b2bd 6e83 743c 3bd2 503d
00000230: 9ee8 303d 0fed 1dbd a2c0 a23c 4e8f 94bd
00000240: 4c5f 9b3d f4e9 6ebd fae6 c23d c91f ff3d
00000250: e242 8d3d 210e 42bd 3491 3f3d 1d22 ac3b
00000260: b8fd ab3c 1a56 78bd 554c ebbd 55af 2a3c
00000270: 1fca ccbd 7383 5dbc bf4e fd3d a458 00be
00000280: 58ea cebc 32d2 813d 9ac0 3abc 8927 21be
00000290: 0fe7 d2bc 5bfc 77bd a1e4 9bbb 9ca7 04bd
000002a0: c9d4 fcbd 4694 a53b a681 ac3c 23f8 c53d
000002b0: eab6 c1bc 5547 c5bb da21 27bd 4f2b 34bc
000002c0: 7910 d9bc 0e5b 8fbd d929 fb3c 0ea8 3b3d
000002d0: 6738 d7bc 9dba 68bd 4016 acbc c7e7 86bd
000002e0: 1ca4 17be 0976 32bd 9da3 ce3c a702 e8bc
000002f0: 5703 a1ba c3f4 46bd 56a1 dd3c ba1f ff3c
00000300: d62d d03d 3cf2 a5bd f6e7 4e3d c66c e33a
00000310: 7a80 36bd da49 363d 2604 0d3b 4c9f ac3d
00000320: ffb6 b33a c072 263d e5f7 8e3d b0e2 b7bd
00000330: c9e4 ba3b 03e3 0d3d 29f3 413d 2500 073d
00000340: 5b9e 07bb d2e4 a3bc ceeb 8d3c 3414 88bd
00000350: f158 d23c 9c2b 88bd e887 83bd dfeb 90bc
00000360: 531a 93bc 6681 f6bd bc78 acbd 84ab 20bd
00000370: df31 673d 1eb2 2fbd 75b4 3e3c e37e 673d
00000380: bbcb 1fbd c509 5fbd 7101 e4bd 82c1 3d3d
00000390: 92bb c03d 7346 27bd ebde 50bb 5d6c 983d
000003a0: 1f0b 0a3d 8a42 b1bc c00c 96bc 35aa d5bc
000003b0: 0353 c0bd 01b6 1bbc 0d9b e6bc 5bc9 babd
000003c0: d34e 12bc da00 2dbc d802 ae3c 8f1d ddbc
000003d0: 8929 243d 8ab9 713d 2e9f 783d 0f4b b0bd
000003e0: 7da7 683d cb28 23bc c502 a0bd cfb9 ebbc
000003f0: 03de 23bd 2cee 0abd 90c1 483e 1546 8f3d
0.101185426 0.035407435 -0.09123078 0.060961563 0.006287723 0.037921395 0.106757 0.05995084
-0.021301528 0.12167255 0.046853278 0.09149985 -0.0777688 0.07588807 0.06687728 0.13409139
0.10432518 0.033604734 -0.05762706 -0.066357724 0.10051099 -0.0074252393 0.08540069 0.055619612
0.0112626115 0.108590156 -0.03927203 0.056004155 -0.030682651 -0.00033825787 0.08511738 -0.0062078303
-0.04709749 0.05140321 0.13258189 -0.06563787 0.03267901 0.004525989 0.08763519 0.019203177
0.024080468 -0.008318643 -0.008935498 -0.06369648 0.011342382 -0.035421353 0.08708146 0.0155552905
-0.06638421 0.09563243 -0.090125926 -0.018154247 -0.0031174505 -0.012110656 0.044002414 0.07473686
-0.028284973 -0.052621722 -0.024732132 -0.10457814 -0.03723183 0.06649199 -0.09216933 -0.008822447
-0.10842288 0.034470264 -0.09458231 0.008346555 0.10503148 -0.076210506 -0.18300566 0.050815683
0.020372348 -0.0073240143 0.09150506 0.063398644 -0.029943869 -0.00292051 -0.060845852 -0.013463586
0.049985528 -0.08438896 -0.03502843 -0.0014881986 0.01986357 0.11106585 -0.0016284053 -0.035517517
0.008524629 -0.027026147 0.04178022 0.003857616 0.17545108 0.068516426 0.038284674 -0.05119558
-0.027806772 0.0040507535 0.049372885 -0.0099212285 -0.085557446 -0.037295796 0.053506095 -0.0024351159
-0.0077350466 -0.06334817 0.03497428 -0.042286977 0.07143772 -0.10572525 -0.05385574 0.06902365
-0.034619845 0.090613335 0.11418125 0.016875252 0.00711656 -0.051025964 -0.06299852 0.014275874
-0.08385084 -0.06811305 0.06259069 -0.08249347 -0.053991914 -0.0062546204 0.034002136 0.028163066
0.0034414567 0.05113763 -0.002861414 -0.04283994 -0.066515155 -0.06669565 0.048026312 -0.012802237
0.059327964 -0.086965404 0.014923913 0.05098174 0.04319059 -0.038556155 0.019867245 -0.07253896
0.07586536 -0.058328584 0.095167115 0.124572344 0.068975225 -0.047376756 0.046769336 0.00525309
0.020995006 -0.060628988 -0.114891686 0.010417779 -0.09999489 -0.0135201095 0.12368535 -0.12533814
-0.025258228 0.0633892 -0.011398459 -0.15737738 -0.025744943 -0.0605434 -0.0047574793 -0.032386407
-0.12345273 0.005053076 0.021057915 0.09666469 -0.02364679 -0.0060204663 -0.040803768 -0.010996654
-0.026497113 -0.06999789 0.030659603 0.045814566 -0.026272012 -0.056818593 -0.021006703 -0.06587177
-0.14808697 -0.0435696 0.025224501 -0.028321577 -0.001228432 -0.048573267 0.02705447 0.031143058
0.101649925 -0.08102843 0.050514184 0.0017351143 -0.04455612 0.044504024 0.0021517365 0.08428821
0.0013711153 0.040636778 0.06980876 -0.08978784 0.005703543 0.034640323 0.047351036 0.032959122
-0.0020693752 -0.020006571 0.017324354 -0.066444784 0.025677176 -0.06648943 -0.064224064 -0.017690597
-0.017956888 -0.120363995 -0.08421466 -0.03922607 0.056444045 -0.042894475 0.011639704 0.056517493
-0.039012652 -0.054452676 -0.111330874 0.04632712 0.09410776 -0.04083867 -0.003187115 0.07442544
0.033702012 -0.021638174 -0.018316627 -0.026082138 -0.09390833 -0.009503842 -0.028150106 -0.09120437
-0.008929926 -0.010559285 0.02124159 -0.026991634 0.040078674 0.059014834 0.06069868 -0.08608066
0.056800354 -0.009958456 -0.07813028 -0.028775124 -0.04000665 -0.033918545 0.19605088 0.06995789

network_body.vector_processors.0.normalizer.running_mean f4 [24]
00000000: 0000 0000 22dd a83d 0000 0000 c8c6 b93d
00000010: 0000 0000 4eb1 a13d 0000 0000 aab3 bd3d
00000020: 0000 0000 de48 9d3d 0000 0000 3d2e b53d
00000030: 0000 0000 03bd 9f3d 0000 0000 834f a53d
00000040: 0000 0000 844f a53d 0973 9d3e ad0c 0d3e
00000050: 8d57 adbd 9dae 0540 98b0 2c3e 0b9c 78bc
0.0 0.08245303 0.0 0.09071118 0.0 0.07895146 0.0 0.09262784
0.0 0.07679914 0.0 0.0884671 0.0 0.07799723 0.0 0.08071806
0.0 0.08071807 0.30751827 0.13774367 -0.084639646 2.0887825 0.1686424 -0.015173922
