results/2022_0313_1627/Fight/Fight-499953.onnx (onnx, 559045 bytes, 10 tensors)

65 f4 [24]
00000000: 515f b93a 50ed 003d 515f b93a 2527 193d
00000010: 515f b93a 3d1b 113d 515f b93a 50b3 193d
00000020: 515f b93a 5e62 183d 515f b93a a9cf 0b3d
00000030: 515f b93a d96b 103d 515f b93a 5815 053d
00000040: 515f b93a 5815 053d ae7b d53f 70f2 c53f
00000050: 6e3d e93f 75e5 123f 15e9 af3d fd01 ef3e
0.0014142786 0.03147632 0.0014142786 0.037390847 0.0014142786 0.035426367 0.0014142786 0.03752452
0.0014142786 0.037203185 0.0014142786 0.034133587 0.0014142786 0.0352591 0.0014142786 0.032491058
0.0014142786 0.032491058 1.6678369 1.5464611 1.8221872 0.57381374 0.08589379 0.46681204

action_model._discrete_distribution.branches.0.bias f4 [4]
00000000: 6330 d3bb 9521 40bc 4368 d23c 9344 e6bb
-0.006444977 -0.011726757 0.025684481 -0.0070272177

action_model._discrete_distribution.branches.0.weight f4 [4, 256]
00000000: 5904 1f3c 7895 973a 0b93 05bd 0d6e da3c
00000010: 9c10 553c 0dc9 e0ba 63a2 0f3c 50e7 0e3a
00000020: fa92 28bc e9c8 a73c 2b21 aa3b ed3c 513c
00000030: 6d79 5f3c cde9 a43b 39f0 ebbb bdd6 7e3c
00000040: d9e8 ec3b 5923 aabc 8a13 663c ab56 283c
00000050: fc45 8abc 0a8c 173c 486f aabc 6d0f 33bc
00000060: cf81 b9ba e3a6 193c ab30 79bc f7a8 bb3b
00000070: 1feb 6239 4b00 343c 5920 283b 3f1b 143a
00000080: 61a9 a23c c56b 0dba 2297 49bc 3528 203c
00000090: 0235 cbbc 512e d13c 9dea a93a b618 2abc
000000a0: 5b64 1d3c 345c 1cb9 236f 7e3c df37 1e3b
000000b0: c867 4bbb 62ae 8dbc 545b 5e3c db1c 083d
000000c0: fba1 553c bc68 fcbb d367 cfbb 6b28 5e3c
000000d0: 4107 443c ab40 4e3c 95fe 0e3c 6861 1c3c
000000e0: c566 863c e5ef eb3b f264 09bd f826 743c
000000f0: 2d6f 13bb 1e5a 43bc f91e 253c 9d59 0e3c
00000100: f7ff d93c d7d2 acbb 0bca 4f3c 326e 813c
00000110: bc5f 973b c042 9cbc cba1 053b 169b 8e3c
00000120: d846 9ebc 2a14 cd3c dcf8 5b3c e528 86bb
00000130: 5493 d13b 495f e23b 5c89 12bc 6599 bdbb
00000140: 613a 143b bc62 b4b9 71a6 6bbb 4718 50bb
00000150: 5dd8 71bb ad23 3cbc b098 b63c 432c 1e3c
00000160: f7c1 23bc 23f5 133c 95c8 35bc b07b 1dbc
00000170: 43ae 573b e320 fc3b 5a73 e8bc a505 893c
00000180: 5518 f03b 9563 0dbc 643f 18bc 3aad 813c
00000190: ad4d 6e3b b902 e93b 9e31 2e3c 7883 8d3b
000001a0: a67d 0c3c 2644 8f3c a4b3 0b3c c8e8 87bc
000001b0: 2cf8 e7bc bd8a fb3c c096 0f3c 6cca 7dbb
000001c0: d7b0 273c 2398 a9bb 6277 843b 5b72 db3c
000001d0: 99fa 3c3b f400 713c b427 d23c b436 523c
000001e0: 5ef9 e93b f844 033c fc0e c33b 1148 aa3b
000001f0: 022e 853b 2f98 05bc bbf6 91bb 7d06 b43c
00000200: 89c9 0c3c 189c e73a b8b7 f4bc eac5 873b
00000210: 6598 283c 12c6 0c3c 58d1 2bbc 231e 9e3c
00000220: 4cc8 9b3c f0fb 063c 1f3a 1b3c ce56 753b
00000230: 67e5 caba eceb d9bb 67fd 2ab9 3db5 863b
00000240: 4fb8 b13c 277b 6dbb 7be9 843c b7c1 27bb
00000250: 8eca 1a3c f96f 21bc 54ae 0d3c b08b 023b
00000260: 5859 94bc 0469 813c 7077 3c3c dede ae3c
00000270: ee69 ec39 31b7 89ba ea7a 84bb 5875 93bb
00000280: ec58 7e3c fab5 b43c f54d e53b 5c84 e63b
00000290: d2ae e8ba 156f 3a3b 67d8 d93c e699 3f3c
000002a0: 3454 d73c 003c 1fbb 6642 0f3c 195e 64bb
000002b0: a87b 5d3c f813 a13a 0ac7 423c 2912 ea3c
000002c0: e376 1a3c fbb8 713c 438f 35bc ff37 99bc
000002d0: 8cc5 15bc 8315 b4bc 4436 17bd 6f53 d63c
000002e0: 7459 953c aef8 c1bb 1ebf 453c 4196 e23b
000002f0: 1d1e 4b3c fcbb b5bb 7be8 c1bb 9e55 a63a
00000300: 6185 bd3c 9929 12bb 138e 823c 793c 153c
00000310: fbd3 eb3b cb69 09ba 4237 c33c 8696 60bc
00000320: 7a59 b0bb ea46 1fbd fc71 683c 1414 113c
00000330: 6a21 a3ba 98c0 f8ba 0df9 bb3b a60e f5b9
00000340: 0bb6 bb3c 69d9 cb39 0a20 5b3b 2d2d dfbb
00000350: 1ac0 9e3c 7a3e 1c3c f34c 01bc 5dd4 12bc
00000360: 78d7 ae3b 5782 e73a 3599 82ba 0d67 79bc
00000370: 8a8c a43b b13f 623b c115 97bb fead 8abc
00000380: 5e08 ca3b c386 9b3c c488 5e3b f615 6a3c
00000390: a1aa 543c ff7d cbbc 4881 8f3b 1916 85bb
000003a0: 3e92 593b e2a3 09bc 2360 dbba 6f28 9e3c
000003b0: 145c e8bc 03be c13a e83c b6bb e9ce e539
000003c0: 32a3 98bb 326b 4c3c 6f65 203c 97e6 11bc
000003d0: 8b82 df3b 107d 553c e8f6 3a3c c62d a6bb
000003e0: ffe6 303c bc6a 8fbc 24f3 6cbb 630a 9e3b
000003f0: be2b 2b3c 8875 32bc d672 503c 76ff 823a
0.009705626 0.0011564931 -0.032610934 0.026663804 0.013004448 -0.0017149762 0.008766743 0.00054513384
-0.010288948 0.020481544 0.005191942 0.0127708735 0.01363979 0.005032754 -0.0072002676 0.015554127
0.007229906 -0.020768808 0.014042744 0.0102745695 -0.016879074 0.0092496965 -0.020805016 -0.010928971
-0.0014153066 0.009378168 -0.015209357 0.0057269293 0.00021640629 0.010986398 0.0025654046 0.0005649812
0.019856157 -0.0005394782 -0.012304099 0.009775211 -0.02480555 0.02553478 0.0012963597 -0.010381868
0.009606446 -0.00014911668 0.015529427 0.0024142188 -0.00310372 -0.017295066 0.013571579 0.033230644
0.013039107 -0.007702915 -0.0063295155 0.013559441 0.01196462 0.01258866 0.008727689 0.009544708
0.016406426 0.0072002285 -0.033543535 0.014901869 -0.0022496686 -0.011923341 0.010078185 0.008688358
0.026611311 -0.0052741575 0.012682448 0.015799616 0.0046195667 -0.019074798 0.0020390626 0.017407935
-0.01932089 0.025034029 0.013426032 -0.0040942305 0.0063957367 0.0069083315 -0.008943882 -0.0057861083
0.0022617804 -0.00034405838 -0.003595736 -0.0031752752 -0.0036902644 -0.011483115 0.022289604 0.0096541075
-0.009994975 0.009030613 -0.011095186 -0.009612009 0.0032910265 0.00769435 -0.028375316 0.016726324
0.0073271194 -0.008629699 -0.009292457 0.015829671 0.0036362216 0.0071109203 0.010631947 0.004318651
0.008574879 0.01748855 0.008526716 -0.016590491 -0.02831658 0.030705804 0.008763969 -0.003872539
0.010235033 -0.005175607 0.004042552 0.026787927 0.0028835891 0.0147097 0.025653698 0.012830425
0.0071403226 0.008012049 0.005952714 0.0051965793 0.0040643224 -0.008153959 -0.0044544614 0.02197575
0.008592972 0.0017670421 -0.02987276 0.0041434662 0.01029024 0.0085921455 -0.010486923 0.01930148
0.019016407 0.0082387775 0.009474306 0.0037435773 -0.0015479744 -0.0066504385 -0.00016306863 0.0041109608
0.02169433 -0.0036236735 0.016224613 -0.002559764 0.009447707 -0.0098533565 0.00864752 0.0019919686
-0.018109009 0.015797146 0.0115030855 0.021346506 0.00045092352 -0.0010506866 -0.004042973 -0.0045000724
0.01552413 0.02205943 0.0069978186 0.0070348214 -0.0017752296 0.0028447558 0.026592446 0.011694407
0.026285268 -0.0024297237 0.008743858 -0.0034846126 0.0135182515 0.0012289276 0.011888275 0.028573113
0.009427759 0.014753575 -0.01108152 -0.018703459 -0.009141337 -0.021982914 -0.036916986 0.026162831
0.018231131 -0.0059195375 0.012069492 0.0069148843 0.012397316 -0.005546091 -0.0059176064 0.0012690311
0.02313489 -0.0022302626 0.015936887 0.009108656 0.007196901 -0.00052418996 0.02383006 -0.013707763
-0.00538176 -0.03888599 0.014187332 0.008854885 -0.0012445871 -0.0018978296 0.0057364763 -0.00046740955
0.022913953 0.0003888116 0.0033435845 -0.0068108053 0.01937871 0.00953638 -0.007891881 -0.008961764
0.0053357445 0.0017662746 -0.0009963872 -0.015222323 0.0050216364 0.0034522826 -0.0046107476 -0.016928669
0.006165548 0.018985158 0.003395603 0.014287462 0.012980134 -0.024840353 0.004379425 -0.004061472
0.003319874 -0.008400889 -0.0016737025 0.01930639 -0.028364219 0.0014781359 -0.00556146 0.00043832444
-0.0046581263 0.012476729 0.009789809 -0.008905075 0.006820982 0.0130303055 0.011411406 -0.0050713746
0.010797261 -0.01750695 -0.0036155665 0.0048230155 0.010447441 -0.010892279 0.0127226915 0.0009994346

network_body.linear_encoder.seq_layers.0.bias f4 [256]
00000000: cae1 c83b 0c7c 5a3c 4c4b ee3a 210c 77ba
00000010: 4141 d7bb 2c26 faba 0cbb ea3a 5fab 863c
00000020: 2516 80bb 7105 babc 135d 073d cd4e 8ebb
00000030: a26d 553b abcc c23c cdfb c5bb 60e8 d63c
00000040: ca3e b9bc 6dd8 efbb 3b37 953c 5e5e 91bc
00000050: 4271 f63b 3171 da3a c608 b73c 09ca de3a
00000060: cf92 a23c 0051 523c ae2f 67bc 53c8 7c3c
00000070: d9ee ff3c 4195 7bbc c751 233c 4a53 4fbb
00000080: 832c cb37 da12 103c 5c8a 093a 52bb a9bc
00000090: a274 40bc c4db 733a 1501 b93c a690 b43a
000000a0: 2a35 77bb b1d6 8f3c 70e8 8a3c 6754 023d
000000b0: 31d7 73ba f48f ef3b 444a 893a 203d 51bc
000000c0: 7a35 d03c f579 85bc d75d 81bc 1d53 493c
000000d0: dfd1 cabc d9f6 c73c 9e39 60bc 519a ab3c
000000e0: 0091 39ba e5c0 f1ba 2e14 893c ad19 00bb
000000f0: 41ab 83bb 5309 a53b 9386 b0bc ff2e b83c
00000100: 699f 293c 6ffe 8abc 290f d5bb a45b 5dbc
00000110: 6844 ee3b a8d0 793b 7d86 4f3c 0e24 b7bb
00000120: eb01 9fbc a12f 9d3b bcd1 843c 6889 4a3c
00000130: abb2 ad3b b789 cbba 66bf 9e3c 2531 9cbc
00000140: 9789 0cbd fa83 89bc 82ac 0d3d 677a 913c
00000150: 3e4e 46bc 261c 853a 9d7d 5c39 883d 0cbc
00000160: 482d b23b 4a71 823b 7cfc b73c a511 e5bc
00000170: e610 403c 3c9e 72bb c223 a63c 45de 3bbc
00000180: b035 a7bc 72df 8fbc b9fa 753c 2396 043c
00000190: 2caf 233d 4a39 9bba 20b4 d7ba 1583 ffba
000001a0: c767 c0bb 9d1a 21bb 1daa 50bb c19a 46bc
000001b0: d92e 313d bafb 97bc e3c1 afbc 95e6 4139
000001c0: 4653 453c d210 81bb ead5 acb9 f1ee 86bb
000001d0: ed90 2cbc 4308 edbb 03cb ba3c bd36 e23c
000001e0: 9338 01bc a41a b83c 8cb3 a6b9 42b9 4a3c
000001f0: 9702 51bb 63f8 013c 641c 5cbb b640 aabc
00000200: 438c 303b 9ff1 a23b ecbd f23c 188a 15bc
00000210: cc24 abbc 46c6 4b38 6053 743c 82ad a03c
00000220: 9bc7 423c 6c96 d43c 564d 833c e5b6 83bc
00000230: 38b1 7ebc e780 8abb 1eb2 8b3b 0202 093d
00000240: 6f3d 803c c12a 6cbc b93a b03c 6f19 44bb
00000250: a034 9cbc f702 293d 68b9 523c 5a12 d23c
00000260: 1473 f73c 1867 a2bb dc3f 44bc 2b98 ea3c
00000270: 14c7 363c 3a74 3f3b dcfb 17bc f3ca b13c
00000280: b48f 943b 040d b83a 8950 9aba 0bea fabb
00000290: 3c71 443c ab57 243b 1cff 90bb d1c1 5abc
000002a0: cd2f 2f3b 54a2 7b3b 5189 ddbc 83ae c6bc
000002b0: fcb8 8b3a 49d0 883c 0852 a3bb 5515 4fbb
000002c0: a294 32bc 0b09 9ebc fc9c cb3c 3e8c aebc
000002d0: 1e26 463c c674 94bc 6362 edbb 7251 e23c
000002e0: 68e5 75bc 95cc c83c 9562 92b9 95a0 d63c
000002f0: 6083 b03c 6224 023d f6ea 58bc 4780 60bb
00000300: f3da 5e3c 8042 b33a c1a9 ae3c 66e5 ed3c
00000310: 4a9f 7c3c 35cf 1fbc 46bd ef3b 798f fa3b
00000320: db24 1cbc 70bc 99ba 6b37 83bc 22a0 62bc
00000330: bf41 9abb a3b5 923b 5aea dbbb 0644 aabc
00000340: 4e0a c1bb bb4e a5bc 9989 463b 5975 f33c
00000350: 1a31 35bc 1fee 2bbb bd17 bd3c 5df7 d8bc
00000360: 2bc9 63bc f086 bd3c a9cd e3bb b1d7 8abc
00000370: caf0 73bc 5644 493b ac8a 71bc 364a e8bb
00000380: d65d d53c 9650 713b 3016 1f3c 6a8c 423c
00000390: 1eaa f13c 7d48 b33b 87f1 12bc 46af f2bb
000003a0: a3a7 4cbc e784 b73c 9c14 ecba 3f12 903c
000003b0: cd4c f4bb fd56 12bc 80e2 c9bb 9802 2939
000003c0: 16b1 483c b379 dc3a 3f75 323c 38e6 cd3b
000003d0: 6439 2e3c 1d9a e5bb 7805 f7ba acf8 2b3b
000003e0: 6b0d 063b f600 4dbc 9594 783c e1f4 c6bc
000003f0: c9e6 ac3c edc1 bc3c 1af5 0b3d 9176 283c
0.006130432 0.013335239 0.0018180399 -0.00094241096 -0.006569058 -0.0019084862 0.0017908528 0.016439138
-0.00390889 -0.022707673 0.033047747 -0.00434289 0.0032566567 0.023779234 -0.00604198 0.026233852
-0.022612948 -0.007319501 0.018214813 -0.017745193 0.0075208256 0.0016665814 0.02234305 0.0016997467
0.019845394 0.012836695 -0.014110489 0.01542862 0.031241821 -0.015355409 0.009968228 -0.0031635338
2.4220213e-05 0.008793557 0.00052467524 -0.020719204 -0.011746557 0.0009302462 0.022583524 0.0013776019
-0.0037720897 0.017558428 0.016956538 0.031818774 -0.00093017804 0.0073108617 0.0010474403 -0.012770921
0.025416125 -0.016293505 -0.015791817 0.012287882 -0.024758277 0.024409698 -0.013685612 0.020947607
-0.00070787966 -0.0018444328 0.016733255 -0.0019546554 -0.004018218 0.005036512 -0.021548545 0.022483347
0.010352948 -0.016967027 -0.0065020514 -0.013510618 0.0072713383 0.0038118754 0.012666342 -0.005589015
-0.019410094 0.0047969376 0.01621329 0.012361862 0.00530084 -0.0015528713 0.019378375 -0.019066403
-0.034310903 -0.016786564 0.034588344 0.017758561 -0.012103615 0.0010155484 0.0002102763 -0.008559592
0.005437527 0.0039807903 0.022459261 -0.027962515 0.011722779 -0.0037020585 0.020280723 -0.011466567
-0.020411342 -0.017562602 0.01501339 0.008092436 0.03996198 -0.0011842635 -0.001645688 -0.0019494022
-0.005871746 -0.0024582513 -0.0031839677 -0.012121857 0.043257568 -0.01855265 -0.021454757 0.00018491813
0.01204378 -0.0039387727 -0.00032965775 -0.0041178395 -0.0105326 -0.007233651 0.022801882 0.027613992
-0.0078870235 0.02247364 -0.0003179576 0.0123732705 -0.0031892413 0.007932755 -0.0033586258 -0.02078281
0.0026939071 0.004972651 0.029631577 -0.009127162 -0.02089157 4.8583628e-05 0.014912456 0.019613985
0.01188841 0.025950633 0.016028088 -0.016078422 -0.015545182 -0.004226792 0.0042631766 0.03344918
0.015654294 -0.01441449 0.021512376 -0.0029922386 -0.019068062 0.041262593 0.012861587 0.025643516
0.03020624 -0.0049561374 -0.011978116 0.028637012 0.011155862 0.0029213564 -0.009276357 0.021703219
0.0045337323 0.0014041965 -0.0011773269 -0.0076572946 0.011989888 0.0025076668 -0.0044249427 -0.0133518735
0.0026731372 0.0038396316 -0.027043017 -0.024253136 0.0010659988 0.01670088 -0.004984144 -0.0031598408
-0.010899695 -0.019291421 0.02485513 -0.021307107 0.012094049 -0.018122088 -0.0072443946 0.027626727
-0.015008308 0.024511615 -0.0002792074 0.026199618 0.02154702 0.03177298 -0.013239613 -0.0034256147
0.013602006 0.0013676435 0.02132118 0.02904005 0.015418837 -0.009753992 0.0073162643 0.007646498
-0.009530271 -0.0011729132 -0.016017636 -0.013832124 -0.0047075446 0.004477219 -0.0067112865 -0.02078439
-0.005891121 -0.020179143 0.0030294417 0.029719042 -0.01105907 -0.002623446 0.023082608 -0.02648514
-0.013902943 0.023135632 -0.006952007 -0.016948553 -0.014888952 0.0030710897 -0.014742535 -0.0070889248
0.026045721 0.0036821715 0.00970988 0.011874298 0.029500064 0.0054712878 -0.008968717 -0.007406148
-0.01249114 0.02240224 -0.0018011513 0.017586825 -0.0074554444 -0.008931872 -0.006161034 0.00016118062
0.012249252 0.0016820937 0.010892211 0.0062835477 0.0106338 -0.007006897 -0.0018846234 0.002624075
0.0020454775 -0.012512436 0.0151721435 -0.02428669 0.02110614 0.02304169 0.034169294 0.010282175

network_body.linear_encoder.seq_layers.0.weight f4 [256, 24]
00000000: 010c 0cbe 190f aabc fef9 67bc 635d 06be
00000010: ed68 1fbe 40c1 12bc 3b0c 2d3e 55e6 563e
00000020: 77cb fa3c 2cba ca3c b672 693c 1da1 c1bd
00000030: 8280 b43d dc27 83be 4175 043f 85a8 c83e
00000040: 2e3c 273e 9a8d f33c a294 e03e 469b 03bf
00000050: be3d b3be f5d2 e3bd 6408 423e 0951 2abe
00000060: 3e43 edbd 5ee8 453d 339c 373e cf9c c13e
00000070: 2d85 a6bd cf02 80be a770 1abe 3993 43be
00000080: 43f2 9dbd 617a be3e 2bc3 773e d228 623e
00000090: 32e6 b33e ce68 25bd bb20 5dbe 0fd1 9cbc
000000a0: 9923 38bd bfc0 093c 0b51 77be be5d 053e
000000b0: 0e04 e63c a0da d9bd 6c9d 793d 6ecc 0e3e
000000c0: ea48 133e 02e6 7e3e 8a8c 60be 26dc 03be
000000d0: 9257 4b3d 1553 893d c249 cd3d 1b0c 56be
000000e0: d94b ae3d bc02 16bd 1224 bfbe 8206 13bd
000000f0: 8e9d ec3d 871a b7bc e0a7 19bc d205 b6bd
00000100: 7e0d f23c 9a64 b0bb bf65 603e 2b46 0cbd
00000110: 30bf 873d ce89 2bbe 7772 bc3e 5267 b9bd
00000120: cf91 82be cb05 90be ae93 bc3e 35c1 2a3e
00000130: ed00 c9ba d81a 81bd ec91 243e 2c91 febe
00000140: f7e2 abbe e75d b0bc 9059 abbe 47b3 1fbe
00000150: cbea 8cbd 809d 663d dc63 b1bd 0aa1 fa3d
00000160: 20d4 363e 2567 5f3e ddc7 25bd 3d33 843b
00000170: e075 90be 9592 bcbe 37e6 823c f7eb 1a3e
00000180: 251f 51bc 0eb8 efbe 9861 e33d 3ef0 7fbe
00000190: 6091 ab3d e6d3 f2be 2b3d 9e3e b922 3bbe
000001a0: 1f28 fe3b 8b0e 633e 10d6 8abd 6a7d 2dbf
000001b0: 3829 803e a5a6 46bd b01e d4bd f3b3 87be
000001c0: e850 ea3d 0ebf 37bd a16b 193e 647f c1bd
000001d0: 5cef 2e3e c634 a4be 0e01 bfbd 54e1 42bd
000001e0: 1089 6fbd 75c9 043e 2ebd 0cbe 5fa7 b3be
000001f0: be4f 67be 0b0a f23c 2397 3c3d 2066 563e
00000200: 249a 143f 2eb2 39be 6472 74be 4869 cf3d
00000210: a2bf 703e 2d1d a3be 8306 3e3e bb69 523e
00000220: f2bb cabd b1fb a3bd c062 2ebd d58b 27bd
00000230: 688e dfbc 5cc3 54be 1cc2 733d c1b2 c73d
00000240: f566 f6bd dc55 5bbd a168 c6be f59d 413e
00000250: ee95 62bc f07a c93d 8975 673e 78ad 83be
00000260: 534d 6f3d 5242 76be bfb3 1f3e 0f82 6abd
00000270: 2c2d 573e 2ddf 40be 0870 6bbe 6da5 b43e
00000280: 028c 1ebe b52b f4bd ae5c 51be e841 cbbe
00000290: 4d80 0abe f837 813e 6281 27be ba09 603e
000002a0: 0518 9f3e 81d6 303e 90cf d0bd 7fb8 843d
000002b0: 6a26 0dbd ff24 a73e 7592 b53d d778 1dbe
000002c0: 5521 ecbc c0e7 a73e e1e8 08be aca2 943e
000002d0: afa2 193e e5eb 823e 1c47 253c 04d0 4a3e
000002e0: ae74 693d fcba c23e d294 4e3e c13d f8bc
000002f0: f5d8 983e fb50 d7bd c90a 6cbd 2575 063e
00000300: 0389 06be 79ed 02bd 2631 c83d 49e7 81bd
00000310: eac9 963e 033f 1b3e 049d 323d 8e94 53be
00000320: 56e0 a73e 759f 983d 132f 883c 99d3 33be
00000330: bdc8 143e 9e7d b2bc 782f fc3d eb81 fd3a
00000340: 97dd 103e 4816 803e 533d 47be ed83 27be
00000350: 2daa f7bd a6d1 803d dc71 043f eed4 883d
00000360: 68e5 253e 3c11 f73d 5892 793e 64bf a7bb
00000370: be48 c73e cb2b 883e 86cd 083e 0bf5 403e
00000380: c2da 3abe 3d7a 3c3d d92a d93e 8d67 3ebe
00000390: 774e bfbb 10f4 50be 50cf 623d 96d1 453e
000003a0: 1618 76bd 2f0c a8be c334 3abe ae7f 13be
000003b0: 9e32 963e 7905 8e3e f67d 083e 614d ab3d
000003c0: dd0f 3e3d 6fc4 d33e 99e2 993e 8eef 4fbc
000003d0: efed 923e c7e3 413d 1337 6dbe ae52 123d
000003e0: b07e 133e 0e64 033e e0a9 ddba 6b4e e4bd
000003f0: 3721 273c 58c7 293e 5838 e6bd a4f6 303d
-0.13676454 -0.020759152 -0.014158724 -0.13121562 -0.1556737 -0.008957207 0.16899197 0.20986302
0.030614598 0.024746977 0.014248541 -0.09454558 0.088135734 -0.25616348 0.51741415 0.3919107
0.1633155 0.029730607 0.43863398 -0.51408803 -0.35008043 -0.11124221 0.18948513 -0.16632475
-0.11585091 0.048317306 0.17930679 0.37814948 -0.0813087 -0.25002143 -0.15082036 -0.1909913
-0.077122234 0.37202743 0.24195544 0.22085884 0.35136563 -0.040383153 -0.21594517 -0.019142656
-0.044955824 0.008407771 -0.24152009 0.13024041 0.028078105 -0.106374025 0.060941145 0.13945171
0.14383283 0.24892429 -0.21928611 -0.12876949 0.04964406 0.067053 0.10023834 -0.20903055
0.085105605 -0.0366237 -0.37332207 -0.03589488 0.11553489 -0.022351516 -0.009378403 -0.08887829
0.02954745 -0.0053830864 0.21913813 -0.034246605 0.06628263 -0.16751787 0.3680608 -0.0905291
-0.25501868 -0.2812942 0.3683142 0.16675265 -0.0015335359 -0.06303948 0.1607129 -0.49720132
-0.33571598 -0.021529151 -0.33466768 -0.15595733 -0.06880721 0.056302547 -0.08661625 0.12237747
0.17854357 0.2181669 -0.040473808 0.0040344284 -0.2821493 -0.36830583 0.015978916 0.15129076
-0.012763773 -0.4682011 0.11102599 -0.24993989 0.083773375 -0.4742729 0.30906042 -0.18274964
0.0077562477 0.22173516 -0.067791104 -0.6776949 0.25031447 -0.04849877 -0.10357416 -0.26504478
0.11441213 -0.04485994 0.14982463 -0.09448126 0.17083496 -0.32071513 -0.09326373 -0.04757817
-0.058480322 0.12967475 -0.13744041 -0.35088632 -0.22589013 0.029545804 0.046042573 0.20937395
0.580477 -0.18134376 -0.23871762 0.10127503 0.23510602 -0.31858197 0.18557172 0.20548145
-0.09899129 -0.08006991 -0.042574644 -0.04090484 -0.027289584 -0.20777649 0.05951129 0.097508915
-0.12031356 -0.05354868 -0.387517 0.18907912 -0.013829691 0.098379016 0.2260343 -0.25718284
0.05842335 -0.24048737 0.15595911 -0.05725294 0.21013325 -0.18835135 -0.22991955 0.3528246
-0.15483096 -0.11922399 -0.2044551 -0.3969872 -0.13525505 0.25238013 -0.1635795 0.2187871
0.31073013 0.17269327 -0.101958394 0.06480502 -0.034460463 0.32645413 0.08865825 -0.15378128
-0.028824488 0.32794 -0.13370086 0.2903036 0.15003465 0.25570598 0.010087755 0.19805914
0.05699604 0.38033283 0.20173958 -0.030302884 0.29853025 -0.10513493 -0.057627473 0.13130625
-0.13138203 -0.031964753 0.09774999 -0.06342942 0.29450923 0.15160756 0.043606773 -0.20662138
0.32788342 0.07452289 0.01662401 -0.17561187 0.145297 -0.021788415 0.123137414 0.0019341087
0.1414703 0.25017 -0.19456987 -0.1635892 -0.12093005 0.06289987 0.51736236 0.06681238
0.16200793 0.12063834 0.24372232 -0.005119251 0.38922685 0.2659591 0.13359651 0.18843476
-0.18247512 0.046015013 0.42415503 -0.18594189 -0.005838211 -0.20405602 0.05537349 0.19318232
-0.060081564 -0.32821795 -0.1818419 -0.14404175 0.29335493 0.2773855 0.133293 0.08364368
0.046401847 0.41360804 0.30055693 -0.012691392 0.28697154 0.047336366 -0.2316554 0.03572338
0.14403796 0.12831137 -0.0016911589 -0.111477695 0.01020079 0.1657995 -0.112412155 0.043203965

network_body.linear_encoder.seq_layers.2.bias f4 [256]
00000000: 7365 72bc b915 73bb e4cb f13b c975 8bbc
00000010: 335c 893c b1c0 863c 5e4e c2bb 28f8 47bc
00000020: cd40 b43b b7c9 f1ba f78c 303c 2015 cdba
00000030: 394e 253c eec0 41bb 1c59 a3bc 873a 323b
00000040: a6f4 fd3b 0561 c63c a92c c63c c18a d13c
00000050: d585 083c 4145 fbbb 6df5 36bc 153a 603c
00000060: 831a d8bc 4b68 58ba 9a3f 463b 0b00 5cbc
00000070: f813 863c eccc 2dba f413 0cbc 891b f4bc
00000080: 8d31 c83c f128 bebc 0cee 83ba 21ef 483c
00000090: 54ea 843b fa77 5cbc 83c2 37bc f447 6c3c
000000a0: b7a1 dcbb 02fe a4ba c220 a43c 08e1 1dbb
000000b0: 84e5 ef3c 0bfd 2b3b f48a 87bc a94b 9a3a
000000c0: 7854 e3bc ce97 d0bb caba 18bc 79c9 21bb
000000d0: 5d83 12bc 4d79 92bc 6894 28bc d835 35bc
000000e0: f88b 4ebc d523 c73c fd5a aa3b fddb f63b
000000f0: 7d41 c43a c53a a8b9 8956 6d3c d254 81bb
00000100: cbfb aebc e540 3c3b 6014 eb3c 234d 9a3a
00000110: 283d 063c aafa 7ebc 1f28 72bb c455 d13b
00000120: 6874 b53b b6ea a2b9 6208 803a 72ee 4dbb
00000130: 45a3 ef3a 94c9 2bbc 5ca2 3ebc e7b2 3e3b
00000140: 67ec 0c3c 1d8d c43c f52c 28bc 4b7c 003b
00000150: e296 903c 7a7c 8abc dec0 9e3c c700 a83c
00000160: 26d1 02bc 0183 173b 0609 64bb 825a 8ebc
00000170: 70c9 c83b 213e 623c 7fdd bd3b 1f88 d939
00000180: 2a91 02bc 130e 1abc a29b f73a c236 9d3b
00000190: 4acc fcbb 15ed c23c b76a 843b b958 ff3a
000001a0: eedb c93c 933d 30bc 83db db3b b91b 57bc
000001b0: b9c2 b0bc d0b9 97bc 96e5 213c fbd6 82bc
000001c0: 2e4b 8bbc 66a2 033d 4917 193b 815e 11bc
000001d0: db4f b13b 1de3 e13b 8d07 ce3b cb30 aebb
000001e0: 844f f5ba 55b0 14bc 4d51 f33c da6f a53b
000001f0: 9b94 c83b 2c59 82bc 4b2d d9bb 4da2 cfbb
00000200: 05a6 763c 23c9 2dbc 313f 9bbb 8c2c 84bb
00000210: 1a46 3f3c 3988 b33c 08b0 8e3c 1d7a 093c
00000220: 8e8e 22bc d6ba 5c3c 81b7 383b 26d8 9bbb
00000230: a397 fa3c 2459 bb3b 9bfc 343b 2037 46bc
00000240: d56a 45bc f530 e93b 78ae 17bc 2f08 a4bc
00000250: c0eb 8bbc 8901 62bc 812f 2ebb cadc 8e3c
00000260: 8ea7 353c f391 c0ba e3a2 2a3c 1a2c 323c
00000270: e6bc 8a3c 1b0f e23b 6cd7 80bc 6bd0 173c
00000280: c7f8 22bc a5e5 08bc e801 213c 13f1 9dbc
00000290: 2928 8ebb 01b0 59bc 89a8 c5b9 31fb cc3c
000002a0: 6ad3 1abc b884 18bb eed9 d2ba 52fc 88bc
000002b0: 009f 5c3c 14cd e23b 6ca7 5abc c30c c6bc
000002c0: f11f 823c 4250 c83c fd11 be3c f482 663a
000002d0: d900 ed39 4ca8 cc3a 3f55 4dbc 684e 943c
000002e0: 13da d23a c272 c83c 8f77 9bbc 86ef 07bc
000002f0: 6ce7 653c 2606 e83b 6a0e 69bc 25cf 463c
00000300: 5609 c23b 4619 bcbb 38bd a8bc 1a27 6ebc
00000310: bc62 0f3c 4800 cebc e7dd 0abc 25ff 203c
00000320: 3dec 1c3d 5c8c c2bc 2984 95bc b4db 6ebc
00000330: 1cf3 903c b188 533c 63a3 173a c5e3 be3c
00000340: 039f d13b 86ef 9ebc 5e18 0a3c dcfa f73b
00000350: aa6d 30bc 3f86 e33b 969e ae3c 19ef 403c
00000360: 9513 cebb 214e 2bbc cdfd fc3b c85a b1bb
00000370: 2d9d ae3c c552 2b3b ad27 863b e0c6 82bc
00000380: 07f1 0cbc 1369 223c f124 c4bc 6830 ab3c
00000390: e86b e53b 9a1f a6bc 786b 83bc 0791 26bc
000003a0: eaa6 bebb 1aaf 703c a84b 933c df30 833c
000003b0: d6c3 ea3c 01db 143c af82 90bc d7ac 023c
000003c0: 77d9 a0bb 7816 10bc 5bbf 02bc 077c 81bb
000003d0: db2a 8e3c ce72 39bb 34ab 933c 20d5 70bc
000003e0: 3071 403c 57cd 21bb 6c56 873c 3067 43ba
000003f0: 9f7f 6abc f0d3 a33c 2367 53bc 0b45 87bb
-0.014794695 -0.0037091805 0.007379042 -0.017023938 0.016767597 0.016449304 -0.0059297523 -0.012205161
0.005500889 -0.0018446957 0.010775796 -0.0015646555 0.0100894505 -0.0029564458 -0.019939952 0.002719553
0.0077501116 0.024216184 0.024191217 0.025578858 0.008332689 -0.007668168 -0.0111669125 0.013685723
-0.02637983 -0.0008255287 0.0030250312 -0.013427745 0.016366944 -0.0006629962 -0.008549679 -0.029798286
0.02443769 -0.023212882 -0.001006545 0.012264044 0.0040562544 -0.013456339 -0.011215809 0.014421452
-0.006733145 -0.0012587907 0.020035151 -0.0024090428 0.029284246 0.0026243355 -0.01654575 0.0011771816
-0.027750239 -0.006365753 -0.009321878 -0.0024686737 -0.008942452 -0.017880106 -0.010289289 -0.011060201
-0.012606613 0.024309078 0.005198835 0.007533549 0.001497313 -0.00032087244 0.014485964 -0.003946879
-0.021360299 0.0028725204 0.028696239 0.0011772256 0.008193292 -0.015562693 -0.0036950184 0.006388398
0.0055375583 -0.0003107392 0.0009768123 -0.0031422642 0.0018282911 -0.010485072 -0.011635389 0.0029098333
0.008601285 0.02399307 -0.010264625 0.0019605334 0.017650072 -0.016905058 0.019379076 0.020508183
-0.007984435 0.0023118856 -0.0034795417 -0.017377142 0.006127529 0.013808758 0.0057942267 0.00041490883
-0.00796918 -0.00940277 0.0018890987 0.0047977874 -0.007714783 0.02379469 0.0040410417 0.0019481397
0.024641003 -0.010756868 0.0067095174 -0.013129168 -0.021577226 -0.01852122 0.009881398 -0.015971651
-0.017003622 0.032137297 0.0023359826 -0.008872629 0.005411131 0.006893529 0.006287521 -0.005315875
-0.0018715714 -0.009075244 0.029701853 0.005048734 0.006121231 -0.015911661 -0.006627714 -0.0063364864
0.015054231 -0.010607037 -0.0047377576 -0.0040336307 0.011674428 0.021915542 0.017417923 0.0083909305
-0.009921683 0.0134722795 0.0028185549 -0.0047559915 0.030589884 0.0057174135 0.0027616385 -0.012098104
-0.0120493965 0.007116432 -0.009257905 -0.020023433 -0.017080188 -0.013794311 -0.0026578608 0.017439265
0.011087311 -0.0014691934 0.010414812 0.010874772 0.016935777 0.0068987734 -0.015727721 0.009265999
-0.009947008 -0.008355533 0.009827115 -0.019279992 -0.0043382836 -0.0132865915 -0.00037700337 0.025022121
-0.009449819 -0.0023272466 -0.0016086677 -0.016721878 0.013465643 0.00692142 -0.013345581 -0.024176007
0.015884371 0.024452332 0.023201937 0.0008793317 0.00045204794 0.0015614121 -0.012532531 0.018103793
0.001608672 0.024468783 -0.018977908 -0.008296853 0.014032226 0.007080811 -0.014224628 0.012134348
0.005921523 -0.0057403175 -0.020598039 -0.01453569 0.008751567 -0.025146618 -0.008475757 0.009826456
0.038311232 -0.02374857 -0.018251495 -0.0145787485 0.017694049 0.012911008 0.00057845394 0.023301968
0.0063971295 -0.019401323 0.008428661 0.0075677466 -0.010768333 0.0069434936 0.021315854 0.011775755
-0.0062889555 -0.010455639 0.007720685 -0.0054124333 0.021315182 0.0026141864 0.004094085 -0.015963972
-0.008602387 0.009912747 -0.023943396 0.020897105 0.007001389 -0.02027874 -0.016042456 -0.010166413
-0.0058182376 0.014690185 0.017980412 0.016014514 0.028657835 0.009085418 -0.01764044 0.007975779
-0.0049087363 -0.0087944195 -0.007980193 -0.003951553 0.01735442 -0.0028297189 0.018025972 -0.01469925
0.011745736 -0.0024689042 0.016520701 -0.0007454036 -0.014312654 0.01999852 -0.012903008 -0.0041281036

network_body.linear_encoder.seq_layers.2.weight f4 [256, 256]
00000000: 7036 85bd 06c3 0ebd 79a4 c43c 7ad8 3a3d
00000010: d137 2ebd abb6 b33c 56c2 69bd 0df7 9d3d
00000020: 5934 06be c557 d13b 6b96 57be 3b0d 453d
00000030: 9099 0abd 2cf1 83bd 8ce3 4fbd 6f97 c6bd
00000040: 684b 0fbe ac4d ac3c b16a cdbd 4f50 51bd
00000050: 3da5 66bb 4aa9 bfbd 6786 67bd e08d 863b
00000060: 35d5 d6bd 2cfb 69bd ebf0 96bb 4ab4 6bbd
00000070: 1e68 893d 843c a7bd 7a3b 8ebd 86c6 c8bd
00000080: 1ae7 773d 7052 ec3d c72e c43d efb8 4abd
00000090: cbfb 2a3d de2e f4bc ae2d 47bc ed2a cfbc
000000a0: 9880 9cbb 6d7f 973b 0aa7 943d 4a44 763c
000000b0: 0585 9d3d 4aca 71bd fd20 bdbd a3b6 e53c
000000c0: 2d91 03be e643 40bd d5f6 a73d a0e1 b23c
000000d0: de19 7fbc 0142 a3ba f39a 573d 70a5 91bd
000000e0: 4b4d afbc 76e2 bd3d c909 603d 7f89 2dbd
000000f0: 27f8 4abd 4547 d1bc df1a 363e c56a 63bd
00000100: 16e1 353d e1a9 0bbe c03a b1bc f8fc cdba
00000110: 42fb 08bc 4fb8 abbd bc25 5e3d d5b5 b73c
00000120: 8220 4d3c c9a7 c3bd 2e84 8eba 8393 1ebd
00000130: 235c 973c 193e b23c aeb6 9ebd f7e2 9ebc
00000140: f9b9 a23c 5ef4 f73b c7c2 bb3d 190d d03c
00000150: 9201 fb3b 420f c83d 7278 163d 8cf7 cd3b
00000160: 43c9 d3bc 6c1b e63d d733 b33d bee5 5bbd
00000170: 97b2 c43d 2b07 f9bb 89e6 35bc 11f7 273d
00000180: bdef 9f3c c248 d0bc a8b5 3e3c dc83 193d
00000190: 1d0b 29bd 3e26 56bd 72b2 30bd 0a68 b9bd
000001a0: 0886 8abd 28d0 20bd 9017 b73c 086b 95ba
000001b0: 757e afbd d5e2 f23d 4854 a3bc 6a7c 923d
000001c0: 755a 34bd f68e 953d 9cf4 933c 1599 b3bd
000001d0: 8716 22bd 4802 8dbb 3b30 a13d f432 ee3b
000001e0: bc22 4ebc f1c6 973d d2b4 1c3d ba04 e6bc
000001f0: eff1 0d3d 1c42 c43d f003 02bb 1d9e 033e
00000200: 097b 44ba 0230 a63c c85e b3bc 3cf7 d9bd
00000210: 130f 7d3c 9b26 20bd 3fda a1bd dc82 ca3d
00000220: c884 4e3d 1130 3abd 2bbd cfbc cc7d 4cbd
00000230: b073 e8bd c54d ce3c 3072 57bd 772f 1fbc
00000240: 639f 7e3d cf96 5dba ac3d 5f3d 50e3 d03d
00000250: 54bc 543d 0520 51bc 6713 1ebe 8349 663d
00000260: 9927 e4bb f678 653d 6cd8 433d 7488 78bd
00000270: 7e91 133a 3ad4 9dbd 8799 b23d b132 0b3d
00000280: 386f 9f3d e1fb 8bbd 7520 bd3a 5f3b c3bc
00000290: 0665 85bb a231 f03b cea2 e43c 13d5 d63c
000002a0: 729e 16ba dc05 cb3d 9ee9 ad3d 0f3a b6bd
000002b0: 0cd3 4ebc b005 0dbe a434 b73b 0d1f 5e3c
000002c0: aca2 33bd 0789 a93c 26be 363c dd52 013e
000002d0: 332e abbd 2e7d 0e3b 3b1e ed3d ba99 6abd
000002e0: 4694 e7bd efa6 603d 53c3 213d 50e7 9f3d
000002f0: c6b2 9c3d b39f a5bd 48b4 80bd 42eb aa3d
00000300: 6906 c9bd a2a4 5e3d 35eb b9bc c3c9 59bd
00000310: 8e21 093e 4530 b53d 38ba f63b 6322 99bc
00000320: 26a1 64bd 4aa1 933d 8590 a33d c3a7 f83c
00000330: 6eee b03d f3ef 24bc 8166 dc3a 94f1 dd3d
00000340: 660b 96bd 2296 663b 5273 463b a38b 123d
00000350: 14df 14bc d77b 843d 64fd e8bd f7bc 0dbd
00000360: 8a32 a13d 27e4 1fbc 2cf3 44bd 6ada 923b
00000370: 2b02 293b 0f3f cdbc 1288 7d3d 57e8 26be
00000380: fcad d5bb 61be 53bd 3f33 99bc 1fd9 73bd
00000390: 350a 4cbc 2ae2 a43b 09b7 19bd 6a15 293d
000003a0: c641 a5bc 82f6 403d 156b 9d3b fd32 1ebd
000003b0: 48fd 723c 8842 d93d 10d5 2d3d 079b d83c
000003c0: cb56 a03d 9565 23bb fefb 36bd 4778 34bc
000003d0: 9108 bebd d0bb 213d c81a e83d 648e 4d39
000003e0: 9381 b6bd 1355 0d3e 113f ab3b 620e 913d
000003f0: 006a a33d 9bfa 67ba 4d92 0ebd be5f 4dbd
-0.06504524 -0.034853958 0.024004208 0.045616604 -0.0425337 0.021937689 -0.0570701 0.07713137
-0.13105907 0.006388637 -0.21053474 0.04810832 -0.033837855 -0.06442484 -0.050754115 -0.096968524
-0.13993609 0.02103313 -0.100301154 -0.05110198 -0.0035193705 -0.09358461 -0.05652466 0.0041062683
-0.10489885 -0.0571243 -0.0046063564 -0.057544984 0.06709312 -0.08165839 -0.06944938 -0.0980349
0.06052313 0.11539161 0.095792346 -0.049492773 0.041744035 -0.029807504 -0.012156887 -0.025289023
-0.0047760718 0.0046233446 0.07258423 0.01503093 0.07691387 -0.05903081 -0.09234808 0.02804119
-0.12848349 -0.046939753 0.08201376 0.021836102 -0.015570132 -0.0012455584 0.052638005 -0.07111633
-0.02139916 0.092717096 0.05469683 -0.042367455 -0.049553063 -0.02554668 0.17783688 -0.055521745
0.04440411 -0.13639022 -0.02163446 -0.0015715649 -0.008360686 -0.083847634 0.054235205 0.022425571
0.0125199575 -0.09553487 -0.0010873133 -0.038714897 0.018476551 0.021758126 -0.07749687 -0.019395335
0.01986407 0.0075669726 0.0916801 0.02539687 0.0076600993 0.09768535 0.03673596 0.0062856134
-0.025852805 0.11235699 0.08750122 -0.053685896 0.09604376 -0.0075997314 -0.011102327 0.041007105
0.019523496 -0.025425319 0.01163999 0.037479267 -0.041270364 -0.052282564 -0.04313893 -0.09053047
-0.06763846 -0.039261013 0.022350103 -0.0011399696 -0.08569042 0.11859671 -0.01993765 0.07152636
-0.04403158 0.07302658 0.018060975 -0.087694325 -0.039572265 -0.0043032505 0.07870527 0.0072692577
-0.0125815235 0.07410992 0.03825838 -0.028078426 0.034654554 0.09582922 -0.0019838773 0.12853284
-0.00074951403 0.020286564 -0.021895781 -0.10642859 0.0154454885 -0.039099317 -0.07902955 0.09888241
0.0504196 -0.045455996 -0.025358757 -0.049924657 -0.11350191 0.025183568 -0.052599132 -0.009715906
0.06216372 -0.0008452953 0.054502174 0.101996064 0.051937416 -0.012763982 -0.15437089 0.05622245
-0.006962728 0.05602356 0.047813818 -0.060677007 0.0005629285 -0.07706495 0.08720689 0.03398389
0.07784885 -0.068351515 0.0014429229 -0.023832021 -0.004070881 0.0073301354 0.027909663 0.026224649
-0.0005745656 0.09913227 0.084918246 -0.088977925 -0.01262356 -0.13771701 0.005590992 0.013557208
-0.043856308 0.020695223 0.011153733 0.12629266 -0.08358421 0.0021742093 0.11578032 -0.05727551
-0.11307578 0.0548467 0.039492916 0.07807791 0.07651286 -0.08087101 -0.06284386 0.08345653
-0.09815676 0.054356225 -0.022695163 -0.05317093 0.13391706 0.08847097 0.007529523 -0.018693155
-0.055817746 0.07208498 0.07986549 0.030353433 0.08639227 -0.010066974 0.0016815217 0.10837093
-0.07326393 0.00351847 0.0030281139 0.0357777 -0.009086389 0.06468933 -0.113764554 -0.03460404
0.07870968 -0.009758986 -0.04808347 0.0044816034 0.0025788646 -0.025054483 0.061897345 -0.16299568
-0.0065209847 -0.05169523 -0.018701194 -0.059533235 -0.012453605 0.0050318437 -0.03752807 0.041280188
-0.020172965 0.04711009 0.004804025 -0.038622845 0.014830895 0.10608393 0.04243952 0.02644111
0.078290544 -0.0024932374 -0.044673912 -0.0110150045 -0.09278978 0.039485753 0.11333233 0.00019603368
-0.08911433 0.13801984 0.005226024 0.070828214 0.07979202 -0.0008849294 -0.034807492 -0.050140135

network_body.linear_encoder.seq_layers.4.bias f4 [256]
00000000: 71b6 22bc 6ea0 653b 7af8 fb3c 5c91 ea3b
00000010: fbd2 88bc 636f f73b 38a0 ef3b 9f5b a43c
00000020: c151 b73c 3b52 1cbc d358 e0bc 1947 e93a
00000030: 244f 113c c906 f43b 35f0 a43c a712 743c
00000040: 2200 9eba 21db 463c 1f0a 9fbc 4763 6fbb
00000050: fbe6 953b 4fd8 6bbb 1f16 663c d7bf 903c
00000060: 21b9 68bc 4aec 80bb 1e59 37ba 5e58 063c
00000070: 02c2 bb3a 8db8 fc3b 95a0 e2bb a5b1 0d3a
00000080: 63d1 423c 73a2 92bc 3653 923c 0a37 8bbc
00000090: 6b10 823c bf9f bfbc 2ade 1c3c c048 013c
000000a0: 24ef 7abc 79c7 a83c 6ece 43bb 1b7f 16bc
000000b0: d728 083d e567 523c 30c3 a63b a5ff a2bb
000000c0: af1e 88bc ce28 473c 755b c73b 3bac 31bc
000000d0: 2d54 9cbb 151b c53b eea2 cfbb 4dca 7cbc
000000e0: 1d13 a3bc 0a75 0ebc 9af7 c03c 24cd 86bc
000000f0: 624d d23c ab65 d73b 73ac 86ba d2f1 503c
00000100: e02c 8ebc 6cc6 bbbc 24c9 bdbc d0a3 21bc
00000110: 9059 33bc 0e84 653c 453d a1bc e3c8 a43c
00000120: 9f80 583b 4266 b7bb 5504 0fbc d678 98bb
00000130: 3824 9b3b 6c9f 0dbc e658 f9ba 7ea4 df3b
00000140: 7045 be3b 9feb 493c 1369 3bba e0f7 353b
00000150: 9d05 acbc 4a50 28bc b811 a0bc 3f85 a1bc
00000160: 3d1b 203c 2f64 213c 6413 ffb6 acf4 8cba
00000170: 72e0 6dbc 3b86 dabb 605e 863c abb6 13bc
00000180: 183e 9f3c 6631 113c 006a 55bc 06e7 4a3c
00000190: 4e2a d3bc 55b2 a8ba da9f 0f3c 7a4b f83b
000001a0: 57d1 a1bc 2cde 463b 701c f8bb 9cec 9f3c
000001b0: 889b aebb 9a06 83bb ec8d 8a3c 170c ce3b
000001c0: ab67 2bbb 88cb 56bb 3a8f 79bc cd7c 8dbc
000001d0: 5bc4 9abc a0de 59bb 515c 99bc 71ba 0abc
000001e0: 3daf 983c 2ab6 aabc 6b0e 263a 1bbb 943b
000001f0: 1727 673c d565 9f3a acf7 3abc a230 47bc
00000200: 4e21 bfbc 45d0 8ebb 7de8 d43b 03b0 22bb
00000210: 6de2 e4bc 8609 2d3c 9c74 f63b b549 dabc
00000220: cf84 803c b9d8 6dba f68b 8abc 38be cc3c
00000230: af3e b4bc 8ad0 d03a b3dd c93b eede 99bc
00000240: b70f e1ba d412 8f3b 9580 283c 93ac 513c
00000250: 52a1 70bb 5400 903b cac4 603c 2c2a 88bc
00000260: f1b5 563c 1d61 8ebc e91f 6bbc 5154 033c
00000270: 0c64 9239 df17 2ebc 7465 c1bc 570b c5bb
00000280: 8cf5 ccbc a998 29bc 1b32 58bc 9687 3a3c
00000290: 6942 5cbc df72 a53c e2da 26bc 1b24 1ebb
000002a0: 3b9b f63b a21b c7bb 46dd a03b 11c8 7d3c
000002b0: c0a4 553a 9144 573c 0b54 29bc 3720 f5ba
000002c0: c934 7dbc 1e52 983b 2458 a03b 85fe 393c
000002d0: 6b15 30ba dfdf 5f3c 802a 153c 0a66 533c
000002e0: 1383 79bc 4c3d 243c 27c3 bbbc 0fd5 d43c
000002f0: 54e2 8ebc 0a20 4f3b 9415 8bbc 4dec 623a
00000300: 08ae fd3b d427 993c 00a8 bbbc 94f4 483c
00000310: 2b7c c0bc 83d8 cf3c 036d 22ba a392 00ba
00000320: 7ff3 903c 9492 c93c 270e 573c acbd 05bc
00000330: 33c9 cfba 5cea 433c ca77 a6bc fafd 32bc
00000340: 3906 b4bc ef0c 8fbb 9138 12bc fcc6 403c
00000350: 965b 35bc 034e e43a 3109 5c3c f622 b13c
00000360: e624 37bc 98b8 063c 79c7 3c3c 01fb cf3c
00000370: 6b97 c93b 8c0f a1ba 9d0c 9a3c ee27 b03c
00000380: 06ae ba3c 7502 3a3c 7e53 bfbb 2f6c 753b
00000390: 89d2 da3c 9213 b53c 6da8 a13c 2e92 a73a
000003a0: a412 653c 9cd6 9e3b 6b08 ac3c 5377 8bbb
000003b0: e3dd 9bbb ce53 303c e867 f13b c0fa cdba
000003c0: 7161 06ba 5e53 1b3c ae1e a7bb c6c3 ceba
000003d0: 7a85 a1bb 70c8 1d3c 3140 15bc cc98 ef3a
000003e0: b549 603c 81fb ab3c fa37 b83c 7b0f a13c
000003f0: 0ef7 76bc 3d85 973c 6175 d2bc 4b2e 933b
-0.009931193 0.003503825 0.030758131 0.0071584415 -0.016702166 0.00755112 0.0073128007 0.02006322
0.02237785 -0.00954109 -0.027386105 0.0017797678 0.008868966 0.007447098 0.02013407 0.014897025
-0.0012054483 0.012137205 -0.019414006 -0.003652768 0.004574654 -0.0035987084 0.01404336 0.017669601
-0.014204294 -0.003934418 -0.00069941755 0.008199779 0.0014324787 0.00771243 -0.0069161155 0.0005405194
0.011890742 -0.017899727 0.017861944 -0.016994018 0.01587697 -0.023391603 0.009574452 0.00789088
-0.015315805 0.020602928 -0.002987768 -0.009185578 0.033242073 0.012842153 0.005089186 -0.004974323
-0.016616194 0.012155725 0.0060839006 -0.010844286 -0.0047707767 0.0060151913 -0.0063365614 -0.015429092
-0.019906575 -0.0086948965 0.023555566 -0.01645524 0.025671665 0.006573399 -0.0010274783 0.012752967
-0.017355382 -0.022921763 -0.0231672 -0.009865716 -0.010946646 0.014008535 -0.019682536 0.020115322
0.0033035649 -0.005596907 -0.00872906 -0.0046530766 0.004734542 -0.008643966 -0.0019023686 0.006825029
0.0058066174 0.012324243 -0.0007149141 0.0027766153 -0.02099877 -0.010273049 -0.019539699 -0.019716857
0.009772119 0.009850546 -7.6018496e-06 -0.001075407 -0.014518844 -0.0066688336 0.016402423 -0.009015719
0.019438788 0.008861875 -0.013025761 0.012384182 -0.025777008 -0.001287053 0.008766139 0.007577357
-0.019753141 0.0030344827 -0.0075717494 0.019522004 -0.0053285994 -0.0039985897 0.016913377 0.0062880623
-0.002615432 -0.0032775123 -0.015231902 -0.017271424 -0.018892458 -0.0033244267 -0.018720778 -0.008467303
0.018638248 -0.020838816 0.0006334546 0.0045389063 0.014108441 0.0012161086 -0.011411589 -0.012157591
-0.02333131 -0.0043583238 0.0064974413 -0.002482415 -0.02794 0.010561353 0.007521225 -0.026646474
0.015688328 -0.0009073127 -0.016912442 0.024993047 -0.022002546 0.001593129 0.006160462 -0.018783059
-0.0017170821 0.004366258 0.010284563 0.012797493 -0.0036717248 0.0043945704 0.013718793 -0.016621672
0.013104902 -0.017380292 -0.01435087 0.008015708 0.0002792183 -0.0106258085 -0.023607947 -0.0060133147
-0.02501943 -0.010351338 -0.01319554 0.011384865 -0.013443568 0.020196376 -0.010184022 -0.0024130407
0.007525829 -0.006076292 0.0049091903 0.015489594 0.0008149855 0.013138906 -0.010334979 -0.0018701617
-0.0154544795 0.004648461 0.0048933197 0.011352186 -0.0006717059 0.013664215 0.009104371 0.012902746
-0.015229004 0.01002438 -0.022920204 0.0259805 -0.017441906 0.003160479 -0.016978063 0.00086564274
0.0077416934 0.01869575 -0.022907257 0.012265343 -0.023496708 0.025371796 -0.00061960536 -0.0004904663
0.017694233 0.024606027 0.013125933 -0.008162897 -0.0015852809 0.011957731 -0.020320792 -0.010924811
-0.021975623 -0.0043655555 -0.008924619 0.011766192 -0.011069199 0.0017418269 0.013429926 0.021623116
-0.011178231 0.0082227215 0.011522167 0.025388243 0.0061520836 -0.0012287959 0.018804843 0.021503415
0.022788059 0.011353125 -0.0058388105 0.0037448516 0.02671172 0.022104058 0.019733632 0.0012784654
0.013981495 0.004847361 0.021000108 -0.004256168 -0.0047566756 0.010762168 0.007367123 -0.0015714988
-0.0005126214 0.0094803255 -0.005100093 -0.0015774898 -0.0049292417 0.009630308 -0.009109543 0.001827979
0.013689448 0.02099395 0.02248763 0.019660702 -0.015073551 0.01849615 -0.025690736 0.0044916025

network_body.linear_encoder.seq_layers.4.weight f4 [256, 256]
00000000: 77e2 c23d bd1a 323d e774 b0bd 8afd 873d
00000010: 3d40 4eba 561a 1a3d aa99 f03d 7dd8 703d
00000020: fd3a 98bc d4dc 003e 9b87 473d bc0b b03d
00000030: 8cf7 97bd cabd 983d de5b a03d 80d4 fe3d
00000040: c33f e43d 6c6c 113d 3876 72bd 83e3 80bd
00000050: 409d c23d e6ad 81bc ec6f bb3d ec3a 683d
00000060: aad9 2d3c 2e68 e93d bfd4 32bd 6aec 783d
00000070: a411 0bbd 9792 a6bb 1977 b43d 8027 fcba
00000080: 03d4 41bd a7b7 313d dfd5 083e feaa 8cbd
00000090: c06a 093d 36c9 cb3b a93b bf3d f8a8 583c
000000a0: e7c2 4a3c 32c7 4cbc 6feb 46bc 0b96 8cbd
000000b0: c742 cb3b 0fac 14bd 3917 a73d 4869 b83c
000000c0: 4780 7dbd 399f c53d 7402 b0bd e024 87bc
000000d0: 1f38 24ba 1ed0 43bc ee08 433d b1cb 843d
000000e0: 7ee9 abbc c9b8 7fbd 2a31 00bd 3578 dbbd
000000f0: 2340 e5bc 3966 8e3d 1851 cabd b925 64bc
00000100: 6152 cfbd 66a5 1e3d e4ce bbbd 947e 083c
00000110: 5e21 d23d 9c9b 9abd a5cf 36be c53e 583d
00000120: 7a5b 923c 4141 1abc 594d bd3d 2385 7b3d
00000130: 47fa 00bd dd40 ad3b de5d 64bd 5b74 dcbc
00000140: 682d 5e3d 2633 b8bd 0ab5 00bd 6dd9 8bbb
00000150: ec8d c93c c3de d63d de94 7fbb a030 11bd
00000160: e272 113c 1e80 8ebc 8d17 413d 0240 6a3c
00000170: a830 3b3e 6ea9 6a3d 47ce d33c 481a 55bd
00000180: ffe4 cdbc 6273 153c dfb7 133d b0d2 09bb
00000190: 5b02 a7bd d94b 2cbd c440 583d 334a a8bb
000001a0: 7c03 433b 0a7d 71bd 0c71 343d e3c2 12bd
000001b0: 7148 ad3d 738a eebd e43d 74bd d427 a03d
000001c0: d92d fbbc 8913 c43d 7f8a 003e f0af 9d3c
000001d0: cefe 81bb 7282 5cbd 2293 83bd 8f5e 893c
000001e0: 3809 b4bd b2c1 6fbd e0d4 513d ff8f a3bd
000001f0: 0913 60bd 8657 31bc 14c7 cf3c 6830 113d
00000200: 33fb 023c 4bab 6b3d d6ed 463b b1c1 13bd
00000210: 2c9c 79bd 090b a7bd 3144 1c3d 55da 15bc
00000220: 71df 863d 5781 a6bd da4e 193c c21a 243d
00000230: 346d 4d3d 2bb6 1bbd 9e76 813c 70c3 88bd
00000240: c394 aa3d e717 66bd adc3 c73d 810c f63d
00000250: 856f 9d3d 783a 4fbd 5304 3c3d 391f 553b
00000260: 9ceb 9c3c a6a9 94bd 60cc e7bd 82ae 0d3c
00000270: ac12 dcbd 3545 cbbc ebd4 013e 1ba8 fcbd
00000280: 7030 85bc 3149 973d 5262 90bc 689e 1dbe
00000290: a1b7 c0bc 17ad 84bd cb28 a0bb 5024 f8bc
000002a0: 3608 eabd 2ae8 cd3b 411c be3c c49e cd3d
000002b0: 88ef ebbc c4c0 083a eefc 49bd 0655 06bc
000002c0: e2b2 a7bc 0c14 a7bd cd2a f33c 259f 633d
000002d0: 9149 90bc 0b87 5abd 7502 95bc 2106 84bd
000002e0: b62b 12be d32b 50bd 258c f33c 2040 c2bc
000002f0: 3485 453b ce53 4bbd 28c3 f23c 499e 203d
00000300: b2c7 cd3d 0cb5 9abd be78 413d 80f0 4cba
00000310: 9aaf 39bd 4a6c 3b3d 437c 2d3c e54f af3d
00000320: 232b e6bb dfe3 303d d4c4 693d c1f4 adbd
00000330: 5af3 303c 0f24 1b3d 3666 0d3d 52af f83c
00000340: da67 d63b 67c1 83bc 6ea3 993c c5fd 84bd
00000350: 255e 0a3d 6c1e 88bd 84c4 57bd a6b3 80bc
00000360: 5a38 3dbc 2401 ecbd 2ff0 adbd 1178 15bd
00000370: 8605 353d 782a 0dbd dcd2 1e3b 4199 793d
00000380: 96e2 06bd 57ab 6dbd 7bbb d9bd cc05 473d
00000390: b263 ca3d 6f19 0ebd 751a 303b 4216 ab3d
000003a0: 43bc 093d b64f c4bc bc4e dbbc 8190 c5bc
000003b0: e6b1 d3bd 5444 7cbc 3cbe afbc adf4 a9bd
000003c0: fd8d 8d3a 48f6 3fbb 06a8 f83c d371 31bd
000003d0: 828b 1a3d 4f07 543d 3dda 803d 3aa1 9fbd
000003e0: 6ae5 753d 2e63 14bc c405 a3bd 0415 86bc
000003f0: 12c9 03bd bbc7 32bd c9c7 4f3e 0c1c 933d
0.09515851 0.04348253 -0.08616047 0.066401556 -0.00078678486 0.037622772 0.11748059 0.05880021
-0.018582815 0.12584239 0.048713308 0.08595988 -0.07420263 0.074580744 0.07830022 0.12442875
0.11144974 0.03550379 -0.059194773 -0.062933944 0.09502649 -0.015829992 0.09152207 0.056696817
0.010610977 0.11396824 -0.04365992 0.060772337 -0.03395237 -0.005083393 0.088117786 -0.0019237846
-0.04732133 0.043388035 0.13362835 -0.06868552 0.03354907 0.0062190546 0.09337551 0.013223879
0.01237557 -0.012498664 -0.012141093 -0.06864556 0.006203029 -0.0362969 0.08158726 0.02251114
-0.061889913 0.0964951 -0.08594218 -0.016497076 -0.0006264466 -0.0119514745 0.047615938 0.064841636
-0.020985361 -0.062432084 -0.031296887 -0.10716287 -0.027984684 0.06953091 -0.09878749 -0.013925009
-0.101231344 0.038731955 -0.09170321 0.00833096 0.102602705 -0.075492114 -0.17852648 0.052794237
0.017865885 -0.009414972 0.092432685 0.061406266 -0.031488683 0.0052872733 -0.05575358 -0.026910951
0.05424252 -0.08994131 -0.031422652 -0.0042678625 0.024603806 0.10491707 -0.0038998644 -0.035446763
0.008877488 -0.017395075 0.0471416 0.014297487 0.1828028 0.057290487 0.025855197 -0.052027017
-0.025133608 0.009121748 0.036064025 -0.002103012 -0.08154746 -0.04206452 0.05279614 -0.0051357984
0.0029756716 -0.058957137 0.044053122 -0.03583039 0.08461083 -0.11647501 -0.059629336 0.078200966
-0.03066151 0.095740385 0.12552832 0.019248933 -0.0039671427 -0.05383534 -0.06424548 0.016768722
-0.08790821 -0.05853433 0.051228404 -0.079864495 -0.054705653 -0.01082409 0.025363483 0.035446554
0.007994461 0.057536405 0.0030354164 -0.03607339 -0.060939953 -0.08156402 0.03815097 -0.009146293
0.06585587 -0.08130138 0.009357179 0.04006458 0.050152972 -0.038015526 0.015803631 -0.06677902
0.08329155 -0.05617514 0.09754119 0.12014104 0.07687286 -0.05059287 0.04590256 0.003251983
0.019155316 -0.0725892 -0.11318278 0.008647563 -0.10745749 -0.024813274 0.12678878 -0.12336751
-0.016258448 0.07387007 -0.017625008 -0.15392458 -0.023525061 -0.06478327 -0.0048876754 -0.030290753
-0.11427347 0.0062837796 0.023206832 0.10040048 -0.02880074 0.00052167126 -0.04931348 -0.008198982
-0.02047104 -0.081581205 0.029683495 0.055571694 -0.017613204 -0.053351443 -0.018189648 -0.064464815
-0.14274487 -0.050823044 0.029729912 -0.023712218 0.003013921 -0.04964047 0.029634073 0.039213452
0.100478545 -0.07554063 0.04723429 -0.000781782 -0.045333482 0.04575757 0.010588708 0.085601605
-0.0070241853 0.043186065 0.057072476 -0.08493949 0.010800207 0.037876185 0.034521304 0.030357037
0.006543142 -0.016083432 0.018754687 -0.06493715 0.03378119 -0.066464275 -0.052677646 -0.015710663
-0.01154908 -0.11523655 -0.08493077 -0.036491457 0.04419472 -0.03446433 0.0024234569 0.06093717
-0.032930933 -0.05802473 -0.10631462 0.048589513 0.098822966 -0.034692224 0.0026871238 0.08353855
0.033626806 -0.02396379 -0.026770942 -0.024116756 -0.10336666 -0.01539715 -0.021453016 -0.08298621
0.0010799762 -0.0029291082 0.030353557 -0.04332144 0.0377307 0.051764783 0.06291626 -0.077944234
0.06003324 -0.009056849 -0.07960084 -0.016367443 -0.032174177 -0.04364751 0.20291056 0.07183084

network_body.vector_processors.0.normalizer.running_mean f4 [24]
00000000: 0000 0000 5c9d a13d 0000 0000 289c a83d
00000010: 0000 0000 c180 a53d 0000 0000 d4c9 ab3d
00000020: 0000 0000 0d9d a93d 0000 0000 aa67 af3d
00000030: 0000 0000 f16f af3d 0000 0000 1f01 ae3d
00000040: 0000 0000 1f01 ae3d 95be bf3e 440b 7d3e
00000050: 622c cabc 64c2 0240 d6a2 2c3e 3eb6 af3d
0.0 0.07891342 0.0 0.082329094 0.0 0.080811985 0.0 0.08388105
0.0 0.08281908 0.0 0.08564694 0.0 0.08566273 0.0 0.084963076
0.0 0.084963076 0.3745009 0.24711329 -0.024679366 2.0431147 0.16858992 0.08579682
