results/2022_0313_1627/Fight/Fight-999996.onnx (onnx, 559045 bytes, 10 tensors)

65 f4 [24]
0	0x3a83127b	0.0010000014
1	0x3cefe656	0.029284637
2	0x3a83127b	0.0010000014
3	0x3d124501	0.03571034
4	0x3a83127b	0.0010000014
5	0x3d0be86f	0.034157213
6	0x3a83127b	0.0010000014
7	0x3d1a3825	0.0376512
8	0x3a83127b	0.0010000014
9	0x3d1408c4	0.036141172
10	0x3a83127b	0.0010000014
11	0x3d061da7	0.032743122
12	0x3a83127b	0.0010000014
13	0x3d087b7e	0.033320896
14	0x3a83127b	0.0010000014
15	0x3cf3b715	0.029750386
16	0x3a83127b	0.0010000014
17	0x3cf3b715	0.029750386
18	0x3fd1229b	1.6338686
19	0x3fc04773	1.5021805
20	0x3fed3821	1.8532754
21	0x3f15cf9b	0.58519906
22	0x3d9c6ccf	0.07637941
23	0x3ef09a53	0.4699274

action_model._discrete_distribution.branches.0.bias f4 [4]
0	0xbbce807b	-0.006301937
1	0xbc417260	-0.011807054
2	0x3c63128f	0.013859405
3	0x3bb2c05d	0.0054550604

action_model._discrete_distribution.branches.0.weight f4 [4, 256]
0	0x3c02dbb6	0.0079869535
1	0x3bef8f76	0.007310803
2	0xbd34cf36	-0.044142924
3	0x3cde535d	0.02713936
4	0x3ceed68b	0.029155036
5	0x3a727ebd	0.0009250453
6	0x3c3922d9	0.011299812
7	0x3bab7d77	0.0052334624
8	0xbbf50f42	-0.0074786255
9	0x3ca53c43	0.020170337
10	0x3b57024a	0.003280776
11	0x3cac4851	0.021030577
12	0x3cc1a0df	0.02363628
13	0x3b326550	0.0027221031
14	0xb865b46a	-5.476588e-05
15	0x3cb9c55d	0.022677118
16	0x3c0e3074	0.008678544
17	0xbd013a67	-0.031549837
18	0x3c942614	0.018084563
19	0x3c28ccfb	0.010302777
20	0xbcd5e2b0	-0.02610907
21	0x3c3ff415	0.011715909
22	0xbd0c37f4	-0.03423305
23	0xbc754d68	-0.014972068
24	0xbb086ced	-0.0020816878
25	0x3c54239c	0.012947943
26	0xbcfc1439	-0.030771362
27	0x3c40cebf	0.011768042
28	0x3c2eb290	0.01066269
29	0x3c8e8c93	0.017401015
30	0xbb77c69f	-0.0037807596
31	0xbb27242a	-0.0025503733
32	0x3ceb19d7	0.028698845
33	0x3c70e069	0.014701941
34	0xbcb2d9b9	-0.021832334
35	0x3c3aeb0c	0.011408579
36	0xbd17a902	-0.037026413
37	0x3ca7388a	0.020412702
38	0x3bcd2ff7	0.0062618214
39	0xbcef99eb	-0.029248198
40	0x3b8dfedb	0.0043333597
41	0x3baf9536	0.0053583635
42	0x3c30efa6	0.010799324
43	0x395be1dc	0.00020969607
44	0xbca11f45	-0.01966823
45	0xbce976b9	-0.028498994
46	0x3c938384	0.018007047
47	0x3cff2c29	0.031148987
48	0x3c78d517	0.015187523
49	0xbc712a46	-0.014719551
50	0xbc8dec75	-0.017324666
51	0x3c69162f	0.01422648
52	0x3cbd8eb7	0.02313934
53	0x3ccfc53e	0.025362607
54	0x3cb04412	0.021516833
55	0x3bbb3ee9	0.0057142866
56	0x3c8f63f2	0.017503712
57	0x3ac9fb34	0.0015409947
58	0xbd4d497a	-0.0501189
59	0x3c2f1f79	0.010688656
60	0x3ad03c95	0.0015887195
61	0xbc72f774	-0.014829505
62	0x3c33b1e0	0.010967702
63	0x3c3bbed8	0.011459075
64	0x3cc84794	0.024448194
65	0xba259404	-0.00063163065
66	0x3c55b0b5	0.0130426185
67	0x3c8e1829	0.017345505
68	0xbaec5dd3	-0.0018033333
69	0xbcf9c4e6	-0.030489396
70	0xbabbba88	-0.0014322558
71	0x3cbf2bf2	0.023336384
72	0xbcc9553d	-0.024576778
73	0x3d0b2988	0.033975154
74	0x3c974111	0.018463643
75	0x3b01ef1e	0.0019826363
76	0x3ae89c50	0.001774678
77	0x3c6d6d32	0.014491366
78	0xbc8eeddb	-0.017447403
79	0xbbb3db5e	-0.005488797
80	0xba004762	-0.00048934494
81	0x3bf2ffc8	0.0074157454
82	0xbc7aa864	-0.0152989365
83	0xbbba7e90	-0.005691357
84	0xbc3479f5	-0.011015405
85	0xbcc5a364	-0.024125762
86	0x3c80de09	0.015730875
87	0x3c311473	0.010808098
88	0xbc9e0684	-0.019290216
89	0x3c959bf2	0.018262837
90	0xbcce5490	-0.025186807
91	0x3ad2f80b	0.0016095651
92	0x3c75ec8d	0.015010011
93	0x3c76317a	0.015026445
94	0xbd4558c6	-0.048180364
95	0x3ce8b796	0.028407853
96	0x3c6a0637	0.014283708
97	0xbc5b26df	-0.013375967
98	0xbcd30fa3	-0.025764292
99	0x3cd6a5dd	0.026202137
100	0x3b86a2af	0.004108749
101	0x3a8913c2	0.0010458159
102	0x3c82492d	0.015904034
103	0x3b06b0a8	0.0020552073
104	0x3a1ccb64	0.00059812353
105	0x3cbd57fd	0.023113245
106	0x3bc81b64	0.006106781
107	0xbd266e10	-0.040632308
108	0xbd3cbf49	-0.04608086
109	0x3cef99a5	0.029248068
110	0x3c481fea	0.01221464
111	0xbc78c42b	-0.015183489
112	0x3c6b0255	0.014343818
113	0xbc50929d	-0.012730268
114	0x3bd0cd91	0.0063721617
115	0x3cc3333e	0.023828145
116	0xbb92aecf	-0.004476405
117	0x3cb62da8	0.022238567
118	0x3cbb0dc2	0.022833709
119	0x3c42045e	0.0118418615
120	0x3c3ad8f2	0.011404263
121	0x3c72b5b3	0.014813828
122	0x3c8987c4	0.01678837
123	0x3b6661ad	0.0035153434
124	0x3b8073e4	0.0039200652
125	0x3c2e2b2f	0.010630413
126	0xb58fa564	-1.0702465e-06
127	0x3c8e5a4d	0.017377043
128	0x3c09ec75	0.008418192
129	0x3bc6014f	0.0060426365
130	0xbd3e3798	-0.046439737
131	0x3c4ed010	0.012622848
132	0x3bd60c8a	0.0065322565
133	0x3c8324d1	0.016008766
134	0xbd0a1483	-0.033710968
135	0x3cca6598	0.024706647
136	0x3cb41d2d	0.021986568
137	0x3bb36c26	0.005475539
138	0xba3a4aa3	-0.00071064587
139	0x3c32e3ad	0.01091854
140	0x3ab97d00	0.0014151633
141	0xbd1ecea3	-0.038771283
142	0x3b8a0666	0.0042121885
143	0x3b36bb57	0.002788266
144	0x3cb047e2	0.021518651
145	0xb98bca08	-0.0002666267
146	0x3cd3efbf	0.025871156
147	0xb98ee616	-0.00027255778
148	0x3c6cc4fa	0.01445126
149	0xbc80648d	-0.015672946
150	0x3ca04b47	0.019567145
151	0x3c508692	0.012727397
152	0xbd03de7a	-0.032194592
153	0x3c738ef1	0.014865623
154	0x3c647cc4	0.013945762
155	0x3cc14c49	0.023595946
156	0xbc56e8f0	-0.01311706
157	0xbba33f6f	-0.004981927
158	0xbaa0b802	-0.001226187
159	0xbbb7bc03	-0.0056071295
160	0x3c786544	0.015160862
161	0x3cad3d7c	0.021147482
162	0x3c731454	0.01483639
163	0x3b9ac189	0.004722778
164	0xbc13961b	-0.009007956
165	0xbb60a950	-0.0034280606
166	0x3cc65491	0.024210246
167	0x3c746da9	0.014918723
168	0x3d14d664	0.03633727
169	0xbb72d5fc	-0.0037053814
170	0x3c8678bc	0.016414993
171	0xbab51b98	-0.0013817428
172	0x3caa61cf	0.020798592
173	0x3acc009a	0.0015564144
174	0x3c8a44f6	0.016878586
175	0x3cdaa534	0.026690103
176	0x3c05fe87	0.00817836
177	0x3c80af0c	0.015708469
178	0xbccafc9f	-0.024778662
179	0xbcf0ea11	-0.029408487
180	0xbc35dccc	-0.011100005
181	0xbd018f4d	-0.031630803
182	0xbd593eeb	-0.05303852
183	0x3d062f04	0.03275968
184	0x3c6b424d	0.014359069
185	0xbc6b459c	-0.014359858
186	0x3c6482e1	0.01394722
187	0x3bac7c9c	0.005263878
188	0x3c76d38c	0.015065085
189	0x3a184538	0.0005808654
190	0xbc0ecb8e	-0.008715523
191	0x3b28bb66	0.0025746464
192	0x3cf53605	0.029932985
193	0xbae1cbdd	-0.0017226894
194	0x3c8d4db2	0.017248962
195	0x3c92637f	0.017869709
196	0x3c120382	0.008911969
197	0xbae15c48	-0.001719364
198	0x3cfb9247	0.030709399
199	0xbcd44455	-0.02591149
200	0xbb8e77d1	-0.0043477793
201	0xbd5f3c56	-0.0545009
202	0x3cb2fb80	0.02184844
203	0x3c41a407	0.011818892
204	0xbc9671e3	-0.018364852
205	0x3b8dc1ea	0.004326095
206	0x39c49208	0.00037492835
207	0xbc4dda2a	-0.012564221
208	0x3c8ef27b	0.017449608
209	0xba03c495	-0.00050265464
210	0x3c1c7585	0.009549503
211	0xbc3f6634	-0.011682082
212	0x3cbbb602	0.022913937
213	0x3c7c555d	0.015401212
214	0xbcc47bd9	-0.023984836
215	0xbceced26	-0.028921675
216	0x3c8e7832	0.017391298
217	0x3c5d360c	0.013501655
218	0xbb951cfd	-0.004550575
219	0xbcd3104f	-0.025764612
220	0x3c648ad8	0.013949119
221	0xbb0809f4	-0.0020757886
222	0xbc56af9f	-0.013103395
223	0xbd19b646	-0.037527345
224	0x3c837fb0	0.016052097
225	0x3c8e09ad	0.017338598
226	0x3a9e1704	0.0012061303
227	0x3cd0376b	0.02541705
228	0x3cc5c10c	0.024139903
229	0xbd450c94	-0.0481077
230	0x3c196327	0.009362019
231	0x3b63cce3	0.0034759573
232	0x3c81aa9b	0.015828421
233	0xba3aa2d2	-0.0007119599
234	0xbb355248	-0.0027667452
235	0x3cf73221	0.03017527
236	0xbd1316b2	-0.035910316
237	0x3b0d87dd	0.0021595873
238	0xba319664	-0.0006774424
239	0x3c270b4e	0.010195566
240	0x38e1f9a2	0.00010775334
241	0x3c80fe65	0.015746305
242	0x3ca66ff0	0.020317048
243	0xbc4059ed	-0.01174019
244	0x3c870640	0.016482472
245	0x3cbcf242	0.023064736
246	0x3c8c470a	0.017123718
247	0xbca28c44	-0.019842274
248	0x3c6499ef	0.013952716
249	0xbcfbdb93	-0.03074435
250	0x3aa0b866	0.0012261986
251	0x3bdadcd7	0.006679158
252	0x3c822537	0.015886886
253	0xbb680cae	-0.0035407948
254	0x3ba30f06	0.004976156
255	0x3bfb8986	0.007676306

network_body.linear_encoder.seq_layers.0.bias f4 [256]
0	0x3c1324e1	0.008980961
1	0x3b313577	0.0027039924
2	0x3baa9299	0.005205464
3	0xbb70d014	-0.0036745118
4	0xbb4ac67e	-0.0030941064
5	0xbb629987	-0.0034576373
6	0xbb9d4bc6	-0.0048002927
7	0x3cae09dd	0.021244938
8	0xbbcf08ea	-0.0063182013
9	0xbc94f4f1	-0.018183203
10	0x3d083209	0.033250842
11	0xbc15c1e3	-0.0091404645
12	0xbb1ebcff	-0.0024221537
13	0x3c913fb1	0.017730566
14	0xbbad7d14	-0.0052944515
15	0x3d4d0948	0.05005768
16	0xbc93ed3a	-0.018057454
17	0xbbec21ec	-0.0072061922
18	0x3ce25ab4	0.027631141
19	0xbc9143a5	-0.01773245
20	0x3b82ab8b	0.0039877347
21	0x3bd9ef35	0.00665083
22	0x3c1f3cdf	0.009719103
23	0x3b78b1d3	0.0037947788
24	0x3cf519df	0.029919563
25	0x3c95f322	0.018304411
26	0xbc7ac87f	-0.015306591
27	0x3c663cd5	0.014052589
28	0x3cffd014	0.03122715
29	0xbc9123c3	-0.017717248
30	0x3c2f8be1	0.010714502
31	0xbba3233a	-0.0049785646
32	0xbc129eef	-0.0089490255
33	0x3bae01c1	0.0053102677
34	0xbae9cb02	-0.001783699
35	0xbcd6464d	-0.026156569
36	0xbc5bca75	-0.013414969
37	0x3bb2d5bd	0.0054576085
38	0x3cdf2cfc	0.02724313
39	0x3af276bc	0.001849852
40	0xbc22f814	-0.009946842
41	0x3c49d71c	0.0123193525
42	0x3cb300c4	0.021850951
43	0x3ce54fbe	0.027992126
44	0xbbefe2fb	-0.0073207594
45	0xbb8441ed	-0.0040361793
46	0x39f83aec	0.00047346146
47	0xbc32741c	-0.01089194
48	0x3ca49b02	0.020093445
49	0xbcec0b25	-0.028813908
50	0xbc1b2b54	-0.009470779
51	0x3bf084e6	0.0073400615
52	0xbd1a01e4	-0.03759946
53	0x3d13739f	0.035998937
54	0x3bb95352	0.0056556845
55	0x3ca54a0b	0.020176908
56	0xbb808d82	-0.003923119
57	0x3b502091	0.0031757692
58	0x3c8742ef	0.016511409
59	0x3c15b9da	0.009138549
60	0xba6ccdcc	-0.00090333517
61	0x3c8cb9b2	0.01717839
62	0xbc5a512c	-0.013325017
63	0x3caef753	0.021358168
64	0x3c9adf54	0.01890532
65	0xbcb3ee49	-0.02196421
66	0xbbf715dd	-0.007540448
67	0xbc12e259	-0.008965098
68	0x3bc1c3f2	0.005913251
69	0xbbb8dada	-0.0056413235
70	0x3c8d97ac	0.017284237
71	0xbc1a0427	-0.009400404
72	0xbcb6d740	-0.022319436
73	0xbb0de5aa	-0.0021651783
74	0x3cc582b2	0.024110172
75	0x3c258f44	0.010104958
76	0x3a1de955	0.0006023844
77	0xbbe9d1a2	-0.007135586
78	0x3c5151f8	0.0127758905
79	0xbcde649a	-0.02714758
80	0xbd2e3446	-0.04253032
81	0xbc6533ef	-0.013989433
82	0x3d4b09bd	0.049569834
83	0x3cc12237	0.023575885
84	0xbc3c367e	-0.011487601
85	0x3b86126f	0.004091553
86	0xbb8b68f7	-0.004254456
87	0xbc4479c0	-0.011991918
88	0x3bb3e0f4	0.005489463
89	0x3c44f026	0.0120201465
90	0x3ce5faa0	0.028073609
91	0xbd116b0a	-0.03550247
92	0x3c99f0d2	0.01879159
93	0x3a37f719	0.00070177164
94	0x3c4acdff	0.012378215
95	0xbc7d7972	-0.015470849
96	0xbcb6c289	-0.022309558
97	0xbc43b1e7	-0.011944271
98	0x3bf9e599	0.007626247
99	0xbb1365b7	-0.0022491047
100	0x3d0c45fd	0.034246434
101	0x3bf2fbcb	0.00741527
102	0xbc18359e	-0.009290127
103	0xbb6d11bf	-0.0036173908
104	0xbc0c4aa1	-0.008562715
105	0x3c467043	0.012111726
106	0xbba50607	-0.005036119
107	0xbbc2e8be	-0.005948155
108	0x3d53cd14	0.05170925
109	0xbc4d4558	-0.01252874
110	0xbc48bd0a	-0.012252102
111	0x3b67e8e6	0.003538662
112	0x3b3ac790	0.0028500296
113	0xbb5c8899	-0.0033650754
114	0xbbb957dc	-0.0056562256
115	0x3c1262e7	0.008934713
116	0xbc89208d	-0.016739154
117	0xbba32fd3	-0.0049800663
118	0x3c71f195	0.01476707
119	0x3cd15409	0.025552766
120	0xba453152	-0.0007522303
121	0x3c9a8ecf	0.018866925
122	0xba33aa9b	-0.00068537303
123	0x3c83bec9	0.016082184
124	0xbbf0b31b	-0.00734557
125	0x3c0c02f6	0.008545628
126	0xbc0aa815	-0.008462925
127	0xbce4fd28	-0.027952746
128	0x3bcc8c6c	0.0062423255
129	0xba3dd417	-0.00072413817
130	0x3ce860b9	0.028366433
131	0xbc59e247	-0.013298578
132	0xbc7bc6e3	-0.0153672425
133	0x3adc1bd9	0.0016792967
134	0x3ca1a4d8	0.019731924
135	0x3cae82a6	0.021302532
136	0x3c06a7e9	0.008218744
137	0x3cddd458	0.027078792
138	0x3cad2a1f	0.021138249
139	0xbc81fc60	-0.015867412
140	0xbca88a05	-0.020573625
141	0x3ab02085	0.0013437426
142	0xb8b296ac	-8.515766e-05
143	0x3d189e24	0.03726019
144	0x3c188bad	0.009310645
145	0xbcae37d6	-0.021266859
146	0x3c9c020e	0.019043949
147	0xbc485238	-0.012226634
148	0xbc8e5c8b	-0.017378112
149	0x3d109961	0.035302524
150	0x3c904567	0.017611219
151	0x3cdcbed2	0.026946459
152	0x3d051f48	0.032500535
153	0xbc3358f9	-0.010946506
154	0xbc951dac	-0.018202625
155	0x3cd1bea5	0.025603602
156	0x3c6ccb95	0.014452835
157	0x3acc90a2	0.0015607069
158	0xbc506fb5	-0.0127219455
159	0x3c64e7b7	0.013971261
160	0x3c165daf	0.009177609
161	0x3baad7b1	0.0052137007
162	0xbbcb3259	-0.0062010703
163	0xba8d98a4	-0.0010802937
164	0x3c19d912	0.0093901325
165	0xbb98e532	-0.004665994
166	0xbc390e65	-0.011294936
167	0xbc6a1900	-0.014288187
168	0x3b864d40	0.0040985644
169	0xbb2709cf	-0.0025488024
170	0xbd192be8	-0.037395388
171	0xbcb82147	-0.022476805
172	0xbb990166	-0.004669356
173	0x3ce6f7c7	0.028194321
174	0xb9f948f7	-0.00047547344
175	0x3ae70d16	0.0017627801
176	0xbc2e51a1	-0.010639579
177	0xbc9ed69f	-0.019389449
178	0x3cdaf184	0.026726492
179	0xbc821b3a	-0.015882123
180	0x3c08b33a	0.008343512
181	0xbbe6d2bd	-0.007044165
182	0xbc41b652	-0.011823254
183	0x3ce57960	0.028011978
184	0xbcbcc231	-0.023041816
185	0x3ccc0621	0.024905266
186	0x3b877e36	0.0041349186
187	0x3ce08fad	0.02741226
188	0x3c8aa6f2	0.016925309
189	0x3ce015c6	0.027354132
190	0xbb984fdc	-0.004648192
191	0xbb9015b9	-0.004397121
192	0x3c34b210	0.0110287815
193	0x3b5e4ad4	0.0033919113
194	0x3cc2b3ca	0.02376737
195	0x3d025ac3	0.03182484
196	0x3c98abbf	0.018636582
197	0xbb90831b	-0.0044101602
198	0x3ba6047d	0.005066453
199	0x3bab07bc	0.005219428
200	0xbac1aff8	-0.0014777174
201	0xbbfdc40c	-0.007744318
202	0xbc9a5cb1	-0.018843027
203	0xbc998d1a	-0.01874404
204	0xbbf01265	-0.0073264115
205	0xbaaad593	-0.0013033621
206	0xbb12622d	-0.002233635
207	0xbc77429c	-0.0150915645
208	0xbc3bf2ab	-0.011471431
209	0xbcc9dfb1	-0.024642797
210	0x39ecf010	0.00045192288
211	0x3d03dc40	0.03219247
212	0xbc5b04bb	-0.013367827
213	0x39d71651	0.00041024623
214	0x3cf15981	0.029461624
215	0xbc8af2d3	-0.01696149
216	0xbb3f7261	-0.0029212462
217	0x3cea46f2	0.028598282
218	0x3a2c963f	0.0006583668
219	0xbc823405	-0.015893945
220	0xbc814ef3	-0.015784716
221	0x3b5cdf33	0.0033702373
222	0xbc7fcdc1	-0.01561302
223	0xbb21948d	-0.0024655194
224	0x3cd5c17d	0.026093239
225	0x3be33d22	0.006934778
226	0x3c1a5802	0.009420397
227	0x3c61ea40	0.01378876
228	0x3d2629e1	0.040567283
229	0x39bbe273	0.00035836137
230	0xbc63e87b	-0.013910408
231	0xbbfaf66f	-0.0076587717
232	0xbc4b2604	-0.0123992
233	0x3cc8b1ff	0.024498938
234	0x3bf02a0d	0.0073292316
235	0x3cb21506	0.02173854
236	0xbb2a5da2	-0.002599575
237	0xbbc8968b	-0.0061214617
238	0xbbb9f6fd	-0.0056751953
239	0x3c293795	0.010328193
240	0x3c8bda7a	0.017071951
241	0xbb81dcd6	-0.0039630933
242	0x3b0c63ed	0.0021421865
243	0x3bce288c	0.0062914547
244	0x3c6ebb19	0.014570975
245	0x39fdaacb	0.0004838317
246	0xbb15afce	-0.0022840383
247	0xba3ea603	-0.00072726625
248	0xbbbf4940	-0.0058375895
249	0xbc44f362	-0.012020918
250	0x3c7bc566	0.015366888
251	0xbcccb3bf	-0.024988053
252	0x3cb7b6da	0.022426058
253	0x3c78f72e	0.015195651
254	0x3d0640b2	0.032776542
255	0x3c1b5dd1	0.009482817

network_body.linear_encoder.seq_layers.0.weight f4 [256, 24]
0	0xbe0c0c01	-0.13676454
1	0xbca75adb	-0.020429065
2	0xbc67f9fe	-0.014158724
3	0xbe115a2f	-0.14194559
4	0xbe1f68ed	-0.1556737
5	0xbc728947	-0.014803237
6	0x3e2d0c3b	0.16899197
7	0x3e5539ec	0.20822877
8	0x3cfacb77	0.030614598
9	0x3cb3183c	0.021862142
10	0x3c6972b6	0.014248541
11	0xbdb7e665	-0.08979491
12	0x3db48082	0.088135734
13	0xbe84e3bf	-0.25955006
14	0x3f047541	0.51741415
15	0x3ecc15c8	0.39860368
16	0x3e273c2e	0.1633155
17	0x3d153192	0.036424227
18	0x3ede88d0	0.43463755
19	0xbf05dd11	-0.52290446
20	0xbeb15a7f	-0.34639356
21	0xbdd7765e	-0.105206236
22	0x3e4c5523	0.19954352
23	0xbe2d7491	-0.16938998
24	0xbded433e	-0.11585091
25	0x3d34554b	0.044026654
26	0x3e379c33	0.17930679
27	0x3ebd8212	0.37013298
28	0xbda6852d	-0.0813087
29	0xbe78b33c	-0.24287122
30	0xbe1a70a7	-0.15082036
31	0xbe47fd40	-0.19530201
32	0xbd9df243	-0.077122234
33	0x3ec26995	0.37971178
34	0x3e77c32b	0.24195544
35	0x3e5f87d6	0.21829161
36	0x3eb3e632	0.35136563
37	0xbd0f0492	-0.034916468
38	0xbe5d20bb	-0.21594517
39	0xbc7be312	-0.015373962
40	0xbd382399	-0.044955824
41	0x3c477fd4	0.012176473
42	0xbe6fb18c	-0.23407573
43	0x3dfe97be	0.12431286
44	0x3cb3ab03	0.02193213
45	0xbde178b7	-0.11009353
46	0x3d7c41d3	0.061586212
47	0x3e1484f3	0.14503841
48	0x3e1348ea	0.14383283
49	0x3e78a28f	0.24280761
50	0xbe608c8a	-0.21928611
51	0xbe07343d	-0.13203521
52	0x3d4b5792	0.04964406
53	0x3d6e6ff8	0.05821225
54	0x3dcd49c2	0.10023834
55	0xbe55f6ae	-0.20894882
56	0x3dae4bd9	0.085105605
57	0xbd18597b	-0.03719471
58	0xbebf2412	-0.37332207
59	0xbd11e5b7	-0.035619464
60	0x3dec9d8e	0.11553489
61	0xbc9ae7d0	-0.018909365
62	0xbc19a7e0	-0.009378403
63	0xbdaf401c	-0.0855715
64	0x3cf20d7e	0.02954745
65	0xbb0812ec	-0.0020763231
66	0x3e61e8cf	0.22061466
67	0xbd1bf1de	-0.03807246
68	0x3d9342d5	0.071904816
69	0xbe2ac4d2	-0.16676643
70	0x3ec3a84d	0.3821434
71	0xbdc6762b	-0.096905075
72	0xbe8291cf	-0.25501868
73	0xbe918241	-0.28419688
74	0x3ebc93ae	0.3683142
75	0x3e245177	0.16046701
76	0xbac900ed	-0.0015335359
77	0xbd55a666	-0.052160643
78	0x3e2491ec	0.1607129
79	0xbf012302	-0.5044404
80	0xbeabe2f7	-0.33571598
81	0xbc816ad3	-0.015798008
82	0xbeab5990	-0.33466768
83	0xbe29ab05	-0.16569145
84	0xbd8ceacb	-0.06880721
85	0x3d75da58	0.060022682
86	0xbdb163dc	-0.08661625
87	0x3df4c678	0.119519174
88	0x3e36d420	0.17854357
89	0x3e5c79ed	0.21530886
90	0xbd3f2cda	-0.046673633
91	0x3c4ab36c	0.012371879
92	0xbe93ea37	-0.2888963
93	0xbeb8ab92	-0.36068398
94	0x3c6d8e66	0.014499282
95	0x3e26f242	0.16303352
96	0xbc511f25	-0.012763773
97	0xbef14eef	-0.47130534
98	0x3de36198	0.11102599
99	0xbe7fba2f	-0.24973367
100	0x3dab9160	0.083773375
101	0xbef39124	-0.4757167
102	0x3e9e3d2b	0.30906042
103	0xbe39ad25	-0.18132456
104	0x3bfe281f	0.0077562477
105	0x3e60f764	0.21969372
106	0xbd8ad610	-0.067791104
107	0xbf2d0223	-0.67581385
108	0x3e802938	0.25031447
109	0xbd48c014	-0.049011305
110	0xbdd41eb0	-0.10357416
111	0xbe887da2	-0.2665835
112	0x3dea50e8	0.11441213
113	0xbd3e0c6a	-0.046398558
114	0x3e1a95b7	0.15096174
115	0xbdaab181	-0.083346374
116	0x3e31116f	0.17291807
117	0xbea59eb6	-0.3234765
118	0xbdcf6bdf	-0.10127997
119	0xbd210b9c	-0.039317712
120	0xbd6f8910	-0.058480322
121	0x3e041d4b	0.129018
122	0xbe0cbd2e	-0.13744041
123	0xbeb33297	-0.34999534
124	0xbe674fbe	-0.22589013
125	0x3cee627b	0.029099694
126	0x3d3c9723	0.046042573
127	0x3e5442b1	0.20728566
128	0x3f149a24	0.580477
129	0xbe3647be	-0.17800805
130	0xbe747264	-0.23871762
131	0x3de49927	0.11162024
132	0x3e70bfa2	0.23510602
133	0xbe9c5e53	-0.30540714
134	0x3e3e0683	0.18557172
135	0x3e5daa1c	0.21646923
136	0xbdcabbf2	-0.09899129
137	0xbd8d7b0c	-0.06908235
138	0xbd1105ff	-0.03540611
139	0xbd6bf04c	-0.05760221
140	0xbc768767	-0.015046931
141	0xbe5df472	-0.2167528
142	0x3d7772b3	0.06041212
143	0x3db04d6b	0.08608516
144	0xbdf666f5	-0.12031356
145	0xbd6c45bd	-0.057683695
146	0xbec668a1	-0.387517
147	0x3e361bb1	0.17784001
148	0xbc6295ee	-0.013829691
149	0x3de4380c	0.111435026
150	0x3e677589	0.2260343
151	0xbe8e3590	-0.2777524
152	0x3d6f4d53	0.05842335
153	0xbe6a1b26	-0.22861919
154	0x3e1fb3bf	0.15595911
155	0xbd829b92	-0.06377329
156	0x3e572d2c	0.21013325
157	0xbe2f5f66	-0.17126235
158	0xbe6b7008	-0.22991955
159	0x3eb61db4	0.35569537
160	0xbe1e8c02	-0.15483096
161	0xbdee4a80	-0.116353035
162	0xbe4cce5f	-0.200006
163	0xbecb4c28	-0.3970654
164	0xbe0b399b	-0.13596193
165	0x3e804efa	0.25060254
166	0xbe2ac3a4	-0.16676193
167	0x3e6be30c	0.2303583
168	0x3e9f1805	0.31073013
169	0x3e325062	0.17413476
170	0xbdd0cf90	-0.101958394
171	0x3d93bac9	0.07213361
172	0xbd0d266a	-0.034460463
173	0x3ea5967b	0.3234137
174	0x3db59275	0.08865825
175	0xbe138475	-0.14405997
176	0xbcec2155	-0.028824488
177	0x3ea3aa10	0.31965685
178	0xbe08e8e1	-0.13370086
179	0x3e994905	0.29938522
180	0x3e19a2af	0.15003465
181	0x3e810bd9	0.25204352
182	0x3c25471c	0.010087755
183	0x3e4cbedd	0.19994684
184	0x3d6974ae	0.05699604
185	0x3ec3b266	0.38222045
186	0x3e56a476	0.20961174
187	0xbce25415	-0.027627984
188	0x3e9aa56a	0.30204326
189	0xbde1d158	-0.11026257
190	0xbd8a8053	-0.06762757
191	0x3e07e0a4	0.13269287
192	0xbe068903	-0.13138203
193	0xbd30d426	-0.04317107
194	0x3dc83126	0.09774999
195	0xbd983089	-0.07431132
196	0x3e96c9ea	0.29450923
197	0x3e17b1f2	0.14813974
198	0x3d329d04	0.043606773
199	0xbe595b0e	-0.21226141
200	0x3ea7e056	0.32788342
201	0x3da1ac14	0.078941494
202	0x3c882f13	0.01662401
203	0xbe3686f2	-0.17824915
204	0x3e14c8bd	0.145297
205	0xbc30ca0c	-0.010790359
206	0x3dfc2f78	0.123137414
207	0x3c19700e	0.009365095
208	0x3e10dd97	0.1414703
209	0x3e83e440	0.25760078
210	0xbe549471	-0.20759751
211	0xbe20f087	-0.15716754
212	0xbdf3e9da	-0.11909838
213	0x3d91bdb2	0.0711626
214	0x3f038f57	0.51390594
215	0x3d9837c2	0.0743251
216	0x3e25e568	0.16200793
217	0x3e0b035a	0.13575497
218	0x3e799258	0.24372232
219	0x3aa9b77a	0.0012948357
220	0x3ec748be	0.38922685
221	0x3e89608a	0.26831466
222	0x3e08cd86	0.13359651
223	0x3e3d2f09	0.18474974
224	0xbe3adac2	-0.18247512
225	0x3d3f0f3e	0.046645395
226	0x3ed92ad9	0.42415503
227	0xbe46c1af	-0.19409822
228	0xbbbf4e77	-0.005838211
229	0xbe58c26f	-0.2116792
230	0x3d62cf50	0.05537349
231	0x3e3ef340	0.1864748
232	0xbd761816	-0.060081564
233	0xbeab7b59	-0.33492544
234	0xbe3b20e8	-0.18274271
235	0xbe0d933a	-0.13825694
236	0x3e9955ba	0.29948217
237	0x3e92dc91	0.28683904
238	0x3e06038f	0.13087295
239	0x3dc80de8	0.097682774
240	0x3d3e0fdd	0.046401847
241	0x3ed20e1b	0.41026387
242	0x3e99e299	0.30055693
243	0xbc42c62f	-0.011888071
244	0x3e92edef	0.28697154
245	0x3d45cbf5	0.04829021
246	0xbe6d3713	-0.2316554
247	0x3d25e2b7	0.040499415
248	0x3e137eb0	0.14403796
249	0x3e001d61	0.12511207
250	0xbadda9e0	-0.0016911589
251	0xbdd4dd3f	-0.10393762
252	0x3c272137	0.01020079
253	0x3e2cc555	0.16872151
254	0xbde63858	-0.112412155
255	0x3d34c0a1	0.044129018

network_body.linear_encoder.seq_layers.2.bias f4 [256]
0	0xbc37be0d	-0.011214745
1	0xb7f636ec	-2.935106e-05
2	0x3beb0cf2	0.007173174
3	0xbca7bad2	-0.020474825
4	0x3cb3b0b6	0.021934848
5	0x3c99e50a	0.018785972
6	0xbbed9ec8	-0.007251594
7	0xbc2485b3	-0.010041642
8	0x3ac23316	0.001481625
9	0xbb2db8cc	-0.0026507853
10	0x3c5e7a4e	0.013578964
11	0x3aa7e802	0.0012810233
12	0x3bb4dabd	0.0055192397
13	0xbbef4e57	-0.00730304
14	0xbcbb950f	-0.022898225
15	0xbaa881cb	-0.0012856064
16	0x3c0a259b	0.008431817
17	0x3cc54a86	0.024083387
18	0x3cbcfe9c	0.023070626
19	0x3cb49d45	0.022047648
20	0x3c23410c	0.009964239
21	0x3b348621	0.0027545767
22	0xbc1000b0	-0.008789226
23	0x3c79c55d	0.015244809
24	0xbcd1c48e	-0.02560642
25	0x38dab113	0.00010428033
26	0x3c346e51	0.01101263
27	0xbbd98527	-0.0066381874
28	0x3c6e0623	0.01452783
29	0x3bed1b49	0.0072359187
30	0xbb6ab11a	-0.0035811127
31	0xbd00098f	-0.031259116
32	0x3cb7872f	0.022403328
33	0xbc30187c	-0.010748025
34	0x3a20ca42	0.00061336544
35	0x3c867a67	0.016415788
36	0x3b7d8fe9	0.0038690513
37	0xbc3dd86e	-0.011587245
38	0xbc7a88d8	-0.015291415
39	0x3d1abba7	0.037776615
40	0xbbf88456	-0.007584135
41	0x3b452605	0.0030082476
42	0x3c562724	0.013070855
43	0x3c245fce	0.010032607
44	0x3d11fdfc	0.03564261
45	0x3bd98358	0.006637972
46	0xbc329067	-0.010898686
47	0x3b9bdd84	0.0047566313
48	0xbc933c94	-0.017973222
49	0xbbe5814f	-0.00700394
50	0xbbbfb386	-0.0058502583
51	0x3b64c103	0.0034905083
52	0xbba99dd1	-0.005176284
53	0xbc0f9499	-0.008763456
54	0xbb60f5ca	-0.003432619
55	0x3aa1c43e	0.001234181
56	0xbc172031	-0.009223984
57	0x3ca01358	0.019540474
58	0x397daeb7	0.00024193047
59	0x3c06dff2	0.008232104
60	0x3b0e23c8	0.0021688808
61	0xba6544f8	-0.0008745934
62	0x3c1ad88f	0.009451046
63	0x39ce32e3	0.00039329295
64	0xbcb62607	-0.02223493
65	0x3b85d4bb	0.0040841973
66	0x3ca99ab6	0.020703655
67	0x3b2a080a	0.0025944733
68	0x3ab5e2c3	0.0013876784
69	0xbca32393	-0.019914424
70	0xbadf355e	-0.0017029454
71	0x3baa7f93	0.0052031963
72	0x3c0ed01e	0.008716611
73	0x3b9e8752	0.004837909
74	0xbc413608	-0.011792667
75	0x3b016ee7	0.001974994
76	0xbad22e5e	-0.0016035547
77	0xbbcc819c	-0.0062410366
78	0xbc3867fe	-0.011255262
79	0xbabd110e	-0.0014424638
80	0x3bf1401a	0.007362378
81	0x3ca4f058	0.020134136
82	0xbc873700	-0.016505718
83	0x3b2db3d6	0.0026504896
84	0x3c318c23	0.010836634
85	0xbca6e37c	-0.020372145
86	0x3ce3db5e	0.027814563
87	0x3c558d0a	0.013034115
88	0xbc1f0720	-0.009706289
89	0x3c10b66b	0.008832554
90	0x3b6192b2	0.0034419713
91	0xbc92afce	-0.017906096
92	0x3bb01f21	0.0053748046
93	0x3c68d043	0.01420981
94	0x3cca8d36	0.024725538
95	0x3bfa7a39	0.0076439646
96	0xbc080119	-0.008301043
97	0xbc3b6f46	-0.011440104
98	0xbba7ab8e	-0.0051168865
99	0x3c51ab76	0.012797227
100	0xbb08d612	-0.002087955
101	0x3d068cf3	0.032849263
102	0x3c2068f2	0.009790646
103	0x3bb7046f	0.0055852453
104	0x3ce78aba	0.028264392
105	0xbc75c368	-0.015000202
106	0x3c0aeab1	0.008478806
107	0xbc81b3ef	-0.01583287
108	0xbd025ef1	-0.031828824
109	0xbc0f166d	-0.008733374
110	0x3ba3e3ca	0.00500152
111	0xbc835405	-0.016031275
112	0xbc67c568	-0.014146186
113	0x3cfa6ba7	0.03056891
114	0x3b0cae63	0.0021466247
115	0xbb8a6113	-0.004222998
116	0x3c77460c	0.015092384
117	0x3ba584a2	0.0050512115
118	0x3c0a733f	0.008450328
119	0xbbf05ba9	-0.0073351455
120	0x3bb478f9	0.005507585
121	0xbc862f1f	-0.016379891
122	0x3cedb35b	0.029016187
123	0x3b30cb28	0.002697656
124	0x3c1ed56d	0.009694439
125	0xbaff2e14	-0.0019468688
126	0xbb59323e	-0.003314152
127	0x3b399dda	0.0028322847
128	0x3cc7a8dc	0.02437251
129	0xbbef2316	-0.0072978837
130	0xbbc05f2f	-0.005870722
131	0xbc65d2d7	-0.014027319
132	0x3c1438dd	0.00904676
133	0x3d1773e6	0.036975764
134	0x3b8411bd	0.004030435
135	0x3c56b9c7	0.013105816
136	0xbbf710dc	-0.0075398516
137	0x3c596513	0.013268727
138	0x3a224fa0	0.00061916746
139	0xbc163812	-0.009168642
140	0x3d040b7b	0.03223751
141	0x3b542a4a	0.003237384
142	0xbba36f6c	-0.0049876478
143	0xbc8d1554	-0.017222084
144	0xbc23519b	-0.009968187
145	0x3c48d73d	0.012258348
146	0xbc2b9830	-0.010473296
147	0xbbc6b271	-0.0060637523
148	0xbc1957db	-0.009359325
149	0xbc98b01b	-0.018638661
150	0xbab98014	-0.001415255
151	0x3c4d7b49	0.0125416005
152	0x3c06001b	0.008178736
153	0x39b83999	0.00035138128
154	0x3c2b5a86	0.010458594
155	0x3c3672cf	0.011135771
156	0x3c0d6351	0.008629636
157	0xbb3332d4	-0.0027343528
158	0xbc555c6e	-0.013022525
159	0x3ba84ae1	0.0051358794
160	0xbc4056d5	-0.011739452
161	0xbc068417	-0.008210204
162	0x3c8e37b1	0.01736054
163	0xbcf4408e	-0.029815938
164	0xbb5dcc5e	-0.0033843736
165	0xbca1181d	-0.019664818
166	0xbc099aa7	-0.008398688
167	0x3cd7de39	0.026351081
168	0xbc392068	-0.01129923
169	0x3b488425	0.0030596342
170	0x3b46c39e	0.0030329
171	0xbc8d79c6	-0.01726998
172	0x3c352f87	0.011058695
173	0x3c5b1f07	0.013374097
174	0x3b13767a	0.0022501037
175	0xbd281f65	-0.041045565
176	0x3c4371dd	0.011929003
177	0x3ca218fb	0.019787302
178	0x3c8fed6a	0.017569263
179	0xbb578410	-0.0032885112
180	0x3a958cee	0.0011409798
181	0x3be79d60	0.007068321
182	0xbc0ae5fe	-0.008477686
183	0x3c1c1959	0.009527528
184	0xbb3a3534	-0.002841306
185	0x3d02ee90	0.031965792
186	0xbcb5a6a9	-0.022174196
187	0xbbec4704	-0.007210614
188	0x3c350ab6	0.011049917
189	0xbb14786e	-0.002265479
190	0xbc468759	-0.01211723
191	0x3c7dbdbd	0.015487132
192	0x3c03f422	0.008053811
193	0xba034ef5	-0.0005009019
194	0xbc91dad3	-0.017804539
195	0xbc4841f3	-0.012222755
196	0x3c7e788a	0.015531668
197	0xbcae126e	-0.021249022
198	0xbbdfde99	-0.0068319556
199	0x3b913266	0.004431057
200	0x3d34cb5f	0.044139262
201	0xbd03e1db	-0.032197814
202	0xbc377241	-0.011196674
203	0xbc80badf	-0.015714107
204	0x3c70f8aa	0.014707724
205	0x3c224f41	0.009906591
206	0x3c56fc0f	0.013121619
207	0x3c3a4dca	0.011371085
208	0x3a0af5f8	0.00053009344
209	0xbca09daf	-0.01960644
210	0xb92f03d2	-0.00016690724
211	0xbb533ab3	-0.0032231032
212	0xbc42c13a	-0.011886889
213	0x3b8f1efb	0.004367707
214	0x3ca19adb	0.019727161
215	0x3c218a2c	0.009859603
216	0xbc1aff35	-0.00946026
217	0xbc1f0955	-0.009706815
218	0x3c158e19	0.009128117
219	0xbbfbf3d6	-0.0076889796
220	0x3cc53e74	0.024077632
221	0x3c1c9c73	0.009558785
222	0x3ccbbb7e	0.024869677
223	0xbc8d2150	-0.017227799
224	0xbc63a632	-0.0138946045
225	0x3c09b0c3	0.00840396
226	0xbc9b8e30	-0.018988699
227	0x3cc5d266	0.024148177
228	0x3bec3574	0.0072085205
229	0xbc9aa20b	-0.018876096
230	0xbc9e3d54	-0.019316353
231	0xbc7ade13	-0.015311736
232	0xbc194293	-0.009354251
233	0x3c684370	0.014176235
234	0x3ca0ad58	0.019613907
235	0x3be3bfc4	0.0069503505
236	0x3ccea0df	0.025223194
237	0x3c61f3ad	0.013791007
238	0xbc9201a2	-0.017823044
239	0x3b66e537	0.0035231838
240	0xbbd0104a	-0.006349598
241	0xbbf4304f	-0.007452048
242	0xbc4b4fc2	-0.012409152
243	0xbbc89b08	-0.006121997
244	0x3d0d4063	0.034485232
245	0xba0e630c	-0.0005431629
246	0x3cc653ca	0.024209876
247	0xbc6d32d2	-0.014477449
248	0x3c81cb66	0.015844058
249	0x3c025f36	0.00795727
250	0x3c0618b2	0.008184599
251	0xbb592dfb	-0.0033138979
252	0xbc870cfc	-0.016485684
253	0x3c2eeb86	0.01067627
254	0xbc333815	-0.010938664
255	0x3b3af05a	0.0028524608

network_body.linear_encoder.seq_layers.2.weight f4 [256, 256]
0	0xbd96c328	-0.07361442
1	0xbd06bdb8	-0.032895774
2	0x3cb7ebac	0.022451244
3	0x3d41f1e4	0.047349826
4	0xbd0dcf82	-0.034621723
5	0x3bd8ef93	0.0066203563
6	0xbd26c205	-0.040712375
7	0x3d982edc	0.07430813
8	0xbdfd8de5	-0.1238058
9	0x3c98f2dd	0.018670494
10	0xbe63a626	-0.2223135
11	0x3d456619	0.04819307
12	0xbcf4a420	-0.029863417
13	0xbd7928b6	-0.06082984
14	0xbd546b2c	-0.05186002
15	0xbdcfc9ee	-0.10145937
16	0xbe150d89	-0.14555945
17	0x3cabdc51	0.020979078
18	0xbdcd1773	-0.10014238
19	0xbd67d1b9	-0.05659649
20	0x3a97cb04	0.0011580889
21	0xbd9b097b	-0.07570168
22	0xbd194f15	-0.037428934
23	0x3c3fbb21	0.01170233
24	0xbdf82499	-0.121163554
25	0xbd787b29	-0.06066433
26	0x3c1dbd13	0.009627598
27	0xbd46b61f	-0.048513528
28	0x3d9c76bc	0.07639834
29	0xbd9ea908	-0.07747084
30	0xbd7e8f25	-0.062148232
31	0xbdcf6a65	-0.10127715
32	0x3d8f3d88	0.06994158
33	0x3e02d786	0.12777528
34	0x3db86043	0.090027355
35	0xbd6fd3cb	-0.05855159
36	0x3d32425f	0.043520328
37	0xbd0684da	-0.03284154
38	0xbc48d69a	-0.012258196
39	0xbc87ea26	-0.016591143
40	0x3ca35168	0.019936278
41	0x3bad767c	0.0052936655
42	0x3d867d77	0.06566899
43	0x3cb1e893	0.021717345
44	0x3dab38bc	0.083604306
45	0xbd395647	-0.045248296
46	0xbdb3a350	-0.08771384
47	0x3c8a8be0	0.0169124
48	0xbdd4bf22	-0.10388018
49	0xbd40698b	-0.046975654
50	0x3dbcab2b	0.09212335
51	0x3c861ecb	0.016372105
52	0xbc5082c7	-0.012726492
53	0xbc6f7fd4	-0.014617879
54	0x3d7b0dd4	0.061292484
55	0xbd899633	-0.06718101
56	0xbc099d09	-0.0083992565
57	0x3dcfa98b	0.1013976
58	0x3d434243	0.047670614
59	0xbd34eae8	-0.044169337
60	0xbd4ea025	-0.050445694
61	0xbca2b143	-0.019859916
62	0x3e383dc9	0.17992319
63	0xbd6e11ff	-0.05812263
64	0x3d4cc942	0.049996622
65	0xbe041f54	-0.12902576
66	0xbcd8325a	-0.026391197
67	0x3c4daccc	0.012553405
68	0x3be36c87	0.0069404277
69	0xbd8ca3b6	-0.06867163
70	0x3d3d0ac6	0.046152852
71	0x3cca2d4b	0.0246798
72	0x3c24c96a	0.0100577865
73	0xbdc6aa4f	-0.097004525
74	0x3b5ad156	0.0033388934
75	0xbd338f7d	-0.043838013
76	0x3cfda728	0.030963495
77	0x3ce269db	0.027638366
78	0xbd86f351	-0.06589378
79	0xbc7f8a21	-0.015596897
80	0x3c7734e4	0.015088294
81	0x3cc20e25	0.023688385
82	0x3dc8d057	0.09805363
83	0x3d11c32f	0.035586532
84	0x3b8cdc65	0.004298734
85	0x3db85a64	0.09001616
86	0x3d1ea53f	0.03873181
87	0x3cee0a36	0.029057603
88	0xbcea6402	-0.02861214
89	0x3dec15b8	0.1152758
90	0x3d98a411	0.07453168
91	0xbd65e22c	-0.056123897
92	0x3dd51345	0.10404066
93	0x3aedd43b	0.0018144915
94	0xba358222	-0.00069239934
95	0x3d225fb5	0.039642055
96	0x3cb4eacf	0.022084622
97	0xbbd3d5a2	-0.006464676
98	0x3cf7bb93	0.03024081
99	0x3d2a0007	0.041503932
100	0xbcda0167	-0.026611997
101	0xbd5b986e	-0.053612165
102	0xbd0b7f53	-0.034056973
103	0xbdbe829c	-0.093022555
104	0xbd881270	-0.06644142
105	0xbcf7e5f8	-0.030261025
106	0x3cea57a7	0.028606249
107	0x3bcf6f0b	0.006330376
108	0xbdd06775	-0.10175983
109	0x3df29576	0.11844914
110	0xbcbe2cb2	-0.023214672
111	0x3d9c2c8c	0.07625684
112	0xbd19aded	-0.037519384
113	0x3daa7365	0.08322791
114	0x3cfcc563	0.03085584
115	0xbdab6fb8	-0.08370918
116	0xbd2f0d4a	-0.042737283
117	0xbc29eb56	-0.01037105
118	0x3d8eef2b	0.069792114
119	0x3bb40db9	0.0054948
120	0xbcac18a3	-0.021007841
121	0x3d8d839d	0.06909869
122	0x3d036cb9	0.032086108
123	0xbd03575e	-0.03206574
124	0x3d21cce9	0.03950206
125	0x3dfee55f	0.12446093
126	0xbbc69010	-0.006059654
127	0x3e033f6e	0.12817165
128	0x3b878e19	0.0041368124
129	0x3cfa2bb4	0.030538417
130	0xbbf9aa5d	-0.007619186
131	0xbddeb40c	-0.10874185
132	0x3c8b3c1c	0.016996436
133	0xbcd4e522	-0.025988165
134	0xbd897366	-0.06711464
135	0x3dd77a36	0.10521357
136	0x3d7ffcdf	0.062497016
137	0xbd0aeeb0	-0.033919036
138	0xbd2ce933	-0.042214584
139	0xbd4fccdc	-0.05073248
140	0xbdec86c3	-0.11549141
141	0x3c9c76c5	0.019099602
142	0xbd279099	-0.040909383
143	0xbc79fe27	-0.015258349
144	0x3d952ac5	0.07283548
145	0x3c136cac	0.008998077
146	0x3d6b7990	0.057488978
147	0x3dd2316d	0.102633335
148	0x3d770d3b	0.060315352
149	0xbc1c3298	-0.009533547
150	0xbe290077	-0.16504084
151	0x3d4f01a6	0.05053868
152	0xbc8292a7	-0.01593907
153	0x3d6fc3cd	0.05853634
154	0x3d48b4d2	0.04900057
155	0xbd3fa32c	-0.046786472
156	0x3b90556b	0.004404714
157	0xbdac9fa5	-0.08428887
158	0x3dadd457	0.08487766
159	0x3d53b8fd	0.05169009
160	0x3da316ac	0.07963309
161	0xbd9ed91c	-0.07756254
162	0x3b4d1d6f	0.0031298061
163	0xbcc2aa07	-0.023762716
164	0xbbabb931	-0.0052405824
165	0x3c0f1415	0.008732815
166	0x3c955384	0.0182283
167	0x3c88466d	0.016635144
168	0xb87766da	-5.8985177e-05
169	0x3dd33fe4	0.103149205
170	0x3dc3ef3e	0.09567116
171	0xbd95fcba	-0.073235944
172	0xbbba6427	-0.0056882086
173	0xbdf10fac	-0.11770567
174	0x3b0be45f	0.0021345837
175	0x3cb7b7db	0.022426536
176	0xbd185c15	-0.03719719
177	0x3d00a581	0.031407837
178	0x3c462b32	0.0120952595
179	0x3e01b33f	0.12666033
180	0xbd9baea0	-0.076016665
181	0x3c29192e	0.010320945
182	0x3e001ef7	0.12511812
183	0xbd360259	-0.044435833
184	0xbdf0a9f1	-0.11751164
185	0x3d373a08	0.044733077
186	0x3c9a7848	0.018856183
187	0x3d83d041	0.06436206
188	0x3da2b431	0.07944525
189	0xbdb2f6ab	-0.087384544
190	0xbd994fde	-0.074859366
191	0x3db05c93	0.08611407
192	0xbddc2d0d	-0.1075078
193	0x3d946e90	0.072476506
194	0xbc9ce178	-0.01915048
195	0xbd58e5da	-0.05295358
196	0x3e076bf5	0.13224776
197	0x3dcc3a1c	0.09972021
198	0x3c0bfe8f	0.008544578
199	0xbb155dae	-0.0022791433
200	0xbd603ee0	-0.054747462
201	0x3db3bd63	0.08776357
202	0x3db99159	0.09060926
203	0x3d091a35	0.03347226
204	0x3db96cd2	0.09053959
205	0xbb899515	-0.00419868
206	0x3caf4028	0.021392897
207	0x3dbb2577	0.09138005
208	0xbd862ae7	-0.06551152
209	0x3c755a01	0.014975072
210	0x3b5d1840	0.0033736378
211	0x3d358d0c	0.044323966
212	0xbc44663a	-0.011987263
213	0x3d82d5fe	0.06388472
214	0xbdd929c7	-0.106036715
215	0xbcea808a	-0.028625745
216	0x3d99e6cd	0.07514725
217	0xbb838efb	-0.0040148473
218	0xbd30a188	-0.0431228
219	0x3b498897	0.003075158
220	0x3ba429a2	0.005009846
221	0xbc8319e7	-0.016003562
222	0x3d79ec7f	0.061016556
223	0xbe320072	-0.17382982
224	0xbba1d145	-0.004938277
225	0xbd3e1b8f	-0.046413
226	0xbbddac85	-0.0067649507
227	0xbd85dce2	-0.06536271
228	0xbccc673a	-0.024951566
229	0x3c69b568	0.014264442
230	0xbd28e80f	-0.041236933
231	0x3d4b4901	0.04963017
232	0xbcdd117d	-0.026985878
233	0x3d90c95c	0.07069656
234	0xbb16e0fa	-0.002302228
235	0xbd1c5587	-0.038167503
236	0x3bda4dc4	0.0066621024
237	0x3df4a060	0.119446516
238	0x3d18f8a7	0.03734651
239	0x3d1f6ef1	0.03892416
240	0x3db032b9	0.086034246
241	0x3caf6324	0.021409579
242	0xbd0b06ca	-0.03394202
243	0xbcafe50b	-0.02147152
244	0xbdd04dd4	-0.101710945
245	0x3cbf090a	0.02331974
246	0x3df3f67d	0.11912248
247	0x3adc4a0d	0.0016806737
248	0xbdb9b98a	-0.09068592
249	0x3e09ed79	0.13469495
250	0x3b573f1a	0.0032844008
251	0x3d8731fd	0.066013314
252	0x3d90741f	0.07053398
253	0xbbf21f8c	-0.0073890146
254	0xbce16a06	-0.027516376
255	0xbd35772b	-0.0443031

network_body.linear_encoder.seq_layers.4.bias f4 [256]
0	0xbbe9d82d	-0.007136366
1	0x3b4169fb	0.0029512632
2	0x3d0087b0	0.0313794
3	0x3ba77a32	0.0051110024
4	0xbba6bffe	-0.005088805
5	0x3bda42d7	0.0066608
6	0xbb554c08	-0.003254654
7	0x3c2005bb	0.009766991
8	0x3c730ef9	0.014835113
9	0xbc1da3ca	-0.00962157
10	0xbcc89a29	-0.024487572
11	0x3c0bfb79	0.0085438425
12	0x3b7de9e5	0.0038744148
13	0xb8a00bb3	-7.631574e-05
14	0x3c834d1d	0.016027981
15	0x3cafd0f8	0.021461949
16	0x3b28beea	0.002574856
17	0x3c5402af	0.012940093
18	0xbcb03650	-0.021510273
19	0xbc143bca	-0.009047458
20	0x3c1bd74c	0.00951178
21	0xbafe27c4	-0.0019390513
22	0x3c9ad313	0.018899476
23	0x3c133b09	0.008986243
24	0xba45ce7b	-0.00075457216
25	0xbb71526b	-0.0036822807
26	0x3c289038	0.010288291
27	0x3bbb7f6c	0.005721977
28	0xba89df35	-0.0010518791
29	0x3c8580e4	0.016296811
30	0x39d0f3f4	0.0003985461
31	0xbc73e8a7	-0.014887012
32	0x3cc8ecee	0.02452704
33	0xbc16f1c0	-0.009212911
34	0x3c197699	0.009366655
35	0xbc4e2b8b	-0.012583624
36	0x3c8e51e3	0.017373031
37	0xbcd4878f	-0.025943546
38	0x3c4ae5fd	0.012383935
39	0x3c4a41ee	0.01234482
40	0xbc807414	-0.01568035
41	0x3c8c7ab5	0.017148355
42	0xbbef124a	-0.0072958814
43	0xbbfc643f	-0.00770238
44	0x3d007478	0.031361073
45	0x3bbdc3a9	0.005791147
46	0x3abbb977	0.0014322241
47	0xbb36d532	-0.002789807
48	0xbc69bf66	-0.014266824
49	0x3b3af3a2	0.0028526564
50	0x3c41ad0a	0.011821041
51	0xbc745345	-0.014912431
52	0x3bd5db31	0.006526374
53	0x3b5aabc5	0.0033366543
54	0xbae58dd8	-0.0017513586
55	0xbc645959	-0.013937318
56	0xbc5a9dfb	-0.01334333
57	0xbb6ca949	-0.0036111644
58	0x3ce4b1c8	0.027916804
59	0xbc9c79be	-0.01910102
60	0x3cc7f4bd	0.024408692
61	0x3b7bff67	0.0038451792
62	0x3a9c2bd5	0.0011914918
63	0x3c5a04b9	0.01330679
64	0xbc8be3df	-0.01707643
65	0xbcb96e6a	-0.022635657
66	0xbca519b2	-0.020153854
67	0xbbe7b4ae	-0.0070710992
68	0xbbb195f5	-0.0054194876
69	0x3c6dc369	0.014511921
70	0xbc83ab4f	-0.016072897
71	0x3bf11f5a	0.0073584737
72	0x3bcc0249	0.0062258583
73	0x3c0bb8d0	0.008527949
74	0xbb748c03	-0.0037314899
75	0xbc151e4d	-0.009101463
76	0xbbd60986	-0.006531897
77	0xbc8c00d8	-0.017090246
78	0x3aaee402	0.0013343098
79	0x384f3929	4.940588e-05
80	0x3b3dc8df	0.002895884
81	0x3c4b40d3	0.012405592
82	0x3c889d85	0.016676674
83	0x3be72e97	0.0070551145
84	0xbbdd6140	-0.006755978
85	0x3b91c018	0.004447948
86	0xbcc318ec	-0.023815595
87	0xbc93f0cf	-0.018059162
88	0x3bb3e953	0.005490461
89	0x3b7dcbd5	0.003872623
90	0x3c3bd515	0.011464377
91	0x3b8e815a	0.004348916
92	0xbca973fa	-0.020685185
93	0xbbb0bb34	-0.00539341
94	0x3ce290e2	0.027656976
95	0x3b2f6df7	0.0026768425
96	0x3c7208bc	0.01477259
97	0x3bdd10bd	0.00674638
98	0x3b29523c	0.002583637
99	0x3cc285dc	0.02374547
100	0xbcba04b2	-0.022707317
101	0xbb84938a	-0.0040459083
102	0xbb85b26d	-0.004080108
103	0xbbaba35b	-0.0052379793
104	0xbcd09cc2	-0.025465373
105	0x3b05a551	0.0020392726
106	0xbc81cd20	-0.015844882
107	0x3cb5700d	0.022148157
108	0x3c366d7a	0.0111345
109	0xbb14bd5d	-0.0022695877
110	0x3c4da9d2	0.012552695
111	0x3c1cb15c	0.00956377
112	0xbc374a17	-0.011187098
113	0x3a948541	0.0011331217
114	0xbc4664a7	-0.012108958
115	0xbc7a1a72	-0.015265094
116	0xbca36fc3	-0.019950753
117	0xbae30e0f	-0.0017322915
118	0xbc8f9a61	-0.017529668
119	0xbc0e5217	-0.008686564
120	0x3c9c1f3d	0.019057864
121	0xbc8807b3	-0.016605234
122	0x3b0ab9e1	0.0021167921
123	0xbc0c75a5	-0.0085729705
124	0x3bb78049	0.0056000096
125	0xbc28540f	-0.010273947
126	0xbbcfcd9c	-0.006341649
127	0xbc47e446	-0.012200421
128	0xbcdea451	-0.027177962
129	0x3afc9387	0.0019270041
130	0x3c450438	0.012024932
131	0xbb92f819	-0.004485142
132	0xbca18353	-0.01971594
133	0x3c585302	0.013203384
134	0x3cc268d0	0.02373162
135	0xbc9b1085	-0.018928776
136	0x3c1c3e6d	0.009536368
137	0xbb102ab6	-0.0021998114
138	0xbcb63c6c	-0.022245608
139	0x3c8bb7fd	0.017055506
140	0xbcd28d97	-0.02570228
141	0x3cc14b16	0.023595374
142	0xb9b6e55d	-0.00034884634
143	0xbc9c06f9	-0.019046294
144	0xbabc4b2f	-0.0014365668
145	0x3b3384c2	0.0027392362
146	0x3c949ca5	0.0181411
147	0x3c39050d	0.011292708
148	0xbb3a2ce4	-0.0028408105
149	0x3c0ea960	0.008707374
150	0x3c0de1bf	0.008659779
151	0xbcc84a9c	-0.024449639
152	0x3cb22ac2	0.021748904
153	0xbcb5a9e6	-0.02217574
154	0xbc526c06	-0.012843138
155	0x3c433fa2	0.011917027
156	0xbbf3353b	-0.007422117
157	0xbc9b1714	-0.018931903
158	0xbca06aff	-0.01958227
159	0x3be2d1a3	0.0069219633
160	0xbcb91f64	-0.022597976
161	0xbc6a807c	-0.01431286
162	0xbc922574	-0.017840125
163	0x3923391e	0.00015566169
164	0xbc26d6a7	-0.010183013
165	0x3c00bf59	0.007858121
166	0xbc4e09cc	-0.012575578
167	0x3b570823	0.0032811246
168	0x3beb2adf	0.0071767415
169	0xbbcfe633	-0.0063445806
170	0xbb18aa08	-0.0023294706
171	0x3ab2413a	0.0013599761
172	0x3c2a444d	0.010392261
173	0x3c52cddc	0.0128664635
174	0xbbc394bd	-0.0059686587
175	0xbc295ab3	-0.010336566
176	0xbca49e18	-0.020094916
177	0x3b8cf8f7	0.00430214
178	0x3bec52e4	0.00721203
179	0x3c662823	0.014047655
180	0x3b6945da	0.0035594613
181	0x3c2c1553	0.010503131
182	0x3cb4b9df	0.022061286
183	0x3b9e9fd0	0.0048408285
184	0xbc96f3d6	-0.018426817
185	0x3cb9d169	0.022682862
186	0xbc9098a5	-0.017650912
187	0x3c7fddac	0.015616816
188	0xbc6b3460	-0.014355749
189	0x3c40b173	0.011761057
190	0xbc054593	-0.008134264
191	0xbc419e95	-0.011817594
192	0x3c338f86	0.010959512
193	0x3bb6253b	0.0055586374
194	0xbca820cf	-0.020523457
195	0x3c88a0bb	0.016678205
196	0xbc6241e4	-0.013809655
197	0x3c485ea0	0.012229592
198	0xbacac281	-0.0015469344
199	0x3ace4297	0.0015736398
200	0x3c247c6c	0.01003943
201	0x3ce78b69	0.028264718
202	0x3c81c79a	0.015842248
203	0xbc33ee49	-0.010982105
204	0x3c85327a	0.01625942
205	0x3c629b34	0.013830949
206	0xbc78edc5	-0.015193407
207	0x3b035a56	0.0020042858
208	0xbcc7d899	-0.024395274
209	0xba41dab1	-0.0007394953
210	0xbba9077a	-0.005158362
211	0x3c12964b	0.008946965
212	0xbc036446	-0.0080195125
213	0x3b559b92	0.0032593948
214	0x3cbdd1c8	0.02317132
215	0x3cafd408	0.021463409
216	0xbb56d01c	-0.0032777851
217	0x3c734510	0.014848009
218	0x3c828f3b	0.015937438
219	0x3c8361b3	0.016037798
220	0x3c076277	0.008263222
221	0x3c8b4493	0.017000472
222	0x3c71eb89	0.014765629
223	0x3cd5c5ce	0.026095297
224	0x3cae72ec	0.021295033
225	0x3bcbeeeb	0.0062235496
226	0xbc6cf269	-0.014462092
227	0x3c4fa550	0.012673691
228	0x3caa154f	0.020762114
229	0x3ce6cc72	0.028173659
230	0x3ca3fc1a	0.020017672
231	0x3bd3557b	0.006449399
232	0x3c7cc182	0.015426995
233	0x3c13ba1c	0.00901654
234	0x3c9bad00	0.019003391
235	0x3c716aa6	0.0147349
236	0x3c057cf2	0.008147465
237	0xba86ac4f	-0.0010274741
238	0xbb295c7b	-0.0025842476
239	0x3b9118d9	0.004428011
240	0x39eb07ad	0.00044828412
241	0xbb50541c	-0.0031788414
242	0x3c26d461	0.010182471
243	0x3baaf2f7	0.005216952
244	0x3c60fb48	0.013731785
245	0x3caaea2e	0.020863619
246	0xbc38936c	-0.011265617
247	0x39ccc69b	0.00039057885
248	0x3c06fe59	0.008239352
249	0x3cfd1c90	0.030897409
250	0x3c9a2072	0.0188143
251	0x3c1eb819	0.009687447
252	0xbc576089	-0.013145574
253	0x3c5f3215	0.01362278
254	0xbcfdaab0	-0.03096518
255	0xbb87b7bf	-0.0041417773

network_body.linear_encoder.seq_layers.4.weight f4 [256, 256]
0	0x3dd0a39b	0.10187455
1	0x3d2324e3	0.0398301
2	0xbdb5d866	-0.08879165
3	0x3d805555	0.06266276
4	0x3b982abc	0.004643766
5	0x3d1b786a	0.037956633
6	0x3de3da7e	0.111256585
7	0x3d7252dd	0.059161056
8	0xbcbe6970	-0.023243636
9	0x3df70293	0.12061038
10	0x3d442958	0.04789099
11	0x3dba8d8c	0.09109029
12	0xbd9dde4c	-0.077084154
13	0x3d972343	0.073797725
14	0x3d8b84eb	0.068124615
15	0x3e074b1d	0.13212247
16	0x3dd91c16	0.1060106
17	0x3d12a725	0.035803933
18	0xbd6679bd	-0.056268442
19	0xbd898da6	-0.067164704
20	0x3dc871fd	0.097873665
21	0xbc11d3fd	-0.00890064
22	0x3daef9cb	0.08543738
23	0x3d66e452	0.056370087
24	0x3c34930e	0.011021389
25	0x3de0fe26	0.10985975
26	0xbd1d9979	-0.03847644
27	0x3d698203	0.057008754
28	0xbd0166fd	-0.031592358
29	0xbac98fbf	-0.0015377923
30	0x3dae8438	0.085213125
31	0xbbbe0665	-0.005799102
32	0xbd3afae7	-0.045649435
33	0x3d415a31	0.047205154
34	0x3e0732c0	0.13202953
35	0xbd8b3296	-0.06796758
36	0x3d0c4175	0.034242112
37	0x3b9dd698	0.0048168413
38	0x3db5224f	0.088444345
39	0x3c9a853d	0.018862361
40	0x3ca23604	0.019801147
41	0xbbf05544	-0.007334383
42	0xbc438a55	-0.011934836
43	0xbd84994c	-0.064745516
44	0x3c4e3475	0.012585749
45	0xbd0c0fe4	-0.034194842
46	0x3db0a43c	0.08625075
47	0x3c95f4f7	0.018305285
48	0xbd7fa621	-0.062414292
49	0x3dc28d7a	0.09499641
50	0xbdb2cf68	-0.08730966
51	0xbc84a7b5	-0.01619325
52	0xbb235f98	-0.0024928804
53	0xbbe2b148	-0.006918106
54	0x3d3ffcb5	0.04687186
55	0x3d956a25	0.07295636
56	0xbce0a555	-0.027422586
57	0xbd61c5db	-0.05512033
58	0xbcd72504	-0.026262768
59	0xbddc3e43	-0.10754063
60	0xbd053c6b	-0.032528322
61	0x3d8da72e	0.069166526
62	0xbdc1ff28	-0.09472495
63	0xbc2b20f2	-0.0104448665
64	0xbdddf672	-0.10838021
65	0x3d190ed4	0.037367657
66	0xbdbfc45e	-0.09363626
67	0x3c0b7061	0.00851068
68	0x3dd684eb	0.10474571
69	0xbd9ed804	-0.077560455
70	0xbe3a7860	-0.18209982
71	0x3d4bb8eb	0.0497369
72	0x3ca86257	0.020554705
73	0xbbc2e2e8	-0.0059474595
74	0x3db838cf	0.089952104
75	0x3d816d2f	0.06319653
76	0xbcf8568e	-0.03031471
77	0xbaade1f3	-0.0013266191
78	0xbd77b49c	-0.060474977
79	0xbc8cf5bd	-0.01720702
80	0x3d58e7e1	0.052955512
81	0xbdb4800a	-0.08813484
82	0xbd0a193a	-0.033715464
83	0xbae4daa6	-0.0017460182
84	0x3cba7a16	0.022763293
85	0x3dddc169	0.10827906
86	0xbb13b411	-0.0022537748
87	0xbd10acab	-0.03532092
88	0x3bb06f21	0.0053843413
89	0xbcc02750	-0.023456246
90	0x3d3a57b7	0.045493808
91	0x3b969cca	0.0045963274
92	0x3e36ec9d	0.17863698
93	0x3d858d4c	0.06521091
94	0x3d063c7f	0.032772537
95	0xbd457555	-0.0482076
96	0xbd01921c	-0.03163348
97	0x3bdbfc2b	0.0067134104
98	0x3d32cab8	0.04365036
99	0xbbb41e0d	-0.0054967464
100	0xbda5e19e	-0.08099674
101	0xbd1d815b	-0.03845344
102	0x3d5d38a7	0.054009106
103	0xbb3f4bce	-0.002918947
104	0xbbb97bec	-0.0056605246
105	0xbd762e18	-0.060102552
106	0x3d26635b	0.040622097
107	0xbd2f9749	-0.042868886
108	0x3d982812	0.07429518
109	0xbdd92d0a	-0.10604294
110	0xbd69badd	-0.057062972
111	0x3d952de0	0.072841406
112	0xbd06f619	-0.03294954
113	0x3dc1f0fe	0.09469794
114	0x3df4e8f5	0.119584955
115	0x3c95da7a	0.018292654
116	0x3b3978b1	0.0028300697
117	0xbd550895	-0.052010138
118	0xbd76878e	-0.06018787
119	0x3c802925	0.01564462
120	0xbdae0c8d	-0.084984876
121	0xbd8cd9fb	-0.06877514
122	0x3d6a0e7a	0.057142712
123	0xbda83a5e	-0.08214258
124	0xbd5a1b32	-0.05324859
125	0xbc10d9ae	-0.008840961
126	0x3d05824b	0.03259496
127	0x3d048646	0.032354616
128	0x3bc72ca2	0.0060783187
129	0x3d60c9fc	0.054880127
130	0xbb22dfbf	-0.0024852601
131	0xbd2858c9	-0.041100297
132	0xbd81fdb5	-0.06347219
133	0xbd910cdd	-0.070825316
134	0x3d3bc3f9	0.04584119
135	0xbc66beb3	-0.014083552
136	0x3d81a5d7	0.063304596
137	0xbdadb04d	-0.08480892
138	0x3c4be8f6	0.012445679
139	0x3d4d6986	0.050149463
140	0x3d3a0cdc	0.04542242
141	0xbd2a26af	-0.041540798
142	0x3c91ed73	0.01781342
143	0xbd940a85	-0.07228569
144	0x3da5b354	0.08090845
145	0xbd765655	-0.060140926
146	0x3dc84c2b	0.09780153
147	0x3dfc48a6	0.12318544
148	0x3d8f5c18	0.06999987
149	0xbd483c0e	-0.048885398
150	0x3d3e9364	0.04652728
151	0x3b3ead0d	0.0029094846
152	0x3ca8f90f	0.020626573
153	0xbd82f49a	-0.0639431
154	0xbde822e0	-0.11334777
155	0x3bfacdb3	0.007653916
156	0xbdd0650e	-0.10175525
157	0xbc96deb8	-0.018416747
158	0x3e01ca81	0.12674905
159	0xbe02a0fe	-0.12756726
160	0xbcb956ca	-0.022624392
161	0x3d8a5f74	0.067564875
162	0xbc7092be	-0.014683424
163	0xbe1ffa30	-0.15622783
164	0xbce358b0	-0.02775225
165	0xbd82f616	-0.063945934
166	0xbbaaffc3	-0.0052184775
167	0xbcfe6b41	-0.031057002
168	0xbdf8b093	-0.12143054
169	0x3bf75d91	0.007548996
170	0x3cb8a93b	0.022541633
171	0x3dcbba7d	0.09947679
172	0xbcc159de	-0.023602422
173	0xbb9e12de	-0.0048240265
174	0xbd328e76	-0.043592893
175	0xbc151ee1	-0.0091016
176	0xbcb104e5	-0.02160878
177	0xbd9ac3b7	-0.07556861
178	0x3cf55f14	0.029952563
179	0x3d493d0f	0.049130496
180	0xbcb230d5	-0.0217518
181	0xbd67953a	-0.056538798
182	0xbc8928c0	-0.016743064
183	0xbd893191	-0.06698907
184	0xbe1576bd	-0.14596076
185	0xbd38454d	-0.044987965
186	0x3ccbe2f6	0.024888497
187	0xbcdf9b5f	-0.027295766
188	0xba361560	-0.0006945934
189	0xbd54ec24	-0.051983014
190	0x3cd8bf49	0.0264584
191	0x3d00d37c	0.031451687
192	0x3dd543b3	0.10413303
193	0xbd9f1958	-0.07768506
194	0x3d542edf	0.051802512
195	0x3b1fe1f7	0.002439616
196	0xbd2c3305	-0.042040844
197	0x3d3b4f25	0.045729775
198	0x3beb0976	0.0071727587
199	0x3dae396d	0.08507047
200	0x3a2ed6dc	0.000666959
201	0x3d2b36bc	0.041800246
202	0x3d876790	0.0661155
203	0xbdb84087	-0.089966826
204	0x3becdf1f	0.0072287465
205	0x3d0849c9	0.033273492
206	0x3d40dfe2	0.04708851
207	0x3cf69bfc	0.030103676
208	0xbb24a2cb	-0.0025121446
209	0xbc941fe2	-0.01808161
210	0x3c807515	0.015680829
211	0xbd8a74ac	-0.06760535
212	0x3ceb066f	0.028689591
213	0xbd8985cd	-0.067149736
214	0xbd74e420	-0.05978787
215	0xbc922774	-0.017841078
216	0xbc7ab1a0	-0.015301138
217	0xbdf6404f	-0.12023985
218	0xbdac866e	-0.08424078
219	0xbd23dcc2	-0.040005453
220	0x3d4cfb94	0.05004461
221	0xbd26cf86	-0.040725254
222	0x3bee59c2	0.0072738836
223	0x3d601359	0.05470595
224	0xbd23d781	-0.040000442
225	0xbd6472f2	-0.055773683
226	0xbdd9d55c	-0.10636398
227	0x3d4fa681	0.0506959
228	0x3dc13250	0.094334245
229	0xbd26c37b	-0.04071377
230	0xbb149c2b	-0.0022676091
231	0x3d99094c	0.07472476
232	0x3d078208	0.03308299
233	0xbcb23ff1	-0.021759005
234	0xbcb3a7af	-0.021930544
235	0xbcd725ec	-0.0262632
236	0xbdc796a9	-0.09745533
237	0xbc421a29	-0.011847057
238	0xbccaf762	-0.024776164
239	0xbdbe20dd	-0.09283612
240	0xbba65b6e	-0.0050768172
241	0xbc121769	-0.008916714
242	0x3ca7e834	0.020496465
243	0xbce62243	-0.02809251
244	0x3d1ac0fd	0.037781704
245	0x3d7aed63	0.061261546
246	0x3d82a810	0.06379712
247	0xbda6e6b7	-0.08149474
248	0x3d74035f	0.059573527
249	0xbbc6653a	-0.0060545476
250	0xbda22299	-0.07916755
251	0xbccc2258	-0.02491872
252	0xbd1e7c9c	-0.038693056
253	0xbd06b5ed	-0.03288834
254	0x3e4b7971	0.19870545
255	0x3d97cba4	0.07411888

network_body.vector_processors.0.normalizer.running_mean f4 [24]
0	0x00000000	0.0
1	0x3da80496	0.08204
2	0x00000000	0.0
3	0x3db88e36	0.090114996
4	0x00000000	0.0
5	0x3da189be	0.078876
6	0x00000000	0.0
7	0x3dbcd49c	0.092202395
8	0x00000000	0.0
9	0x3d9dc3b8	0.07703346
10	0x00000000	0.0
11	0x3db574bb	0.08860155
12	0x00000000	0.0
13	0x3da0adbf	0.078456394
14	0x00000000	0.0
15	0x3da66471	0.081246264
16	0x00000000	0.0
17	0x3da66472	0.08124627
18	0x3e941491	0.2892194
19	0x3e134b6e	0.14384243
20	0xbda95585	-0.08268265
21	0x40059f5a	2.087851
22	0x3e2c6f4c	0.16839331
23	0xbc0ec485	-0.008713846
