results/2022_0313_1526/Fight/Fight-499973.pt (torch, 508871 bytes, 33 tensors)

network_body.linear_encoder.seq_layers.0.weight f4 [128, 28]
000000 32 99 03 3e 23 a1 fd bc f8 75 85 3e 03 07 53 3e
       0.12851408 -0.030960625 0.26066566 0.20608144
000010 eb 1a a1 bd 22 27 9d be 85 61 79 3e d6 58 9d bd
       -0.07866462 -0.30693918 0.24353607 -0.0768296
000020 29 97 a6 3e 13 64 13 3e e0 2c 9d bd 92 7b fc bc
       0.325372 0.14393644 -0.07674575 -0.030820642
000030 22 82 c5 be d1 ca 02 3c 72 b5 ac 3d 31 65 3b 3e
       -0.38575846 0.0079829255 0.084330454 0.1830032
000040 bd a8 96 bc bb 08 b9 3e ca 10 7b be 1b 21 81 3c
       -0.018391008 0.36139473 -0.24518123 0.015762856
000050 77 3a 0a be d7 33 38 bd ee 19 e2 bd 6e 91 32 3e
       -0.13498865 -0.044971313 -0.11040102 0.1743829
000060 db 41 28 3e 1e ba e4 bd b2 ba ac 3d 99 5e 15 3e
       0.16431372 -0.111683115 0.08434047 0.14586867
000070 8f d4 a9 3d 24 df 98 bc 12 ce f7 bc ab 7f 61 be
       0.082924955 -0.01866109 -0.03024963 -0.22021358
000080 c7 36 a2 3e d8 4c d9 bd c1 2e 31 3d 68 51 33 3d
       0.31682417 -0.1061036 0.04325748 0.043778807
000090 6b 3e 8c 3e e5 54 77 be 7d 23 8b bd 54 eb 95 3d
       0.2739137 -0.24153478 -0.06793878 0.07320276
0000a0 3b 42 13 3e 63 60 43 3c f7 47 0b 3e 81 5a 2c bd
       0.14380734 0.011924836 0.13601671 -0.0420785
0000b0 f1 2f b6 bd 4b 5c 94 3e b0 0c 15 3c 7d a1 33 be
       -0.08895863 0.28976664 0.009097263 -0.17542072
0000c0 80 9b b0 be 30 2f 03 be 92 be 78 3c 04 d7 2c 3e
       -0.34493637 -0.1281097 0.015182154 0.16878897
0000d0 c7 1f 9c 3b ee a5 bc bd 3a 8c c8 be 5e c4 d0 3d
       0.0047645303 -0.09211336 -0.39169484 0.10193704
0000e0 d7 56 a1 3d b8 12 2f 3e e3 04 d7 3d fb 54 ff 3d
       0.078778915 0.17096984 0.10498979 0.124673806
0000f0 4b b1 08 be 8a d2 e2 bd 86 9f 84 3e 4c 93 37 bc
       -0.13348882 -0.110753134 0.25902957 -0.011204552
000100 de 82 9d 3e 95 32 35 bd 7f 4f 6f 3e fb e6 9f bd
       0.30763906 -0.044237692 0.23370169 -0.07807728
000110 3d 5e 70 3e bc 0d 99 3e 0d 95 08 3f 00 0b a5 be
       0.23473449 0.2989329 0.53352433 -0.32234955
000120 e5 cf 84 3c 20 75 d6 bc 4b 00 0d be 5a 26 4c be
       0.016212413 -0.026178896 -0.13769643 -0.19936505
000130 57 85 da bb 56 20 dd be 5e 3f ac bd 16 97 97 be
       -0.0066687274 -0.43188733 -0.08410524 -0.29607457
000140 75 cc d4 bc d1 48 9a 3e 28 62 77 be e8 fa 59 3e
       -0.025976399 0.3013368 -0.24158537 0.2128712
000150 82 4d 4a be e3 59 b0 be 2c 91 9f 3e d9 c8 81 be
       -0.1975613 -0.34443578 0.31165445 -0.25348547
000160 d8 53 cd bd 3d 01 bd bd a7 37 08 be 3c a2 11 be
       -0.100257576 -0.09228752 -0.1330248 -0.14222044
000170 44 f2 f1 3d 91 8a 99 3e ca 24 87 3c 40 b3 23 3e
       0.118137866 0.2998853 0.016497035 0.15986347
000180 e3 01 82 bd 63 92 91 3d 73 e0 1d be 91 e7 3a bc
       -0.06348016 0.07107999 -0.15417652 -0.011407749
000190 ac 0b 11 3d bf 80 a4 3d 80 49 2c 3e 56 98 80 bd
       0.03541152 0.08032369 0.16824913 -0.06279056
0001a0 e1 1e 42 b9 d3 8e 66 3e 2a 56 a2 be 6c 47 ec 3d
       -0.00018512785 0.2251542 -0.31706363 0.1153706
0001b0 97 5d 14 be dd 30 a3 3d 93 9d ef 3d 6f 0e 44 be
       -0.14488827 0.07968304 0.11699977 -0.19146131
0001c0 ac 43 8d 3d 5b 56 a8 bc a0 f2 81 3e 8c 8a 8d 3e
       0.06897673 -0.02054899 0.2538042 0.27644765
0001d0 35 78 3e be 1f 8a 89 3e f3 b3 70 bd db 2a 20 3e
       -0.18600543 0.2686319 -0.058765363 0.15641348
0001e0 49 ba 6f 3d 4f 3a a1 3e bd 2f 1b 3e 8b b2 b5 bd
       0.058527265 0.31489798 0.1515493 -0.08871945
0001f0 4b e6 54 3d de cb 4a bd cd 7b 87 3e dc 17 88 be
       0.051977437 -0.04951083 0.2646164 -0.26580703
000200 8d e6 f8 bd e0 f1 84 bc f3 f7 a7 bd a3 19 9e be
       -0.12153349 -0.016228616 -0.082015894 -0.30878934
000210 16 da c2 3c 0c 0f 25 be ff 95 25 be 84 32 3d be
       0.023785632 -0.16119021 -0.161705 -0.18476301
000220 e1 27 cb be 48 8c 00 3e 32 0e c6 bd 48 3d 4b bc
       -0.39678863 0.12553513 -0.09670676 -0.012404747
000230 ed 24 ea bc 0d 3c 41 3d 75 f8 27 be 66 32 88 3e
       -0.02858206 0.04717641 -0.16403373 0.2660095
000240 27 e0 5f be 28 16 4d bd 19 48 9c bd de 7e a4 bd
       -0.21862851 -0.050069958 -0.07630939 -0.080320105
000250 59 7a 33 be e8 60 7d bc 63 be 80 be f3 27 79 3e
       -0.1752714 -0.015464999 -0.25145254 0.24331646
000260 1d 82 3b bf f5 f8 40 3e f9 3d 0a 3f 60 09 65 bd
       -0.7324541 0.1884497 0.5400081 -0.055917144
000270 59 8d 19 be 0e c2 a1 3d 33 a8 83 3d 87 3d 82 3e
       -0.14995326 0.07898341 0.06428566 0.25437567
000280 90 8f 98 3d 32 aa b7 bc bb 68 d2 3e e2 4f 51 3e
       0.074492574 -0.022420023 0.41095528 0.20440629
000290 f7 28 c3 be d8 f8 20 3e ca 59 29 3e 32 50 62 bd
       -0.3811719 0.15719926 0.16538158 -0.05525226
0002a0 9f 1a 7d 3e 61 bf 8e 3e 2c b0 98 be 13 83 ee bc
       0.24717186 0.27880386 -0.29821908 -0.029115235
0002b0 6e a4 81 3d f7 ca fe 3c 4e dd 3a 3e 85 c5 82 be
       0.063301906 0.03110264 0.18248484 -0.2554132
0002c0 5e a5 0c bd 3b 13 06 3e e9 c3 bc 3e 12 07 77 3e
       -0.034337394 0.13093273 0.36868218 0.24123791
0002d0 b3 c1 58 be ee be 09 3e 14 bf 36 3e 9e 32 8d bd
       -0.2116764 0.1345174 0.17846328 -0.0689442
0002e0 23 db ee bc 33 12 da 3d b9 7f d8 3d 6f ca 88 bb
       -0.029157227 0.106480025 0.10571236 -0.0041745226
0002f0 7c 3f 33 3e 93 db 97 bd 74 ab 7a 3e 86 36 d1 3e
       0.17504686 -0.07414927 0.24479467 0.4086191
000300 01 a7 e5 3c d1 02 ac be 83 9e 12 3e 47 79 06 3e
       0.028033735 -0.335959 0.1431828 0.13132201
000310 d1 58 ac 3e 59 e6 18 3d c0 45 f9 3c 31 8a e9 bd
       0.33661512 0.03732905 0.030428767 -0.11403311
000320 65 7b 28 bd c9 cf 85 3d cb 14 0e 3e fb 6a f8 bd
       -0.041133303 0.065337725 0.1387512 -0.1212978
000330 8a 08 2d 3e 17 2b 82 3e 8f c3 8f 3e 93 24 a1 bd
       0.16897789 0.254235 0.28078887 -0.07868304
000340 be c9 3a 3d 1f cf bf 3d 8c 9a 49 be d0 3d 5d 3c
       0.045602553 0.09365677 -0.19687861 0.013503507
000350 ad 64 07 3e bc b9 86 3d 8a ed 74 3e 99 72 e3 bd
       0.13221999 0.06578395 0.23918739 -0.11105842
000360 89 51 28 3e 52 7a 27 bf 03 a6 4c be d8 6d 84 be
       0.16437353 -0.6542102 -0.19985203 -0.25865054
000370 bd 43 9f bc b2 9a 93 be 59 91 aa be 87 11 0f be
       -0.01944148 -0.2882896 -0.33314016 -0.1397153
000380 b5 b5 ba 3d f4 9e 59 3e 38 d3 48 bd 9c 3f ae bd
       0.09116689 0.21252042 -0.04902956 -0.08508226
000390 f6 ca aa 3d 1a d6 20 3d 65 47 c8 bd e3 65 46 be
       0.08339493 0.039266683 -0.097792424 -0.19374804
0003a0 45 3b 2b be b8 b9 d4 3e 11 54 be bc 7b 59 3b 3d
       -0.16721828 0.41547942 -0.023233445 0.045739632
0003b0 af e2 62 3a ec 84 24 3e 76 80 a1 3e 0b fb 26 3c
       0.00086549943 0.1606633 0.3154332 0.010191689
0003c0 60 f6 3b bd f7 9a 7f be 36 3c 78 bd e3 db fd bd
       -0.04588926 -0.24961458 -0.060604297 -0.12395456
0003d0 67 c2 c6 be 35 75 29 3e 00 c9 c7 be 30 35 02 bd
       -0.38820192 0.16548617 -0.39020538 -0.031789005
0003e0 70 59 22 3d 9d ad 8e bd 5d 1d 8e 3e 44 09 65 3d
       0.039636075 -0.06966708 0.27756777 0.05591704
0003f0 f4 f2 ad 3e 1f b7 d4 bd d1 cb 5a be 1b 98 cb 3c
       0.3397442 -0.1038649 -0.21366812 0.024852803

network_body.linear_encoder.seq_layers.0.bias f4 [128]
000000 09 03 56 3c 13 9c fb 3a 21 8c 9c 3b 24 b8 b6 3a
       0.013062247 0.0019196294 0.004777447 0.0013940376
000010 a2 64 2e bb 58 ca ba 3b f9 9f 16 3c e1 a1 a8 3c
       -0.0026610275 0.005700391 0.009193414 0.020585002
000020 92 93 3b 3a 2e be db 3c e7 b0 ef 3c fb 57 48 3c
       0.00071554736 0.026824083 0.029259158 0.012228007
000030 13 79 73 3b 13 0a a9 3b 1c d7 a1 3b 1d 38 50 3b
       0.0037151023 0.0051586716 0.004938973 0.0031771727
000040 c4 7b 4b 3c 6d 84 a9 3b a2 a4 9c bc 30 ab b8 bb
       0.012419645 0.005173257 -0.019121472 -0.0056356415
000050 c1 bb fe 3b d8 bc d2 bc 70 a6 95 bb d9 a0 57 bb
       0.007773847 -0.025724813 -0.00456696 -0.003290227
000060 e0 72 8d 3c 60 19 1b 3c 1a 1b f3 3b a7 8f b2 3c
       0.01726669 0.009466499 0.0074190022 0.021797014
000070 89 e8 a8 3b 61 b1 47 3b 4a f9 81 3c 79 f4 34 3c
       0.0051546735 0.0030470716 0.01586594 0.011044615
000080 86 55 ac 3c e6 4c 88 3c de 81 8e 3c 5b b8 b9 3c
       0.021036875 0.01663823 0.01739591 0.022670915
000090 82 37 79 3c e8 99 5b 3c 7d 84 b1 bc 9d f2 76 3c
       0.015210988 0.013403393 -0.02166962 0.015072492
0000a0 de 95 ce bb 12 28 d9 3b 25 d3 b0 3c 53 3a 61 bb
       -0.0063044867 0.006627091 0.021585057 -0.003436704
0000b0 95 a8 91 3b 8c cd ad 3c 95 97 a6 bc 0c 2b 15 bc
       0.0044451454 0.021216176 -0.020335952 -0.009104501
0000c0 e1 ad 53 3c 91 f5 84 3c cd 7c dc 3c 73 51 a0 3b
       0.012919874 0.016230376 0.026914978 0.004892522
0000d0 b1 58 12 3c e1 df b1 ba e4 8a 08 3c 84 76 57 3c
       0.0089322785 -0.001357075 0.008333895 0.013150815
0000e0 bd 44 02 3d 69 7a df bb b9 ef e6 bb 4c a6 04 bb
       0.031803835 -0.0068200123 -0.00704762 -0.0020240722
0000f0 25 8e 93 bb ee d2 43 3a 7b 4e 3d 3c 24 27 d6 3c
       -0.004503029 0.00074700906 0.011554356 0.02614171
000100 ad f6 80 3c 90 93 2f bb 2f 27 bc 3a 5c 28 a9 ba
       0.015742624 -0.0026790835 0.0014354939 -0.0012905705
000110 f6 33 01 3a f9 80 b1 bc 43 2d b4 3c 96 8e 20 3c
       0.0004928702 -0.021667944 0.021994239 0.00979962
000120 1d 79 4a bc a8 ea 00 3c b1 7c 5d bb 85 f9 59 3c
       -0.012357977 0.007868446 -0.0033796246 0.013304119
000130 0e 1c 1b 3c 1a 89 5d 3c a7 47 78 3c 5d 65 0a 3c
       0.009467138 0.013521457 0.015153802 0.008447018
000140 71 f3 50 3c a8 11 54 3c f2 7b 3d 3c 38 5d cf 3b
       0.012753353 0.012943663 0.011565195 0.006328251
000150 74 a2 ab 3c 3f ad 84 bc 8c 3f 35 bc df 2f e1 3b
       0.020951487 -0.016195891 -0.011062514 0.0068721618
000160 56 f7 fa bb 67 82 e0 3c 17 d2 6e 3c 26 de 78 3c
       -0.0076588793 0.02740593 0.0145764565 0.015189683
000170 fd df d5 3b ea 28 35 3c 6b f3 f9 bb 9c 90 15 3c
       0.0065269456 0.011057118 -0.0076278946 0.009128716
000180 14 5d 86 3c 7f 74 a9 bc 56 1e af 3c ca 65 92 bc
       0.016401805 -0.020685432 0.02137677 -0.017870802
000190 27 84 ab bc e9 2a 3e 3b 38 84 d6 3b ec a3 00 3b
       -0.020937039 0.0029017276 0.0065465234 0.0019628955
0001a0 10 33 45 3c c4 b9 8a 3c 7b e6 ec ba 39 2a df bb
       0.0120361 0.016934283 -0.001807406 -0.0068104533
0001b0 f5 3b f5 ba d1 a5 38 bc 43 db b6 3b de db c2 bc
       -0.0018709885 -0.011270002 0.0055803373 -0.023786481
0001c0 be b4 8e bc 75 6c 25 3d 86 a8 37 3b ba 66 12 bc
       -0.017420169 0.040386636 0.0028024032 -0.008935625
0001d0 21 41 98 3b ba 42 99 3b 59 23 ca 3b 72 0a 09 3d
       0.004646436 0.004677144 0.0061687646 0.033457227
0001e0 38 d3 6b b9 c9 5e 25 bb ad 22 a1 3c 2c d1 4b 3c
       -0.00022490032 -0.0025233498 0.019669855 0.012440007
0001f0 83 a7 4f 3d 97 e1 e8 3c 3e b4 06 3d 97 66 3f 3c
       0.05069686 0.028427882 0.032886736 0.011682174

network_body.linear_encoder.seq_layers.2.weight f4 [128, 128]
000000 c0 c1 49 3d 9d 15 af bd 4b fb af be 65 fd 29 3d
       0.04925704 -0.08549044 -0.3437141 0.04150142
000010 96 89 43 bd df b3 e0 3c b7 49 97 3c 47 e7 bb bd
       -0.047738634 0.02742952 0.018467767 -0.09174972
000020 7f 48 0a 3e f6 3b 04 be ba 71 ba bd 13 bd 2e bd
       0.13504218 -0.12913498 -0.09103723 -0.042660784
000030 9b 9c b1 3d 36 62 e9 bd 75 39 70 3c 86 3d 6d bd
       0.08672448 -0.113956854 0.014662136 -0.05792
000040 ef 3c b4 3d ed dc 2e be 08 04 5f bd 93 9b c1 bc
       0.08800685 -0.17076464 -0.054447204 -0.023633754
000050 b5 c9 69 3d c2 ba b7 bb e5 da 26 bd 68 8e fc 3d
       0.05707713 -0.00560698 -0.040736098 0.12331849
000060 64 42 97 3d a0 d4 49 3c 13 2c 93 3d 1a 06 3e bd
       0.0738571 0.01231876 0.07186141 -0.046392538
000070 53 d9 0a be 9b cf 46 bd a4 5a ce 3d 3e e7 aa 3c
       -0.13559465 -0.04853783 0.10075882 0.020862218
000080 73 d7 f7 3c f0 43 ee 3d ab 9f 25 bd ff 98 c2 bc
       0.030254101 0.11634052 -0.040435474 -0.023754595
000090 90 90 a7 3d 37 45 7e bd 22 9b e9 bc e8 62 0c 3b
       0.0818187 -0.062077727 -0.028516356 0.0021421257
0000a0 ed eb 46 bd 93 0b 87 bd 94 8d 4a 3e 87 a9 39 bd
       -0.04856484 -0.065940045 0.1978057 -0.04532769
0000b0 7b 4d 4b 3e b9 84 92 bc de ba 9d 3d 93 b1 e8 3d
       0.19853775 -0.017885553 0.07701658 0.113619946
0000c0 3b 90 c1 bc b8 3a 6f bd 46 54 44 bd bd ea b5 3d
       -0.023628345 -0.058405608 -0.047931932 0.088826634
0000d0 76 b3 35 3d 77 c4 d4 3b 53 e4 ef bc fa a2 44 bc
       0.0443606 0.006493147 -0.029283678 -0.012001747
0000e0 19 2a b4 bc 79 66 87 3d d3 4c 41 bd 11 58 cd 3d
       -0.02199273 0.06611342 -0.047192406 0.10026563
0000f0 d8 13 40 3d 6d 8f d8 3d 34 8a 46 be 03 31 df 3d
       0.046893924 0.10574231 -0.19388658 0.1089802
000100 3a e0 c6 bd 04 d4 cd 3c fe 6a ca 3c 30 2c 4d bd
       -0.097107366 0.025125511 0.024709221 -0.05009097
000110 16 0e f9 3b 89 c6 86 3d f8 35 93 3d 41 2d 5a 3d
       0.007600556 0.06580836 0.07188028 0.053265814
000120 73 88 e6 3d 56 f1 62 bd c6 34 74 3d 00 c9 0a 3e
       0.112564944 -0.055405937 0.05962064 0.13553238
000130 6b 89 12 3d 29 0c 0a 3e 86 94 ce 3d 9a ff e2 bd
       0.035775583 0.13481201 0.10086922 -0.110839084
000140 16 b8 22 be 72 45 27 3d 31 37 30 bd 9e ac e7 bd
       -0.15890536 0.040837713 -0.043021385 -0.11312221
000150 de 5b 28 3d 6c bc ee ba 0f 34 9c bd a1 35 02 3e
       0.041103236 -0.0018214113 -0.07627117 0.1271577
000160 e0 8f 0d 3e ee e3 2b 3d 75 6f 99 3d 69 ac b0 bd
       0.13824415 0.041965418 0.07491962 -0.08626635
000170 d8 0e dd 3d 5b 57 fb bd 64 82 01 3c 10 56 ac 3d
       0.10793847 -0.12272521 0.007904623 0.084148526
000180 35 51 db bd 0d 7d 49 be f9 1d f1 bb cf c4 3f bd
       -0.107088484 -0.1967661 -0.0073583093 -0.04681855
000190 ba 80 af 3d 4a 69 d6 bc 88 ac ee bd 8c 57 97 3c
       0.085694745 -0.026173253 -0.116540015 0.018474363
0001a0 eb 7b a4 bd 28 6e 26 be ea b6 45 3d 5e a2 89 3d
       -0.08031448 -0.16252959 0.048270144 0.06720422
0001b0 3c df 7f 3c f4 a7 0c 3d 71 d1 e8 3c 95 a9 79 bd
       0.015617188 0.03433986 0.028420182 -0.06095274
0001c0 aa b8 af 3d 94 c4 f9 bd ac 4a 46 3d bd 83 a9 3c
       0.08580144 -0.121956974 0.048411056 0.0206927
0001d0 25 54 49 bd 68 44 24 bd 0f 08 95 3d 7f 24 39 bd
       -0.049152512 -0.0401043 0.07276928 -0.04520082
0001e0 3e 15 12 be 19 92 5e 3d 5d 8b cf bd 9d df bd 3d
       -0.14265916 0.05433855 -0.10134003 0.092711665
0001f0 06 c2 50 bd 46 73 eb 3c c2 34 00 bd 07 c0 66 bd
       -0.050966285 0.02874149 -0.031300314 -0.056335475
000200 63 18 c7 bd b9 bd 2b bc db aa e1 bd 10 57 e3 bd
       -0.09721448 -0.010482245 -0.11018916 -0.1110059
000210 4c bb 0e 3b 5d bb 41 bd 99 ba 11 3d 80 a6 99 bd
       0.0021779118 -0.047297824 0.035578344 -0.075024605
000220 65 54 9b 3d 2c 24 6e 3b 61 1f 80 3d b1 b4 4f bd
       0.07584456 0.0036337478 0.06255985 -0.05070943
000230 22 ee ba bd fd 0d 44 be 9e d4 ca 3d aa f9 2e 3d
       -0.091274515 -0.19145961 0.09903835 0.042718567
000240 5f 02 a9 bd c4 3e 48 3d 4d b7 c1 3d 97 57 b6 3d
       -0.082524054 0.048887983 0.0945879 0.08903425
000250 1b 52 67 3d 84 0d 3c be bb d8 82 3d a2 fe 61 3b
       0.056474786 -0.18364531 0.06388994 0.0034484048
000260 38 57 b6 bc 85 44 57 bd f6 7b 9e 3c b1 03 36 be
       -0.022258386 -0.05255558 0.019346219 -0.17774846
000270 b1 c1 6c 3e 36 f2 c4 bc 6f 31 19 bd 68 95 b2 bc
       0.23120762 -0.024041276 -0.03740066 -0.021799758
000280 da d3 6b bd cc 69 c8 3d 1d b5 00 3d e8 04 65 be
       -0.057575084 0.09785804 0.031422723 -0.22365153
000290 39 1d 67 3c 54 bb 67 bc 07 20 31 bd 2b fb 83 bd
       0.014106088 -0.014143784 -0.043243434 -0.06444391
0002a0 f1 fe 42 bd dd 22 39 3e f4 57 86 3b ad cb 9d 3d
       -0.047606412 0.18079706 0.0040998403 0.07704864
0002b0 6b b5 ac 3d 13 c4 d2 bd 7a 37 af bd 33 c8 a9 3b
       0.0843304 -0.102913044 -0.08555503 0.0051813363
0002c0 ed de 6a 3c f6 53 5f 3c 3d 2c 0c 3e ec 79 ca 3d
       0.014335376 0.013630858 0.1368875 0.09886536
0002d0 dc 47 b5 bd 8b fc 0e bd 91 81 57 3e 3a 0f 66 bd
       -0.08851597 -0.034908812 0.2104552 -0.056166865
0002e0 f9 85 dc bc 53 98 7b 3d ae 69 8b bc ee d4 d7 3c
       -0.026919352 0.061424565 -0.017018165 0.02634665
0002f0 87 d4 d2 bd 94 18 d8 bd 6a fd fd ba c6 c3 3d bd
       -0.102944426 -0.10551563 -0.0019377891 -0.046329282
000300 0d 9a 07 bc b3 5c 1c 3d 2a e0 c3 3d d3 41 3a 3c
       -0.008276475 0.038174342 0.0956424 0.011368233
000310 75 bf 43 3d 03 c5 1b 3e 48 a0 fa 3d 15 42 30 3e
       0.04779001 0.15211873 0.122376025 0.17212708
000320 83 b0 40 bd ba 7d 5f 3d d1 5d 5b bd 29 21 b5 3d
       -0.047043335 0.05456326 -0.053556267 0.088442154
000330 ff e5 b4 bd af ab 34 bc 21 56 87 3d 9e aa 2a 3e
       -0.08832931 -0.011027261 0.06608225 0.16666648
000340 b4 a7 7b bd 4f ff a2 bd a8 cd 12 be fb a5 8d 3d
       -0.06143923 -0.079588525 -0.14336264 0.06916424
000350 b6 49 68 bd 01 de a3 3d 2c c5 e3 3d d8 ad ae bd
       -0.05671092 0.08001328 0.11121592 -0.08529252
000360 63 75 e1 bd 23 03 78 be f8 4a 82 3d 10 7e 9e bd
       -0.11008718 -0.24219947 0.063619554 -0.07738888
000370 61 42 f9 3d f2 a0 17 bd 9b 2f bd bc 6a b4 01 be
       0.12170864 -0.037018724 -0.02309399 -0.12666479
000380 3f c1 a7 bd b7 6a 88 3c bf 91 ce 3b 26 ca 12 b9
       -0.08191156 0.016652448 0.0063039954 -0.00013998951
000390 06 10 a4 bd f9 69 15 bd 7b e6 a0 bd 8b 88 3b 3e
       -0.08010869 -0.036478017 -0.07856461 0.18313806
0003a0 03 a2 3f 3d ce 05 8a bd ac 8b 69 bd 2a 34 e5 3c
       0.046785366 -0.067393884 -0.057017967 0.027978975
0003b0 24 8b 01 bd ee 7b 05 3e a7 d3 db 3d 0c fa 14 bd
       -0.031626835 0.13035557 0.10733729 -0.036371276
0003c0 e4 68 96 3c 58 cf 00 bd ca 90 43 3d fc 99 9d bd
       0.018360563 -0.03144774 0.047745503 -0.07695386
0003d0 9f e4 54 3e b8 8e 4b 3d 87 e5 c2 3d 0b e1 d7 3d
       0.20790337 0.049696654 0.09516435 0.105409704
0003e0 c2 03 62 bd e6 65 a8 3c 21 a0 0d bd 5f 96 0d be
       -0.055179365 0.020556401 -0.03457654 -0.13826893
0003f0 0a bd 57 be 54 eb c7 3d 35 86 8f bc 71 b2 53 3d
       -0.21068206 0.09761682 -0.01752005 0.051683847

network_body.linear_encoder.seq_layers.2.bias f4 [128]
000000 ef 59 14 3a ac b4 0c 3c 1a b6 67 bc 48 a4 a9 3b
       0.0005659153 0.008587997 -0.0141425375 0.0051770546
000010 a8 37 c0 3b f9 70 51 3c a4 95 95 bb 6a ad 42 3c
       0.0058660097 0.012783282 -0.0045649577 0.011882165
000020 3d 8e a3 bc cd 39 34 bc ba fb 1b bc b1 4e b5 bb
       -0.019965285 -0.011000109 -0.0095204655 -0.0055330624
000030 dc 42 a4 3c af 21 9b 3b fb d5 72 3c 20 96 ab bb
       0.020051412 0.00473424 0.014821525 -0.005236402
000040 53 c1 16 3c a4 f3 8c 3b 67 eb 85 3b aa b5 3b bb
       0.0092013655 0.004301505 0.0040869 -0.0028642216
000050 61 c5 ad 3b 41 a6 61 bc 5e 3b a9 3a e1 84 e7 3b
       0.0053030704 -0.013772548 0.001291137 0.007065401
000060 78 24 38 3c a7 bb b8 bb c9 9d 54 3c 46 66 37 3c
       0.011239164 -0.0056376043 0.012977072 0.0111938175
000070 dc 6a 6f 3b ef a4 77 3c 00 3d 8c 3c 81 b6 14 3c
       0.00365322 0.015115007 0.01711893 0.009076715
000080 e6 03 5a 3c e4 c1 7d bc 24 df 82 bb 51 65 c8 3c
       0.0133065935 -0.015488122 -0.0039938856 0.024462374
000090 d3 48 0f 3a cb fc e5 bb 74 4b 08 3c 80 e6 2a 3b
       0.0005465869 -0.0070186607 0.008318771 0.002607733
0000a0 ce b8 d6 3b 87 d4 43 bb 50 a8 34 3c a8 98 1e bb
       0.006552792 -0.0029881315 0.011026457 -0.0024199877
0000b0 af ce 41 3c c9 a1 3a bc 85 52 48 3c ae ba 8b 3c
       0.011829062 -0.011391112 0.012226705 0.01705679
0000c0 77 3a 20 3c 34 a0 33 3c 85 8e ed 3b c8 32 9d 3c
       0.009779564 0.010963488 0.0072496557 0.019189253
0000d0 b2 60 bb 3b ea 7a d4 bb dc d2 fd ba f1 7c 82 3b
       0.005718314 -0.006484379 -0.0019365209 0.0039821793
0000e0 4d f8 cd 3c b5 4c 43 3c 5b 5b de b9 75 de 89 3c
       0.025142813 0.011920144 -0.00042411205 0.016829709
0000f0 73 52 60 bc c2 69 37 bc c0 ae a2 bb 6f d8 17 3c
       -0.013691532 -0.011194648 -0.0049646795 0.00926791
000100 1c 5c bc 3b c7 83 b5 ba 36 37 66 3c 16 a1 aa bb
       0.005748285 -0.0013848477 0.014051249 -0.005207191
000110 aa a0 92 bb a1 7f 12 3c 2f db 39 3c fb b1 c2 3c
       -0.004474719 0.008941562 0.011343761 0.023766508
000120 cb fd f4 3b 80 81 af 3b 5b ec 41 bc cd 42 97 bc
       0.0074765435 0.005356014 -0.011836137 -0.01846447
000130 7b e1 30 bc 2a e1 2d 3c a2 69 78 3c 1a d6 e0 bb
       -0.010795946 0.010612765 0.015161904 -0.0068614604
000140 1c 42 b0 bb 34 d2 21 bc 7c 5c 23 bc a9 ab 44 3c
       -0.0053789746 -0.0098767765 -0.00997078 0.012003818
000150 3e bd 36 3c 43 e6 2b 3c 65 4d 09 3c c4 82 9d 3c
       0.011153517 0.01049191 0.008380269 0.019227393
000160 4d 21 e1 3b 00 f9 0a 3c b0 63 80 3c 6b ed 5f bb
       0.006870425 0.008482218 0.015672535 -0.0034168612
000170 89 d5 c8 3a 50 4f d2 ba 03 1c 90 bc 79 36 11 bb
       0.0015322427 -0.0016045365 -0.017591482 -0.0022157712
000180 95 02 04 3c 07 96 d4 3b 61 dc 9e 3a d1 ba db bb
       0.008057256 0.006487611 0.0012120121 -0.00670562
000190 56 91 3d bb 4b 29 74 ba 97 f9 a2 3b 20 1a 71 ba
       -0.0028925738 -0.00093140145 0.004973601 -0.00091973133
0001a0 f0 d2 eb ba a7 ce 8c 3c 5c bc c3 3b 50 ab 34 bc
       -0.0017991941 0.017188383 0.005973382 -0.011027172
0001b0 e9 7d 41 3c 70 b8 9e 3c 54 c4 94 bb a7 01 b1 3b
       0.0118098045 0.019375056 -0.0045400057 0.0054018083
0001c0 64 e8 e1 bb b7 7f ca 3c 7f df 64 3b f2 e3 36 3c
       -0.006894158 0.024719102 0.0034923253 0.011162745
0001d0 7b 47 d4 ba a5 88 c6 3c 9e 46 03 3c 5d b8 0f b9
       -0.0016195619 0.024235079 0.008012442 -0.00013706223
0001e0 96 7f b2 3b e9 ea 49 3c f6 79 fb ba 8d a3 a5 bb
       0.0054473383 0.012324073 -0.0019186127 -0.005054897
0001f0 2f 87 6e 3c 69 78 21 3c 5d 9f a5 3b 65 60 ae 3b
       0.0145585975 0.009855368 0.005054398 0.0053215497

action_model._discrete_distribution.branches.0.weight f4 [4, 128]
000000 13 d5 6a 3c 7e ca b5 ba ab 17 4d 3c 2a 9b d7 bb
       0.014333027 -0.0013869551 0.01251785 -0.0065797763
000010 3b 14 5e bc 1e 1f b2 bc 2d 6e f7 bb c3 ba 47 bc
       -0.013554628 -0.021743353 -0.007550976 -0.012190524
000020 9b c6 bb 3a 7f 9e 8c 3c b0 32 5d 3c ec f8 ee 3b
       0.0014326157 0.01716542 0.013500854 0.0072928574
000030 42 d1 a6 bc 32 d2 d7 ba 2a 2b 13 3b 55 75 06 3d
       -0.020363454 -0.0016465841 0.0022456148 0.03282674
000040 6c aa 65 bb b5 1a fc 3b d5 b7 5a bc 72 4b c7 3c
       -0.0035044206 0.0076936134 -0.013349493 0.024327967
000050 98 5f d3 b8 e5 16 c8 bb 9e e4 83 bc d7 75 72 bc
       -0.0001007907 -0.006106245 -0.016100224 -0.014798603
000060 6e 5c 1e 3c 6c e4 7f 3c 91 81 bf 3b 4c 51 99 3a
       0.009665592 0.015618425 0.005844303 0.0011697202
000070 dc 2d 13 3c c6 4c b8 bc 87 30 e6 bb 19 d2 f2 bc
       0.008983102 -0.022497546 -0.007024828 -0.029641198
000080 f0 5c 4d bc ac fc 28 3c d6 9c 57 bb 8b ae ab 3b
       -0.012534365 0.010314148 -0.0032899878 0.005239313
000090 14 58 12 3b 24 f6 66 3c fe cf 69 3b 82 f2 a9 bb
       0.002233033 0.01409677 0.0035676952 -0.00518638
0000a0 9c 41 5b bb e9 d2 3f bc 35 93 16 3c 07 a3 e1 bb
       -0.0033455854 -0.011708 0.00919037 -0.0068858895
0000b0 89 00 0f 3c 11 46 8d bc 00 45 83 bb a4 9e c6 3b
       0.008728155 -0.017245324 -0.004006028 0.006061392
0000c0 5c ef 35 bc 8e 8a 3a b9 f0 93 76 3c 26 28 2b bc
       -0.011104431 -0.00017789958 0.0150499195 -0.010446584
0000d0 d3 24 b3 3b ca 57 8c bc d2 7e a4 3c a0 b3 8e bb
       0.0054670363 -0.017131705 0.020080004 -0.004354909
0000e0 24 95 1e bc d1 fd 81 bc 5e 64 8d 3c e0 ec 14 bc
       -0.009679113 -0.0158681 0.017259773 -0.0090896785
0000f0 10 42 14 bb e2 4e b5 3c e4 ea 9f 3c ad 36 d3 3b
       -0.0022622384 0.02213234 0.019521184 0.006445727
000100 50 2c 6c bb d6 9c b9 bc c7 01 c0 bc fc c0 92 3c
       -0.0036037154 -0.022657793 -0.023438348 0.017914288
000110 bd 19 05 3c 8c 81 a8 3a 40 54 be 3c f7 52 65 bc
       0.008123812 0.0012855991 0.023233533 -0.013996831
000120 51 8d 9f 3b 15 ec 5e bb d1 f6 3c bc 22 67 2d ba
       0.004869141 -0.0034015228 -0.011533455 -0.0006614794
000130 ec 95 d9 3c ee ec 62 bc 1e 99 b9 bb 0f 6f f3 ba
       0.026560746 -0.013850434 -0.005664005 -0.0018572527
000140 d3 e4 70 bb c0 92 6c 3c 95 5c f4 3a 42 43 86 3c
       -0.0036757484 0.014439285 0.0018643314 0.016389493
000150 00 d2 09 3c 6d 32 8a bb 5f fa b6 3a 20 69 b4 bc
       0.008411884 -0.004217437 0.0013960114 -0.022022784
000160 35 ec 6d bc cc 56 bf bc 5f 9f 8b bc c1 14 1f 3c
       -0.014521648 -0.023356818 -0.017043767 0.009709538
000170 38 d6 8b bc 53 69 81 3b 45 46 91 3b f8 5a f0 ba
       -0.01706992 0.003949323 0.0044334256 -0.0018337658
000180 8a da 09 3b 56 7a bf 3a b5 eb 8d 3b c9 91 0c bc
       0.00210348 0.0014608603 0.004331077 -0.00857968
000190 ba cb 90 bb ad 74 7a bc 61 89 1c bc f3 af 08 bc
       -0.0044188173 -0.015286607 -0.009554238 -0.008342731
0001a0 83 f9 8f bb ed 9f b3 bc 97 9b 02 39 42 a8 f1 3b
       -0.004393758 -0.021926844 0.00012455728 0.007374794
0001b0 81 a0 e2 3b e1 f3 1e bb 6f 93 ca 3b a7 fe df bb
       0.006916106 -0.002425425 0.0061821262 -0.006835777
0001c0 65 0d 98 ba ff cf c6 bc f8 66 41 bc c2 4e f2 bb
       -0.0011600672 -0.024269102 -0.011804335 -0.0073946426
0001d0 13 13 51 bc 70 20 02 bc 28 71 25 bc 33 c5 76 bc
       -0.012760895 -0.007942304 -0.010097779 -0.015061664
0001e0 de 8d 5f bc cb 44 99 3a ea b6 4d bc c4 25 db 3b
       -0.013644664 0.0011693476 -0.012555817 0.0066878516
0001f0 27 b7 02 bd 5d c7 bc bc 0f 57 c4 bb cd 37 4e bb
       -0.03191295 -0.023044283 -0.0059918235 -0.0031466365
000200 2f 47 29 bb 49 7b 5a bc 3e 77 9b bc f3 f8 9f 3c
       -0.0025829782 -0.0133350575 -0.018977758 0.019527888
000210 62 a2 60 3c 5f 78 b2 bc a4 f7 34 bc 52 80 ad 3b
       0.01371059 -0.021785913 -0.01104537 0.005294838
000220 76 63 b3 bc 81 1b f8 bc 16 43 dd bc 10 91 80 bc
       -0.021898013 -0.030286552 -0.027009528 -0.015694171
000230 eb 10 e1 3c a5 95 db bc 13 b0 db 3c 92 ab 8e 3c
       0.027473887 -0.026804755 0.026817357 0.017415795
000240 ff 30 cc 3c 42 19 6b 3c 2d 4f 99 ba cc 86 d0 bc
       0.024925707 0.014349284 -0.001169657 -0.025454901
000250 bb 27 37 bd 68 91 2d bc e9 76 38 3c 39 bc 2b 3d
       -0.044715624 -0.01059375 0.011258819 0.04192755
000260 83 a4 77 bd 78 33 27 3c ad 4d 32 bd ef 9c 99 bc
       -0.060459625 0.010205142 -0.04353111 -0.01875159
000270 a5 ef 97 3c 99 55 71 3c 68 bd eb b9 88 09 01 3c
       0.018546889 0.014729881 -0.00044963812 0.007875808
000280 e8 9c 0a bd 3d 73 ab bc 58 31 97 3c 9f 75 c3 3c
       -0.033841044 -0.020928973 0.018456146 0.023859797
000290 07 f9 82 3c 48 ba 48 bc 9a ac 11 bd 15 fe 95 3c
       0.015987886 -0.012251444 -0.035564996 0.018309632
0002a0 ca 7e c7 bc f0 52 b9 bc 6a 28 08 3c 44 8d 25 bc
       -0.02435245 -0.022622555 0.008310417 -0.010104481
0002b0 59 9e 59 bc b1 8d e2 bb 27 15 a8 bc fe 27 ff 3c
       -0.013282382 -0.0069138636 -0.020517899 0.031147
0002c0 64 f4 b1 bc bb bf d3 3c 35 93 b6 bc 33 2b ba bc
       -0.02172298 0.02584826 -0.02228699 -0.022725677
0002d0 94 63 e6 bc 5a da bb ba d9 1c 03 3a 24 df 10 3c
       -0.028123654 -0.0014332042 0.0005001552 0.008842263
0002e0 d7 03 1f 3d 45 f9 aa 3c f7 64 ba bc 84 94 05 3d
       0.03882202 0.020870814 -0.022753222 0.03261234
0002f0 52 f2 1f bd 39 b1 26 3c 7e 7f 30 bd 11 c4 0d 3c
       -0.039049454 0.010174089 -0.043090336 0.008652703
000300 f9 7c 06 3b 6e d6 ce bc 5c f2 c8 3c 5d 25 81 bc
       0.0020521267 -0.025248732 0.024529628 -0.015764887
000310 99 12 ee bc 9b 99 96 3c b8 52 c3 3c de 3d a4 bc
       -0.029061602 0.018383792 0.023843154 -0.020049032
000320 12 7d b4 3b 2c ec d6 3b ae 4d bf 3b be 17 5a bc
       0.0055080736 0.0065589156 0.0058381176 -0.013311325
000330 65 89 a8 bc 86 36 45 3c 0a 67 c0 bc 19 f7 69 bc
       -0.020573327 0.012036925 -0.023486633 -0.014280104
000340 f3 7e ee bc 7e 08 a1 bc 8f 37 98 bb e8 02 a7 3c
       -0.029113268 -0.01965737 -0.004645295 0.020387128
000350 90 1c e3 3c 9f 4d c8 3c 5f 26 e9 bc f4 f8 72 bb
       0.02772358 0.024451075 -0.02846068 -0.0037074657
000360 b2 a7 86 bb b8 2c fd 3b 3d 8b d5 3c 88 18 e3 bb
       -0.0041093463 0.007726278 0.02606737 -0.0069304146
000370 73 9e 93 bc a0 c3 a1 3b 5e 58 13 ba c2 c8 02 bd
       -0.01801989 0.0049366504 -0.0005620773 -0.03192974
000380 43 0e 3d bd 1c 7c 14 bd eb 08 ee bc 50 93 06 39
       -0.04615618 -0.036251172 -0.029056987 0.00012834114
000390 31 e7 6f bc a1 5e 8b 3c 55 f6 9e bc 62 28 f6 ba
       -0.014642523 0.017012896 -0.01940457 -0.0018780346
0003a0 37 a6 92 bc 98 bb aa 3c fc 62 0d bd 69 bf 13 bc
       -0.017901523 0.020841405 -0.034518227 -0.009017804
0003b0 cb 42 df 3c 46 53 21 3d a3 29 8b bc d9 e3 8c 3c
       0.027253529 0.039386056 -0.016987627 0.01719849
0003c0 0a 52 ae bc 5f 13 31 3c 47 1a 94 bc e3 c9 e3 3c
       -0.021279354 0.010807841 -0.018078936 0.027806228
0003d0 f6 3b a9 bc a6 9f 4e 3d cd 80 8b 3c 68 fa 7f bc
       -0.020658474 0.05044522 0.01702919 -0.015623666
0003e0 64 1e 14 3c 83 95 00 3d d7 91 1a bd 50 47 4d 3b
       0.009040449 0.031392585 -0.03773674 0.0031323023
0003f0 24 ea 42 3c 66 72 61 3c 9e 23 09 bb d0 66 84 3c
       0.011896644 0.013760185 -0.002092577 0.016162306

action_model._discrete_distribution.branches.0.bias f4 [4]
000000 0d 97 24 bc 74 9f 88 3c 88 82 31 bb 9b 60 5e bb
       -0.010045779 0.016677596 -0.002708586 -0.0033932093

critic.network_body.linear_encoder.seq_layers.0.weight f4 [128, 28]
000000 b7 6f 4b be d5 bf cb 3e 57 75 30 bd 23 df cf bc
       -0.19866835 0.39794794 -0.043080654 -0.025374955
000010 74 ee df bd d9 86 5e 3c cb 7c 2a 3e ab 7b f1 be
       -0.10934153 0.013581955 0.16649167 -0.47164664
000020 72 74 20 bc 3e 32 76 bc aa d5 01 3e 68 59 f4 3e
       -0.009793388 -0.015026627 0.12679163 0.47724462
000030 3b 60 ab 3e fa 4e a0 3d e3 1c f5 bb 23 d3 8b 3e
       0.33471856 0.078275636 -0.00748025 0.27309522
000040 e0 e2 68 be 43 ab d6 ba 49 71 b3 bd aa 2e 07 3e
       -0.22742796 -0.0016377944 -0.08761842 0.13201395
000050 dc 82 2a 3e e4 84 8c be 09 c2 98 3e f7 5d 1d 3e
       0.16651481 -0.27445138 0.29835537 0.15367876
000060 53 8b 24 bd 65 c8 e4 3d 60 78 10 bf 70 a9 aa be
       -0.040171932 0.11171035 -0.5643368 -0.33332396
000070 29 7c 83 be d0 4c b0 bd 53 16 18 bd e9 04 2f bd
       -0.25680664 -0.08608401 -0.037130665 -0.042729292
000080 fd 98 a8 3e bd 0f 62 3c 4e dc 4e 3e bd b7 01 3d
       0.3292922 0.013797698 0.20201227 0.031669367
000090 96 22 6e bd 18 31 65 3e 62 20 d9 3d 49 b6 81 3e
       -0.058138452 0.22382009 0.1060188 0.25334385
0000a0 68 0c 5a be 84 c4 96 3e 08 8e 9c 3b ac 79 87 be
       -0.21293795 0.29446805 0.0047776736 -0.26460016
0000b0 0f 33 6b 3e 0c 53 1f 3f 8a df 04 be eb 5d 2f bd
       0.22968696 0.62236094 -0.12975898 -0.042814177
0000c0 fa de 23 be b0 cd 29 3e 3b 1a 4d be d1 a1 5f bd
       -0.16003028 0.1658237 -0.20029537 -0.05459768
0000d0 64 40 d9 3e d3 ca 06 bf ec 28 6e be a7 ef 20 3e
       0.4243194 -0.52653235 -0.23257798 0.1571642
0000e0 2a 02 61 be 15 bb 0e 3e de e1 0c 3e a9 6f 96 bd
       -0.21973482 0.13938554 0.13758036 -0.07345516
0000f0 51 22 0a 3e 87 11 18 bd df c7 41 3e 12 7e 34 be
       0.13489653 -0.03712609 0.18923901 -0.17626217
000100 6b 4d 18 3e 88 39 78 be 0e 51 4a 3e 37 d4 c9 bd
       0.14873283 -0.24240696 0.19757482 -0.0985493
000110 2f 95 9c 3e a6 90 f5 3d d4 7f b2 bd 60 b1 34 3e
       0.30582568 0.1199048 -0.087157875 0.17645788
000120 01 69 89 3e a3 f7 d0 3d aa 7b 9e be 71 9a 88 3c
       0.26837924 0.10203483 -0.30953723 0.016675206
000130 e8 4a be 3e 9b bf aa 3c 74 31 71 3e e0 4f c8 3d
       0.37166524 0.020843318 0.23554021 0.0978086
000140 79 d6 98 3d 4c 6a 21 be 0b 3d 00 3b df 25 43 be
       0.074627824 -0.15763205 0.0019567634 -0.19057415
000150 22 f3 2b 3e b0 19 fd 3d cf 95 aa 3e fd 2e 96 3e
       0.16791967 0.12358415 0.3331742 0.29332724
000160 6d be 16 be 5e eb 3f 3e 23 57 f3 bd 1a 61 98 3c
       -0.14721079 0.18742129 -0.118818544 0.01860099
000170 3d 44 52 be 28 5a c9 bd 53 8b bb bd 58 74 cd bd
       -0.20533843 -0.09831649 -0.09157433 -0.100319564
000180 09 18 27 3e 7b 08 98 be 52 ad c5 3e 96 79 69 3d
       0.16317762 -0.2969397 0.38608795 0.05700072
000190 26 c9 ab bd e3 f3 9b 3e 37 cf fb 3d d2 b3 0e be
       -0.083879754 0.30459508 0.122953825 -0.13935784
0001a0 47 3a 37 3e be 17 57 be cc 7c 63 3e 60 72 86 bd
       0.17893325 -0.2100515 0.22215575 -0.06564784
0001b0 3c 31 c2 3d b2 83 76 be f7 b8 1f 3e 59 e7 00 be
       0.09482047 -0.24073675 0.15597902 -0.12588252
0001c0 fe 3c 67 3e 45 9a 1f 3e f5 14 9d 3d 39 85 a1 bd
       0.2258186 0.15586193 0.07670013 -0.07886738
0001d0 ea 66 e0 3b 35 13 cb bd d8 78 dd bd 8e 89 08 3e
       0.006848206 -0.09915773 -0.10814065 0.13333723
0001e0 fb ee 57 3e 1c 40 0c 3e c4 85 d2 3d 88 9c 99 3e
       0.21087258 0.13696331 0.1027942 0.30002236
0001f0 38 92 00 3e 99 d9 57 bc ed 31 a1 be b0 aa 90 3d
       0.12555778 -0.013174438 -0.31483403 0.07063806
000200 ce 2e 96 bd 27 a0 a6 3d 6c 99 11 bc a1 f1 17 3d
       -0.07333146 0.081360154 -0.008886676 0.03709567
000210 ad e7 a3 3d 48 57 8b be 53 bd 28 3d 4c 94 de 3b
       0.08003173 -0.27215028 0.04119618 0.0067925807
000220 3e 17 77 3c b4 db ca 3e 01 6f 32 3c ed 49 c7 3d
       0.015081225 0.39620745 0.010890723 0.09730897
000230 7c ed 80 bb 06 13 b6 be 52 65 13 bd 18 42 1e be
       -0.0039345603 -0.3556139 -0.0359853 -0.154549
000240 8f 2f ee 3e a6 16 59 be 52 83 ce 3e a6 e6 6a 3e
       0.4652066 -0.21200046 0.40334564 0.22939548
000250 2f d9 21 be c8 5f ea 3d e5 1b 53 3e e3 7b 1b 3e
       -0.15805505 0.1144405 0.2061611 0.15183978
000260 8f 8e 4e be 18 d8 61 be 3e 13 7d 3c be f6 41 3e
       -0.2017157 -0.2205509 0.015446482 0.18941781
000270 dd c2 8d 3e 70 d3 b9 3d ff 42 41 be b4 77 27 3d
       0.2768773 0.09073532 -0.18873213 0.040885642
000280 51 b3 3d 3e d5 06 88 bd c0 a4 c4 bd 68 86 a5 3e
       0.18525435 -0.06641928 -0.09601736 0.32329106
000290 68 93 54 3d df 06 bc bd 12 ff b7 bc 53 b7 3f 3c
       0.05189839 -0.09180998 -0.022460494 0.011701423
0002a0 51 b0 02 3e b4 fd d5 bb 64 2f 0b be 6f 4f 44 be
       0.12762572 -0.006530488 -0.13592297 -0.19170927
0002b0 96 52 cc bd 9c ce db bd 27 7c e0 bd dd b4 8e be
       -0.099766895 -0.10732767 -0.1096118 -0.27872363
0002c0 b5 94 64 3d 30 aa 84 be 7f a8 42 3e 9e a6 7d 3d
       0.05580588 -0.25911093 0.19009589 0.061926477
0002d0 86 b8 f0 bd 8b 0f ce 3b 9b f2 40 3e 7a 76 01 be
       -0.11753945 0.006288474 0.18842547 -0.12642851
0002e0 77 96 64 bd a2 68 03 3d 67 b5 36 3e 4f a7 89 3d
       -0.055807557 0.032082208 0.17842637 0.06721365
0002f0 e3 65 82 3e 28 a2 35 be ef 4c 39 3d 2b 73 cb be
       0.25468358 -0.17737639 0.045239385 -0.39736304
000300 40 ce 39 be 43 5f 18 3e 62 86 e8 3d c0 bd 6f 3e
       -0.18145084 0.1488009 0.113537565 0.23412228
000310 e5 5f 39 bd 3a d0 64 bb 02 21 40 be fb 90 85 3d
       -0.045257468 -0.0034914152 -0.18762591 0.065217935
000320 f0 6c 63 3d 47 ac ae 3d f1 a8 ad bd a9 f1 14 be
       0.055523813 0.08528953 -0.08479489 -0.14545311
000330 9d 3a d8 3d 64 6f c9 bc 48 79 8c 3e 43 ee 11 3e
       0.105580546 -0.024589248 0.2743628 0.14251046
000340 20 b5 52 3e cc e8 38 bd 3a 7b c8 3d 2a 9d e7 3d
       0.20576906 -0.045143887 0.097891286 0.113092735
000350 f0 2c d8 3d 96 c9 34 be 38 8d 09 be a7 cd 80 3e
       0.10555446 -0.17655024 -0.13432777 0.251569
000360 14 f6 50 3e fd cd 5e 3e 7f 3f 31 bd 09 05 00 3e
       0.20406371 0.21758266 -0.043273445 0.12501921
000370 f0 a8 a3 3d 97 5e a3 be d7 ef 4d be 65 41 8c bd
       0.07991207 -0.31908104 -0.20111023 -0.068484105
000380 31 cb 5b 3e 15 0a 6e 3c c6 cd 82 bc c9 6c b7 bc
       0.2146423 0.014528771 -0.015967261 -0.02239074
000390 c2 bd 06 be 5b 75 92 3e 0c 30 0b 3e dd ce 8b be
       -0.13158324 0.2860516 0.13592547 -0.27306262
0003a0 23 d8 c0 3e 89 64 14 3e e5 ae be be c0 1d 57 3b
       0.376649 0.14491476 -0.3724281 0.003282413
0003b0 a9 a2 a4 be c5 6b f5 3d 6d ce eb bd df 0e 93 be
       -0.3215535 0.11983446 -0.11513982 -0.28722283
0003c0 34 3d 46 3e fa 90 93 be e5 f6 a1 3d e9 23 84 be
       0.19359285 -0.28821546 0.079084195 -0.25808647
0003d0 b8 08 dc bd bc 46 c1 3d b3 81 41 bd 7f 9e 82 be
       -0.107438505 0.0943732 -0.04724283 -0.25511548
0003e0 20 95 b8 be 1d 51 6d 3e b3 35 a5 bd 90 70 9a bd
       -0.36051273 0.23175474 -0.08066883 -0.07541001
0003f0 51 b0 8d 3d 56 d9 9a bc aa 5c 14 3e 4f 17 98 bd
       0.06918395 -0.018902462 0.14488474 -0.07426321

critic.network_body.linear_encoder.seq_layers.0.bias f4 [128]
000000 38 a5 1e 3c 24 73 da 3b 86 58 63 bb c7 27 90 39
       0.009682946 0.006666558 -0.0034690215 0.00027495457
000010 e9 06 56 39 81 4f c7 3a 33 99 c7 bb df d9 4b 3b
       0.00020411205 0.0015206189 -0.006091261 0.0031105203
000020 2c 2a 17 b8 ec 0f da ba df cf f0 3a 95 d5 9d 39
       -3.604048e-05 -0.0016636825 0.0018372497 0.00030104505
000030 a4 c4 96 bb a6 a5 08 3c fb a6 aa bb e7 d6 a0 39
       -0.004601078 0.008340275 -0.005207894 0.00030677693
000040 fe fb db bb 4c 4f 54 bb f6 2b 08 bc 26 61 70 3c
       -0.0067133894 -0.0032395897 -0.008311262 0.0146715995
000050 7a 51 0f ba 76 56 aa bb 1d 55 db ba f0 b0 40 ba
       -0.0005467158 -0.005198295 -0.001673374 -0.00073505845
000060 07 da c5 ba ff 38 21 bc ac 81 f9 bb 5a 8f 5f ba
       -0.0015094884 -0.009840249 -0.007614335 -0.0008528136
000070 46 d3 bf ba 38 fd 18 bc f7 41 c5 ba 37 7d c4 ba
       -0.0014635108 -0.009337716 -0.0015049566 -0.001499093
000080 10 9b 92 3b 98 df 82 3c 26 8b 56 bc 0f af 32 3c
       0.0044740513 0.015975758 -0.013094699 0.010905995
000090 60 94 29 b9 85 91 c2 bb 9f 09 83 39 90 5f 17 3d
       -0.0001617237 -0.0059377574 0.00024993435 0.03695637
0000a0 65 cb 54 bb fb dd 18 bb 8f 28 07 bc 95 b4 06 bc
       -0.0032469865 -0.002332567 -0.008249416 -0.008221765
0000b0 f4 5d de 3a 8e 03 a0 b9 25 ae c5 3b 9c ba 11 3c
       0.0016965256 -0.00030520227 0.0060327225 0.008894589
0000c0 be 0c 84 bb 67 a7 05 3b 99 da 7d bb 89 0f 7e bb
       -0.0040298393 0.002039397 -0.003873503 -0.0038766584
0000d0 9a af 92 bb c1 1c 78 3b dc d8 d7 3b 6b 9f 83 bc
       -0.0044764997 0.0037858936 0.006587131 -0.016067227
0000e0 92 9f 9d b8 94 cf 8d bb e3 07 0a 3c 64 ae 9a 3c
       -7.516066e-05 -0.0043277238 0.008424732 0.018881984
0000f0 8b 55 f2 3b 41 09 2d bc 63 ce e7 bb 53 27 9a 3b
       0.0073954514 -0.010561288 -0.0070741638 0.004704395
000100 27 ff 6f bb 60 e9 4b bc 8b b3 27 3c 5e 0a c4 3c
       -0.0036620589 -0.012445778 0.0102356775 0.023930725
000110 78 9c 80 3b 91 dc 5f ba 83 2e 4b bc 4d 3e fd bb
       0.0039249025 -0.0008539642 -0.012401226 -0.007728374
000120 c1 32 cb 3b 2f 0c 10 bc 83 e9 2f 3c 14 0c c6 ba
       0.0062011187 -0.008791967 0.010736826 -0.0015109801
000130 7d c2 59 ba 22 d2 b2 ba cd e6 17 bb de 6b 80 ba
       -0.0008306874 -0.0013642947 -0.002317834 -0.0009797772
000140 cf e4 5e bb ff 66 b6 3a 2c 60 b9 bb ce ca 01 bb
       -0.0034010892 0.0013916193 -0.0056572165 -0.001980472
000150 af b1 0e 3a e9 c4 04 3b 90 d1 ea 39 a1 27 47 3b
       0.0005443347 0.002025897 0.00044788094 0.003038861
000160 d4 93 27 3c 0a 65 13 39 92 d8 c6 37 d2 2e fd bb
       0.010228116 0.00014056652 2.3704288e-05 -0.0077265287
000170 96 f5 9f bc c8 65 96 3c f5 0e 3c bc d0 82 8a 3b
       -0.019526284 0.01835908 -0.011478175 0.00422702
000180 47 23 68 bb 40 c9 48 bc 6e 4f cc ba c2 6d ed 3a
       -0.0035421418 -0.012255013 -0.0015587637 0.0018114375
000190 aa c9 09 3c c9 66 7d bb b8 02 ff bb 53 00 d1 39
       0.008409897 -0.0038666 -0.0077823065 0.00039863828
0001a0 30 2e 37 bc fc 3a 92 3b 03 d1 43 39 87 54 8b 3c
       -0.011180446 0.004462598 0.00018674512 0.01700808
0001b0 8c 2e ec bb f1 22 a8 3b 3f f5 32 bb 61 31 84 bb
       -0.0072076973 0.0051311185 -0.0027306823 -0.0040342067
0001c0 1e 5d 42 3a 06 ed 4a 3c cc cf fb bb a0 82 f8 3b
       0.0007414388 0.012385612 -0.0076846834 0.007583931
0001d0 c6 e4 60 bc e2 bd 18 bc 80 56 0f 3d 27 c4 5d bc
       -0.013726419 -0.009322615 0.034994602 -0.013535536
0001e0 3c 33 20 bc 9a ca 8d 3a 1e d1 37 bb d8 a4 8e 3b
       -0.00977784 0.0010817826 -0.0028048228 0.004353147
0001f0 f5 82 a1 bc 17 5b c0 bb 11 db 53 3a d0 22 01 3d
       -0.019715765 -0.0058702338 0.00080816547 0.03152734

critic.network_body.linear_encoder.seq_layers.2.weight f4 [128, 128]
000000 5a 07 5c 3d bb 4a e9 bc f2 74 54 3c 7f 4f eb bd
       0.05371795 -0.028478017 0.012967335 -0.11489772
000010 c4 2f be bd 03 64 37 be 99 d4 f4 bd 79 6d b2 bb
       -0.09286454 -0.17909245 -0.11954612 -0.005445179
000020 c5 ef 85 3c 66 78 2f 3d c0 72 0d 3d 9e 54 8a 3d
       0.016349683 0.04283943 0.034533262 0.06754421
000030 a5 2b 17 3d 66 4f b3 bc 0a 1c 5a 3d 79 07 d7 3b
       0.036906857 -0.021888446 0.053249396 0.00656217
000040 c8 ab cc bd 34 2f e9 bd cf 28 58 3d 90 ea bf 3d
       -0.09993702 -0.113859564 0.052773293 0.09370911
000050 c8 e3 60 3e 8d 01 db 3c f4 91 68 bc e3 0b 2f 3d
       0.21961892 0.026734138 -0.014194954 0.042735945
000060 1a f4 b1 bb 80 9b 12 3c 12 83 08 3e 3c da c9 3b
       -0.0054307105 0.008948207 0.1333125 0.006160049
000070 62 f5 60 3a 5b 8b b1 3d c6 04 71 bd 7e 50 2c 3e
       0.0008581487 0.08669158 -0.058842443 0.1682758
000080 f6 a8 49 3c 3d 19 e2 bd c3 85 eb 3c d9 20 a4 3c
       0.01230835 -0.1103997 0.028750306 0.020035194
000090 d3 31 12 3e f3 41 59 3d 1f 61 78 3d a5 87 74 3c
       0.14276819 0.05304141 0.060639497 0.014924918
0000a0 2b f5 83 3d f9 76 49 3d 47 1c 93 3d 3c 17 4a 3d
       0.064432465 0.049185727 0.07183128 0.049338564
0000b0 ac f8 55 3d c6 36 21 bc b6 01 c4 3c 14 52 1c bd
       0.052239105 -0.009839719 0.023926597 -0.038164213
0000c0 8e ba 7e b9 ee 07 92 bd 1b b6 f6 3c 1d 3f 01 be
       -0.00024292825 -0.07130419 0.030116132 -0.12621732
0000d0 ae 0c 25 3e 9d 7a 67 be b6 76 65 3d b2 6a 8b 3c
       0.16118118 -0.22605367 0.056021415 0.01701865
0000e0 e6 ca 52 3d 4c 7f 0e be 7d da 72 be 40 0f d9 bc
       0.05146303 -0.13915747 -0.23716159 -0.02649653
0000f0 23 6c ae bd 43 bc 33 3e 8e 19 9e 3c 42 87 f2 bc
       -0.08516719 0.17552285 0.019299295 -0.029605512
000100 84 e9 d1 bc 17 e2 ad 3c 16 a2 83 bd 9a 54 87 bd
       -0.025624044 0.021225972 -0.064274 -0.06607933
000110 e5 2f 12 3d b0 b2 b2 bd 92 d1 33 be ab 30 54 3e
       0.035690207 -0.08725488 -0.17560413 0.2072169
000120 8a 02 82 3d 81 35 2f bd ca 36 ce bc b1 ce 4e 3d
       0.063481405 -0.042775635 -0.02517261 0.050490085
000130 cb 82 e5 bd 86 73 0e be e2 71 08 3e 94 13 83 3d
       -0.112065874 -0.13911256 0.13324693 0.064002186
000140 40 b7 9a bd 79 ef 09 be 38 f3 e1 bc d0 18 a5 3d
       -0.075544834 -0.13470258 -0.027581796 0.08061373
000150 79 cd 9b bd d1 c0 35 be 03 68 20 ba bb d5 ce bb
       -0.0760755 -0.17749335 -0.00061190146 -0.0063120998
000160 2f de c9 bd 3c 96 fa 3d 89 dd ab 3d d6 b4 12 be
       -0.09856831 0.12235686 0.08391864 -0.14326796
000170 69 1b b1 3c 60 dc fd bd 85 e3 94 bd 3f 3c b3 3d
       0.021619515 -0.12395549 -0.072699584 0.087517254
000180 f9 2e 02 3e 14 c1 d4 3d 0d c9 f0 38 f7 47 e9 3c
       0.12713231 0.10388389 0.000114815404 0.028476698
000190 3d c5 c8 bc a2 8c 36 3d e0 42 46 3e ab 11 ed 3d
       -0.024508113 0.04456771 0.19361448 0.115756355
0001a0 5c 2b 7b 3e c9 00 61 bd 66 a0 b9 bd 55 60 28 3d
       0.24528259 -0.05493239 -0.09063797 0.041107494
0001b0 94 1b 30 3d 77 5a 42 bb e1 18 a1 3d c8 c2 45 bd
       0.04299505 -0.0029655972 0.078660734 -0.04828146
0001c0 eb f8 bc 3d f8 fe 9d 3d 40 3f 8c bd 72 4d 8e bc
       0.09227165 0.07714647 -0.068480015 -0.017370913
0001d0 e9 f6 91 3d f9 1f cf 3d 31 1f b5 ba 4e 17 4d 3c
       0.071271725 0.1011352 -0.00138185 0.012517763
0001e0 57 5a 25 ba 5b 91 82 3d 8c e0 56 3c 78 00 d8 3c
       -0.0006307712 0.063753806 0.01311506 0.026367411
0001f0 ea 19 8a bb 49 60 78 bd 65 57 5c bd f7 25 d9 3d
       -0.004214515 -0.0606387 -0.053794283 0.10602944
000200 90 a1 31 be f6 83 32 3d b6 51 21 bd 30 10 83 3d
       -0.17346787 0.04358288 -0.039384566 0.06399572
000210 70 bb 0d 3d 72 89 91 3c f8 80 d9 ba 3d a6 ab 3c
       0.034602582 0.017765734 -0.0016594222 0.020953292
000220 d6 81 19 bd 9b 69 26 3d 9f 91 59 3e 8b 59 40 3d
       -0.037477337 0.040628057 0.21246956 0.046960395
000230 e3 ec 54 3d 53 c7 94 bd 8c d5 fe bd ba fc d2 3d
       0.051983725 -0.072645806 -0.124430746 0.1030211
000240 34 d6 e4 bc 96 ba 83 bd 28 ad d8 3c b8 3b 31 be
       -0.027934171 -0.06432073 0.026449755 -0.17307937
000250 dc aa 15 bd 96 20 10 3e 35 4d 2e bd 2f 71 5c 3d
       -0.036539897 0.1407493 -0.0425541 0.053818878
000260 19 26 03 bb 19 1f 41 bd 9c b0 92 bd c6 1e 58 3e
       -0.0020011722 -0.047148798 -0.07162592 0.21105489
000270 df 09 88 3d 54 8a e3 3d e5 7b f2 bc 0c 2f 9b bd
       0.06642508 0.11110368 -0.029600093 -0.07577333
000280 6e ac 96 bc 36 d2 dc 3d 0e 92 73 bd 2e 0b 85 3b
       -0.018392768 0.10782282 -0.05946546 0.0040601706
000290 bf dd 81 3d 8b bb 5d 3a 37 e8 3b bc 80 44 dd 3d
       0.06341123 0.0008458427 -0.011468939 0.10804081
0002a0 21 db 3d 3d 70 7a 58 3d b3 b3 06 be fb b7 c7 3d
       0.046351556 0.05285114 -0.13154487 0.09751888
0002b0 15 bf 1e be 60 75 06 39 b2 b6 4b bc 7c 01 89 3d
       -0.1550258 0.00012822961 -0.012433695 0.06689736
0002c0 73 6f 5a bd c5 71 21 be 9d 59 e8 3d ef 7e 6a 3d
       -0.053328943 -0.15766056 0.113452174 0.05724996
0002d0 b3 f7 b3 3c 5b 77 54 3c b4 59 8f bd ac 94 a0 bb
       0.021968698 0.01296791 -0.069995314 -0.0049005356
0002e0 dc 25 97 bd f5 cd ac 3d 8d 14 b7 3d 3f 75 ba 3c
       -0.07380268 0.08437721 0.089394666 0.022760985
0002f0 ce 1e 00 be ab 72 eb 3d 7d f4 86 bd c2 19 98 bc
       -0.12511751 0.114964806 -0.06589601 -0.01856697
000300 bf 00 26 bc 04 6a 2d bd 85 19 20 3e d7 39 92 bc
       -0.010132014 -0.042337433 0.15634735 -0.017849846
000310 bd 53 e6 3d d9 4f 93 3d d9 ff bf bb f2 e7 8a bc
       0.112464406 0.07192964 -0.005859357 -0.016956303
000320 57 d3 ca 3c 92 af 01 3e ae eb 7b 3d 72 9a fe bc
       0.024758978 0.12664631 0.06150406 -0.031079505
000330 31 f1 db 3d 8e 0f 11 3e d0 cd a1 bc f1 c8 dd bc
       0.10739363 0.1416609 -0.01975146 -0.027073355
000340 5e 17 01 bd 35 10 14 bd d6 12 38 be c3 a7 09 3e
       -0.031516425 -0.03614827 -0.17975935 0.13442902
000350 3a 39 27 bd d1 08 55 bd 80 5f 0b 3e a0 28 41 3c
       -0.04082606 -0.05201036 0.13610649 0.011789471
000360 ba e3 a4 bd 46 46 93 bc d7 00 38 3d fb 55 b6 bd
       -0.08051248 -0.017977845 0.044922676 -0.08903118
000370 b8 76 8e bd 98 03 d9 3d e2 bb 16 3e a5 90 30 be
       -0.069562376 0.105963886 0.14720109 -0.17242678
000380 c2 40 47 3d 5c 94 84 bc bb 6d d6 3d c2 52 7d 3e
       0.048645742 -0.016184025 0.10470148 0.24738601
000390 e9 02 2c be ce 73 37 be c3 98 8a 3d 14 43 cc bc
       -0.16797985 -0.1791527 0.06767418 -0.02493433
0003a0 2e 6b d8 bc 05 2d 52 3d 2a 85 20 3d 54 9b ca bd
       -0.026418295 0.051312465 0.039189495 -0.09892908
0003b0 25 af 11 bd 0d 70 16 be f5 bc 3f bc 14 c0 3e be
       -0.03556742 -0.14691181 -0.011702766 -0.1862796
0003c0 a5 f4 02 bd 0f 7c 14 bd f7 da 08 3c e7 db c8 3d
       -0.031971592 -0.036251124 0.008352987 0.09807568
0003d0 68 30 87 bd f6 69 b5 3c 13 9d 27 bc ac 73 da 3d
       -0.0660103 0.022145253 -0.0102303205 0.10666594
0003e0 0c 0b 15 bd e9 c3 9a 3d 7d 8b 4b 3e a6 cc b0 3d
       -0.03638749 0.07556898 0.1987743 0.086327836
0003f0 00 0e 9f 3d f8 b8 87 3d 20 81 5e 3e c2 04 d5 3b
       0.07766342 0.06627077 0.21728945 0.0065008113

critic.network_body.linear_encoder.seq_layers.2.bias f4 [128]
000000 8b 82 57 3a 7b c7 95 3a a5 d0 52 bb f8 5c 4d bb
       0.00082210515 0.0011427248 -0.003216782 -0.0031335931
000010 22 8b 26 3a 71 07 10 bb 4c d0 98 3b e5 c7 1a bb
       0.000635313 -0.0021977092 0.004663503 -0.0023617682
000020 1d 2a 4a ba 9e d1 11 3a 26 2c 58 39 3d 36 91 ba
       -0.0007711964 0.00055625464 0.00020615812 -0.0011078786
000030 e9 f8 f7 b9 41 20 33 3b 36 33 42 bb 60 d4 41 bb
       -0.00047296964 0.0027332457 -0.0029632575 -0.0029576048
000040 a9 61 5e ba a7 53 37 39 02 37 41 bb 73 51 60 3b
       -0.00084831804 0.00017483403 -0.002948225 0.0034228235
000050 16 16 66 39 62 2d 45 3a 24 9f 0c 3b 9d a8 b5 ba
       0.00021942737 0.0007521716 0.002145716 -0.0013859455
000060 85 bb b7 39 9a f7 af 3a 76 2c c2 ba 9c 7d 0b 3b
       0.00035044193 0.0013425231 -0.0014814276 0.0021284586
000070 6e 2f 6b ba 13 cd b8 ba c0 ce 4e ba 69 69 24 ba
       -0.0008971606 -0.0014099203 -0.00078890845 -0.0006271811
000080 f1 fd 3f ba 86 7a 61 ba 54 9c b5 b9 f3 dc da ba
       -0.0007323912 -0.0008601326 -0.00034639484 -0.0016697928
000090 9b 8d a9 b9 14 51 01 bb 0f 4b 1f ba b8 90 5a 3b
       -0.00032339696 -0.0019732164 -0.0006076553 0.003335042
0000a0 78 d8 a1 ba 11 57 0c bb d4 cc 38 3a 5e 25 13 3b
       -0.0012347838 -0.00214142 0.0007049565 0.0022452693
0000b0 48 54 ad 39 03 44 18 bc dc ca 81 ba d8 4d 64 bb
       0.00033059926 -0.009293559 -0.0009902376 -0.0034836438
0000c0 64 d5 1b bb 0d 58 e4 3a e3 5e da ba c9 eb b6 39
       -0.0023778314 0.0017421261 -0.0016660359 0.0003488942
0000d0 33 5f 4a bb 7d e4 42 bb 5c 81 c7 39 7c 90 40 bb
       -0.0030879497 -0.002973824 0.00038052618 -0.0029382994
0000e0 8c c7 e6 b9 f9 64 28 bb 45 c3 ae ba 68 56 2e bb
       -0.00044017693 -0.002569495 -0.0013333341 -0.0026601795
0000f0 77 c7 c3 ba 21 68 7a ba 6a 27 d3 b8 24 2c f5 ba
       -0.0014936764 -0.00095522596 -0.000100686055 -0.0018705172
000100 9e 64 ac 3a c1 c3 68 ba bc 47 40 bb b3 8d 92 ba
       0.0013152545 -0.0008879267 -0.0029339632 -0.0011181146
000110 74 84 38 3a 81 5f 8b ba e7 3d f2 b7 67 09 3d bb
       0.000703878 -0.0010633321 -2.8877474e-05 -0.0028844716
000120 92 7a ed 3a 8c fd 93 39 ac ef b3 3c 82 22 26 bb
       0.0018118194 0.00028226932 0.02196487 -0.0025350158
000130 66 14 26 bb 06 3c 51 3b d9 36 4d bb af 9d b2 b8
       -0.0025341748 0.0031926646 -0.003131321 -8.517072e-05
000140 0b 82 24 3b da 0d 74 ba 00 e1 0c 3b c6 88 aa b7
       0.0025101926 -0.00093099254 0.0021496415 -2.032927e-05
000150 be d5 d3 b7 3c 47 88 3a ba 63 3b ba 6a d7 bf ba
       -2.5252692e-05 0.0010397206 -0.00071483443 -0.0014636342
000160 aa a5 e4 3b 17 5b fa b9 b1 54 00 bb df 4c 83 b9
       0.0069777565 -0.00047751583 -0.001958173 -0.0002504354
000170 7b 0c f4 3a 21 75 33 38 7f 0d 29 bb 6a ee 75 3a
       0.0018619442 4.278601e-05 -0.0025795398 0.0009381535
000180 d5 0e ce 3a 6c a0 82 bb f2 36 95 39 66 21 93 bb
       0.0015720973 -0.003986409 0.00028460432 -0.0044900654
000190 73 6e ba ba 99 63 11 3a 50 be 4d 3b f9 c4 b2 3a
       -0.001422359 0.0005546152 0.0031393953 0.0013639025
0001a0 fd dc 24 bb f9 f8 fc 3b 3c 7e e9 ba f7 97 f1 39
       -0.0025156133 0.0077201095 -0.001781411 0.00046080325
0001b0 70 da b3 ba 1b 1f c7 ba 34 53 af ba c4 c2 29 ba
       -0.0013721716 -0.0015191765 -0.0013376237 -0.0006475861
0001c0 e7 f5 fb ba 24 18 23 bb 7e f5 98 ba d8 09 f4 ba
       -0.0019223065 -0.0024886215 -0.0011669842 -0.0018618656
0001d0 d3 ff 3c ba fe 9e 7f 3a 38 98 95 bb cd e8 b5 ba
       -0.00072097516 0.000975117 -0.004565265 -0.0013878584
0001e0 68 5a 88 ba 4b 8d 9e 39 e3 ba 1e ba 85 f7 8d 3a
       -0.001040292 0.0003024138 -0.000605507 0.0010831213
0001f0 fa f1 45 bb 97 f3 c9 bb 45 d2 c7 38 28 0a 1a bb
       -0.0030204044 -0.0061630714 9.528225e-05 -0.0023504589
