results/2022_0313_1526/Fight/Fight-499973.onnx (onnx, 85170 bytes, 6 tensors)

action_model._discrete_distribution.branches.0.bias f4 [4]
-0.010045779 0.016677596 -0.002708586 -0.0033932093
00000000: 0d97 24bc 749f 883c 8882 31bb 9b60 5ebb

action_model._discrete_distribution.branches.0.weight f4 [4, 128]
0.014333027 -0.0013869551 0.01251785 -0.0065797763 -0.013554628 -0.021743353 -0.007550976 -0.012190524
0.0014326157 0.01716542 0.013500854 0.0072928574 -0.020363454 -0.0016465841 0.0022456148 0.03282674
-0.0035044206 0.0076936134 -0.013349493 0.024327967 -0.0001007907 -0.006106245 -0.016100224 -0.014798603
0.009665592 0.015618425 0.005844303 0.0011697202 0.008983102 -0.022497546 -0.007024828 -0.029641198
-0.012534365 0.010314148 -0.0032899878 0.005239313 0.002233033 0.01409677 0.0035676952 -0.00518638
-0.0033455854 -0.011708 0.00919037 -0.0068858895 0.008728155 -0.017245324 -0.004006028 0.006061392
-0.011104431 -0.00017789958 0.0150499195 -0.010446584 0.0054670363 -0.017131705 0.020080004 -0.004354909
-0.009679113 -0.0158681 0.017259773 -0.0090896785 -0.0022622384 0.02213234 0.019521184 0.006445727
-0.0036037154 -0.022657793 -0.023438348 0.017914288 0.008123812 0.0012855991 0.023233533 -0.013996831
0.004869141 -0.0034015228 -0.011533455 -0.0006614794 0.026560746 -0.013850434 -0.005664005 -0.0018572527
-0.0036757484 0.014439285 0.0018643314 0.016389493 0.008411884 -0.004217437 0.0013960114 -0.022022784
-0.014521648 -0.023356818 -0.017043767 0.009709538 -0.01706992 0.003949323 0.0044334256 -0.0018337658
0.00210348 0.0014608603 0.004331077 -0.00857968 -0.0044188173 -0.015286607 -0.009554238 -0.008342731
-0.004393758 -0.021926844 0.00012455728 0.007374794 0.006916106 -0.002425425 0.0061821262 -0.006835777
-0.0011600672 -0.024269102 -0.011804335 -0.0073946426 -0.012760895 -0.007942304 -0.010097779 -0.015061664
-0.013644664 0.0011693476 -0.012555817 0.0066878516 -0.03191295 -0.023044283 -0.0059918235 -0.0031466365
-0.0025829782 -0.0133350575 -0.018977758 0.019527888 0.01371059 -0.021785913 -0.01104537 0.005294838
-0.021898013 -0.030286552 -0.027009528 -0.015694171 0.027473887 -0.026804755 0.026817357 0.017415795
0.024925707 0.014349284 -0.001169657 -0.025454901 -0.044715624 -0.01059375 0.011258819 0.04192755
-0.060459625 0.010205142 -0.04353111 -0.01875159 0.018546889 0.014729881 -0.00044963812 0.007875808
-0.033841044 -0.020928973 0.018456146 0.023859797 0.015987886 -0.012251444 -0.035564996 0.018309632
-0.02435245 -0.022622555 0.008310417 -0.010104481 -0.013282382 -0.0069138636 -0.020517899 0.031147
-0.02172298 0.02584826 -0.02228699 -0.022725677 -0.028123654 -0.0014332042 0.0005001552 0.008842263
0.03882202 0.020870814 -0.022753222 0.03261234 -0.039049454 0.010174089 -0.043090336 0.008652703
0.0020521267 -0.025248732 0.024529628 -0.015764887 -0.029061602 0.018383792 0.023843154 -0.020049032
0.0055080736 0.0065589156 0.0058381176 -0.013311325 -0.020573327 0.012036925 -0.023486633 -0.014280104
-0.029113268 -0.01965737 -0.004645295 0.020387128 0.02772358 0.024451075 -0.02846068 -0.0037074657
-0.0041093463 0.007726278 0.02606737 -0.0069304146 -0.01801989 0.0049366504 -0.0005620773 -0.03192974
-0.04615618 -0.036251172 -0.029056987 0.00012834114 -0.014642523 0.017012896 -0.01940457 -0.0018780346
-0.017901523 0.020841405 -0.034518227 -0.009017804 0.027253529 0.039386056 -0.016987627 0.01719849
-0.021279354 0.010807841 -0.018078936 0.027806228 -0.020658474 0.05044522 0.01702919 -0.015623666
0.009040449 0.031392585 -0.03773674 0.0031323023 0.011896644 0.013760185 -0.002092577 0.016162306
00000000: 13d5 6a3c 7eca b5ba ab17 4d3c 2a9b d7bb
00000010: 3b14 5ebc 1e1f b2bc 2d6e f7bb c3ba 47bc
00000020: 9bc6 bb3a 7f9e 8c3c b032 5d3c ecf8 ee3b
00000030: 42d1 a6bc 32d2 d7ba 2a2b 133b 5575 063d
00000040: 6caa 65bb b51a fc3b d5b7 5abc 724b c73c
00000050: 985f d3b8 e516 c8bb 9ee4 83bc d775 72bc
00000060: 6e5c 1e3c 6ce4 7f3c 9181 bf3b 4c51 993a
00000070: dc2d 133c c64c b8bc 8730 e6bb 19d2 f2bc
00000080: f05c 4dbc acfc 283c d69c 57bb 8bae ab3b
00000090: 1458 123b 24f6 663c fecf 693b 82f2 a9bb
000000a0: 9c41 5bbb e9d2 3fbc 3593 163c 07a3 e1bb
000000b0: 8900 0f3c 1146 8dbc 0045 83bb a49e c63b
000000c0: 5cef 35bc 8e8a 3ab9 f093 763c 2628 2bbc
000000d0: d324 b33b ca57 8cbc d27e a43c a0b3 8ebb
000000e0: 2495 1ebc d1fd 81bc 5e64 8d3c e0ec 14bc
000000f0: 1042 14bb e24e b53c e4ea 9f3c ad36 d33b
00000100: 502c 6cbb d69c b9bc c701 c0bc fcc0 923c
00000110: bd19 053c 8c81 a83a 4054 be3c f752 65bc
00000120: 518d 9f3b 15ec 5ebb d1f6 3cbc 2267 2dba
00000130: ec95 d93c eeec 62bc 1e99 b9bb 0f6f f3ba
00000140: d3e4 70bb c092 6c3c 955c f43a 4243 863c
00000150: 00d2 093c 6d32 8abb 5ffa b63a 2069 b4bc
00000160: 35ec 6dbc cc56 bfbc 5f9f 8bbc c114 1f3c
00000170: 38d6 8bbc 5369 813b 4546 913b f85a f0ba
00000180: 8ada 093b 567a bf3a b5eb 8d3b c991 0cbc
00000190: bacb 90bb ad74 7abc 6189 1cbc f3af 08bc
000001a0: 83f9 8fbb ed9f b3bc 979b 0239 42a8 f13b
000001b0: 81a0 e23b e1f3 1ebb 6f93 ca3b a7fe dfbb
000001c0: 650d 98ba ffcf c6bc f866 41bc c24e f2bb
000001d0: 1313 51bc 7020 02bc 2871 25bc 33c5 76bc
000001e0: de8d 5fbc cb44 993a eab6 4dbc c425 db3b
000001f0: 27b7 02bd 5dc7 bcbc 0f57 c4bb cd37 4ebb
00000200: 2f47 29bb 497b 5abc 3e77 9bbc f3f8 9f3c
00000210: 62a2 603c 5f78 b2bc a4f7 34bc 5280 ad3b
00000220: 7663 b3bc 811b f8bc 1643 ddbc 1091 80bc
00000230: eb10 e13c a595 dbbc 13b0 db3c 92ab 8e3c
00000240: ff30 cc3c 4219 6b3c 2d4f 99ba cc86 d0bc
00000250: bb27 37bd 6891 2dbc e976 383c 39bc 2b3d
00000260: 83a4 77bd 7833 273c ad4d 32bd ef9c 99bc
00000270: a5ef 973c 9955 713c 68bd ebb9 8809 013c
00000280: e89c 0abd 3d73 abbc 5831 973c 9f75 c33c
00000290: 07f9 823c 48ba 48bc 9aac 11bd 15fe 953c
000002a0: ca7e c7bc f052 b9bc 6a28 083c 448d 25bc
000002b0: 599e 59bc b18d e2bb 2715 a8bc fe27 ff3c
000002c0: 64f4 b1bc bbbf d33c 3593 b6bc 332b babc
000002d0: 9463 e6bc 5ada bbba d91c 033a 24df 103c
000002e0: d703 1f3d 45f9 aa3c f764 babc 8494 053d
000002f0: 52f2 1fbd 39b1 263c 7e7f 30bd 11c4 0d3c
00000300: f97c 063b 6ed6 cebc 5cf2 c83c 5d25 81bc
00000310: 9912 eebc 9b99 963c b852 c33c de3d a4bc
00000320: 127d b43b 2cec d63b ae4d bf3b be17 5abc
00000330: 6589 a8bc 8636 453c 0a67 c0bc 19f7 69bc
00000340: f37e eebc 7e08 a1bc 8f37 98bb e802 a73c
00000350: 901c e33c 9f4d c83c 5f26 e9bc f4f8 72bb
00000360: b2a7 86bb b82c fd3b 3d8b d53c 8818 e3bb
00000370: 739e 93bc a0c3 a13b 5e58 13ba c2c8 02bd
00000380: 430e 3dbd 1c7c 14bd eb08 eebc 5093 0639
00000390: 31e7 6fbc a15e 8b3c 55f6 9ebc 6228 f6ba
000003a0: 37a6 92bc 98bb aa3c fc62 0dbd 69bf 13bc
000003b0: cb42 df3c 4653 213d a329 8bbc d9e3 8c3c
000003c0: 0a52 aebc 5f13 313c 471a 94bc e3c9 e33c
000003d0: f63b a9bc a69f 4e3d cd80 8b3c 68fa 7fbc
000003e0: 641e 143c 8395 003d d791 1abd 5047 4d3b
000003f0: 24ea 423c 6672 613c 9e23 09bb d066 843c

network_body.linear_encoder.seq_layers.0.bias f4 [128]
0.013062247 0.0019196294 0.004777447 0.0013940376 -0.0026610275 0.005700391 0.009193414 0.020585002
0.00071554736 0.026824083 0.029259158 0.012228007 0.0037151023 0.0051586716 0.004938973 0.0031771727
0.012419645 0.005173257 -0.019121472 -0.0056356415 0.007773847 -0.025724813 -0.00456696 -0.003290227
0.01726669 0.009466499 0.0074190022 0.021797014 0.0051546735 0.0030470716 0.01586594 0.011044615
0.021036875 0.01663823 0.01739591 0.022670915 0.015210988 0.013403393 -0.02166962 0.015072492
-0.0063044867 0.006627091 0.021585057 -0.003436704 0.0044451454 0.021216176 -0.020335952 -0.009104501
0.012919874 0.016230376 0.026914978 0.004892522 0.0089322785 -0.001357075 0.008333895 0.013150815
0.031803835 -0.0068200123 -0.00704762 -0.0020240722 -0.004503029 0.00074700906 0.011554356 0.02614171
0.015742624 -0.0026790835 0.0014354939 -0.0012905705 0.0004928702 -0.021667944 0.021994239 0.00979962
-0.012357977 0.007868446 -0.0033796246 0.013304119 0.009467138 0.013521457 0.015153802 0.008447018
0.012753353 0.012943663 0.011565195 0.006328251 0.020951487 -0.016195891 -0.011062514 0.0068721618
-0.0076588793 0.02740593 0.0145764565 0.015189683 0.0065269456 0.011057118 -0.0076278946 0.009128716
0.016401805 -0.020685432 0.02137677 -0.017870802 -0.020937039 0.0029017276 0.0065465234 0.0019628955
0.0120361 0.016934283 -0.001807406 -0.0068104533 -0.0018709885 -0.011270002 0.0055803373 -0.023786481
-0.017420169 0.040386636 0.0028024032 -0.008935625 0.004646436 0.004677144 0.0061687646 0.033457227
-0.00022490032 -0.0025233498 0.019669855 0.012440007 0.05069686 0.028427882 0.032886736 0.011682174
00000000: 0903 563c 139c fb3a 218c 9c3b 24b8 b63a
00000010: a264 2ebb 58ca ba3b f99f 163c e1a1 a83c
00000020: 9293 3b3a 2ebe db3c e7b0 ef3c fb57 483c
00000030: 1379 733b 130a a93b 1cd7 a13b 1d38 503b
00000040: c47b 4b3c 6d84 a93b a2a4 9cbc 30ab b8bb
00000050: c1bb fe3b d8bc d2bc 70a6 95bb d9a0 57bb
00000060: e072 8d3c 6019 1b3c 1a1b f33b a78f b23c
00000070: 89e8 a83b 61b1 473b 4af9 813c 79f4 343c
00000080: 8655 ac3c e64c 883c de81 8e3c 5bb8 b93c
00000090: 8237 793c e899 5b3c 7d84 b1bc 9df2 763c
000000a0: de95 cebb 1228 d93b 25d3 b03c 533a 61bb
000000b0: 95a8 913b 8ccd ad3c 9597 a6bc 0c2b 15bc
000000c0: e1ad 533c 91f5 843c cd7c dc3c 7351 a03b
000000d0: b158 123c e1df b1ba e48a 083c 8476 573c
000000e0: bd44 023d 697a dfbb b9ef e6bb 4ca6 04bb
000000f0: 258e 93bb eed2 433a 7b4e 3d3c 2427 d63c
00000100: adf6 803c 9093 2fbb 2f27 bc3a 5c28 a9ba
00000110: f633 013a f980 b1bc 432d b43c 968e 203c
00000120: 1d79 4abc a8ea 003c b17c 5dbb 85f9 593c
00000130: 0e1c 1b3c 1a89 5d3c a747 783c 5d65 0a3c
00000140: 71f3 503c a811 543c f27b 3d3c 385d cf3b
00000150: 74a2 ab3c 3fad 84bc 8c3f 35bc df2f e13b
00000160: 56f7 fabb 6782 e03c 17d2 6e3c 26de 783c
00000170: fddf d53b ea28 353c 6bf3 f9bb 9c90 153c
00000180: 145d 863c 7f74 a9bc 561e af3c ca65 92bc
00000190: 2784 abbc e92a 3e3b 3884 d63b eca3 003b
000001a0: 1033 453c c4b9 8a3c 7be6 ecba 392a dfbb
000001b0: f53b f5ba d1a5 38bc 43db b63b dedb c2bc
000001c0: beb4 8ebc 756c 253d 86a8 373b ba66 12bc
000001d0: 2141 983b ba42 993b 5923 ca3b 720a 093d
000001e0: 38d3 6bb9 c95e 25bb ad22 a13c 2cd1 4b3c
000001f0: 83a7 4f3d 97e1 e83c 3eb4 063d 9766 3f3c

network_body.linear_encoder.seq_layers.0.weight f4 [128, 28]
0.12851408 -0.030960625 0.26066566 0.20608144 -0.07866462 -0.30693918 0.24353607 -0.0768296
0.325372 0.14393644 -0.07674575 -0.030820642 -0.38575846 0.0079829255 0.084330454 0.1830032
-0.018391008 0.36139473 -0.24518123 0.015762856 -0.13498865 -0.044971313 -0.11040102 0.1743829
0.16431372 -0.111683115 0.08434047 0.14586867 0.082924955 -0.01866109 -0.03024963 -0.22021358
0.31682417 -0.1061036 0.04325748 0.043778807 0.2739137 -0.24153478 -0.06793878 0.07320276
0.14380734 0.011924836 0.13601671 -0.0420785 -0.08895863 0.28976664 0.009097263 -0.17542072
-0.34493637 -0.1281097 0.015182154 0.16878897 0.0047645303 -0.09211336 -0.39169484 0.10193704
0.078778915 0.17096984 0.10498979 0.124673806 -0.13348882 -0.110753134 0.25902957 -0.011204552
0.30763906 -0.044237692 0.23370169 -0.07807728 0.23473449 0.2989329 0.53352433 -0.32234955
0.016212413 -0.026178896 -0.13769643 -0.19936505 -0.0066687274 -0.43188733 -0.08410524 -0.29607457
-0.025976399 0.3013368 -0.24158537 0.2128712 -0.1975613 -0.34443578 0.31165445 -0.25348547
-0.100257576 -0.09228752 -0.1330248 -0.14222044 0.118137866 0.2998853 0.016497035 0.15986347
-0.06348016 0.07107999 -0.15417652 -0.011407749 0.03541152 0.08032369 0.16824913 -0.06279056
-0.00018512785 0.2251542 -0.31706363 0.1153706 -0.14488827 0.07968304 0.11699977 -0.19146131
0.06897673 -0.02054899 0.2538042 0.27644765 -0.18600543 0.2686319 -0.058765363 0.15641348
0.058527265 0.31489798 0.1515493 -0.08871945 0.051977437 -0.04951083 0.2646164 -0.26580703
-0.12153349 -0.016228616 -0.082015894 -0.30878934 0.023785632 -0.16119021 -0.161705 -0.18476301
-0.39678863 0.12553513 -0.09670676 -0.012404747 -0.02858206 0.04717641 -0.16403373 0.2660095
-0.21862851 -0.050069958 -0.07630939 -0.080320105 -0.1752714 -0.015464999 -0.25145254 0.24331646
-0.7324541 0.1884497 0.5400081 -0.055917144 -0.14995326 0.07898341 0.06428566 0.25437567
0.074492574 -0.022420023 0.41095528 0.20440629 -0.3811719 0.15719926 0.16538158 -0.05525226
0.24717186 0.27880386 -0.29821908 -0.029115235 0.063301906 0.03110264 0.18248484 -0.2554132
-0.034337394 0.13093273 0.36868218 0.24123791 -0.2116764 0.1345174 0.17846328 -0.0689442
-0.029157227 0.106480025 0.10571236 -0.0041745226 0.17504686 -0.07414927 0.24479467 0.4086191
0.028033735 -0.335959 0.1431828 0.13132201 0.33661512 0.03732905 0.030428767 -0.11403311
-0.041133303 0.065337725 0.1387512 -0.1212978 0.16897789 0.254235 0.28078887 -0.07868304
0.045602553 0.09365677 -0.19687861 0.013503507 0.13221999 0.06578395 0.23918739 -0.11105842
0.16437353 -0.6542102 -0.19985203 -0.25865054 -0.01944148 -0.2882896 -0.33314016 -0.1397153
0.09116689 0.21252042 -0.04902956 -0.08508226 0.08339493 0.039266683 -0.097792424 -0.19374804
-0.16721828 0.41547942 -0.023233445 0.045739632 0.00086549943 0.1606633 0.3154332 0.010191689
-0.04588926 -0.24961458 -0.060604297 -0.12395456 -0.38820192 0.16548617 -0.39020538 -0.031789005
0.039636075 -0.06966708 0.27756777 0.05591704 0.3397442 -0.1038649 -0.21366812 0.024852803
00000000: 3299 033e 23a1 fdbc f875 853e 0307 533e
00000010: eb1a a1bd 2227 9dbe 8561 793e d658 9dbd
00000020: 2997 a63e 1364 133e e02c 9dbd 927b fcbc
00000030: 2282 c5be d1ca 023c 72b5 ac3d 3165 3b3e
00000040: bda8 96bc bb08 b93e ca10 7bbe 1b21 813c
00000050: 773a 0abe d733 38bd ee19 e2bd 6e91 323e
00000060: db41 283e 1eba e4bd b2ba ac3d 995e 153e
00000070: 8fd4 a93d 24df 98bc 12ce f7bc ab7f 61be
00000080: c736 a23e d84c d9bd c12e 313d 6851 333d
00000090: 6b3e 8c3e e554 77be 7d23 8bbd 54eb 953d
000000a0: 3b42 133e 6360 433c f747 0b3e 815a 2cbd
000000b0: f12f b6bd 4b5c 943e b00c 153c 7da1 33be
000000c0: 809b b0be 302f 03be 92be 783c 04d7 2c3e
000000d0: c71f 9c3b eea5 bcbd 3a8c c8be 5ec4 d03d
000000e0: d756 a13d b812 2f3e e304 d73d fb54 ff3d
000000f0: 4bb1 08be 8ad2 e2bd 869f 843e 4c93 37bc
00000100: de82 9d3e 9532 35bd 7f4f 6f3e fbe6 9fbd
00000110: 3d5e 703e bc0d 993e 0d95 083f 000b a5be
00000120: e5cf 843c 2075 d6bc 4b00 0dbe 5a26 4cbe
00000130: 5785 dabb 5620 ddbe 5e3f acbd 1697 97be
00000140: 75cc d4bc d148 9a3e 2862 77be e8fa 593e
00000150: 824d 4abe e359 b0be 2c91 9f3e d9c8 81be
00000160: d853 cdbd 3d01 bdbd a737 08be 3ca2 11be
00000170: 44f2 f13d 918a 993e ca24 873c 40b3 233e
00000180: e301 82bd 6392 913d 73e0 1dbe 91e7 3abc
00000190: ac0b 113d bf80 a43d 8049 2c3e 5698 80bd
000001a0: e11e 42b9 d38e 663e 2a56 a2be 6c47 ec3d
000001b0: 975d 14be dd30 a33d 939d ef3d 6f0e 44be
000001c0: ac43 8d3d 5b56 a8bc a0f2 813e 8c8a 8d3e
000001d0: 3578 3ebe 1f8a 893e f3b3 70bd db2a 203e
000001e0: 49ba 6f3d 4f3a a13e bd2f 1b3e 8bb2 b5bd
000001f0: 4be6 543d decb 4abd cd7b 873e dc17 88be
00000200: 8de6 f8bd e0f1 84bc f3f7 a7bd a319 9ebe
00000210: 16da c23c 0c0f 25be ff95 25be 8432 3dbe
00000220: e127 cbbe 488c 003e 320e c6bd 483d 4bbc
00000230: ed24 eabc 0d3c 413d 75f8 27be 6632 883e
00000240: 27e0 5fbe 2816 4dbd 1948 9cbd de7e a4bd
00000250: 597a 33be e860 7dbc 63be 80be f327 793e
00000260: 1d82 3bbf f5f8 403e f93d 0a3f 6009 65bd
00000270: 598d 19be 0ec2 a13d 33a8 833d 873d 823e
00000280: 908f 983d 32aa b7bc bb68 d23e e24f 513e
00000290: f728 c3be d8f8 203e ca59 293e 3250 62bd
000002a0: 9f1a 7d3e 61bf 8e3e 2cb0 98be 1383 eebc
000002b0: 6ea4 813d f7ca fe3c 4edd 3a3e 85c5 82be
000002c0: 5ea5 0cbd 3b13 063e e9c3 bc3e 1207 773e
000002d0: b3c1 58be eebe 093e 14bf 363e 9e32 8dbd
000002e0: 23db eebc 3312 da3d b97f d83d 6fca 88bb
000002f0: 7c3f 333e 93db 97bd 74ab 7a3e 8636 d13e
00000300: 01a7 e53c d102 acbe 839e 123e 4779 063e
00000310: d158 ac3e 59e6 183d c045 f93c 318a e9bd
00000320: 657b 28bd c9cf 853d cb14 0e3e fb6a f8bd
00000330: 8a08 2d3e 172b 823e 8fc3 8f3e 9324 a1bd
00000340: bec9 3a3d 1fcf bf3d 8c9a 49be d03d 5d3c
00000350: ad64 073e bcb9 863d 8aed 743e 9972 e3bd
00000360: 8951 283e 527a 27bf 03a6 4cbe d86d 84be
00000370: bd43 9fbc b29a 93be 5991 aabe 8711 0fbe
00000380: b5b5 ba3d f49e 593e 38d3 48bd 9c3f aebd
00000390: f6ca aa3d 1ad6 203d 6547 c8bd e365 46be
000003a0: 453b 2bbe b8b9 d43e 1154 bebc 7b59 3b3d
000003b0: afe2 623a ec84 243e 7680 a13e 0bfb 263c
000003c0: 60f6 3bbd f79a 7fbe 363c 78bd e3db fdbd
000003d0: 67c2 c6be 3575 293e 00c9 c7be 3035 02bd
000003e0: 7059 223d 9dad 8ebd 5d1d 8e3e 4409 653d
000003f0: f4f2 ad3e 1fb7 d4bd d1cb 5abe 1b98 cb3c

network_body.linear_encoder.seq_layers.2.bias f4 [128]
0.0005659153 0.008587997 -0.0141425375 0.0051770546 0.0058660097 0.012783282 -0.0045649577 0.011882165
-0.019965285 -0.011000109 -0.0095204655 -0.0055330624 0.020051412 0.00473424 0.014821525 -0.005236402
0.0092013655 0.004301505 0.0040869 -0.0028642216 0.0053030704 -0.013772548 0.001291137 0.007065401
0.011239164 -0.0056376043 0.012977072 0.0111938175 0.00365322 0.015115007 0.01711893 0.009076715
0.0133065935 -0.015488122 -0.0039938856 0.024462374 0.0005465869 -0.0070186607 0.008318771 0.002607733
0.006552792 -0.0029881315 0.011026457 -0.0024199877 0.011829062 -0.011391112 0.012226705 0.01705679
0.009779564 0.010963488 0.0072496557 0.019189253 0.005718314 -0.006484379 -0.0019365209 0.0039821793
0.025142813 0.011920144 -0.00042411205 0.016829709 -0.013691532 -0.011194648 -0.0049646795 0.00926791
0.005748285 -0.0013848477 0.014051249 -0.005207191 -0.004474719 0.008941562 0.011343761 0.023766508
0.0074765435 0.005356014 -0.011836137 -0.01846447 -0.010795946 0.010612765 0.015161904 -0.0068614604
-0.0053789746 -0.0098767765 -0.00997078 0.012003818 0.011153517 0.01049191 0.008380269 0.019227393
0.006870425 0.008482218 0.015672535 -0.0034168612 0.0015322427 -0.0016045365 -0.017591482 -0.0022157712
0.008057256 0.006487611 0.0012120121 -0.00670562 -0.0028925738 -0.00093140145 0.004973601 -0.00091973133
-0.0017991941 0.017188383 0.005973382 -0.011027172 0.0118098045 0.019375056 -0.0045400057 0.0054018083
-0.006894158 0.024719102 0.0034923253 0.011162745 -0.0016195619 0.024235079 0.008012442 -0.00013706223
0.0054473383 0.012324073 -0.0019186127 -0.005054897 0.0145585975 0.009855368 0.005054398 0.0053215497
00000000: ef59 143a acb4 0c3c 1ab6 67bc 48a4 a93b
00000010: a837 c03b f970 513c a495 95bb 6aad 423c
00000020: 3d8e a3bc cd39 34bc bafb 1bbc b14e b5bb
00000030: dc42 a43c af21 9b3b fbd5 723c 2096 abbb
00000040: 53c1 163c a4f3 8c3b 67eb 853b aab5 3bbb
00000050: 61c5 ad3b 41a6 61bc 5e3b a93a e184 e73b
00000060: 7824 383c a7bb b8bb c99d 543c 4666 373c
00000070: dc6a 6f3b efa4 773c 003d 8c3c 81b6 143c
00000080: e603 5a3c e4c1 7dbc 24df 82bb 5165 c83c
00000090: d348 0f3a cbfc e5bb 744b 083c 80e6 2a3b
000000a0: ceb8 d63b 87d4 43bb 50a8 343c a898 1ebb
000000b0: afce 413c c9a1 3abc 8552 483c aeba 8b3c
000000c0: 773a 203c 34a0 333c 858e ed3b c832 9d3c
000000d0: b260 bb3b ea7a d4bb dcd2 fdba f17c 823b
000000e0: 4df8 cd3c b54c 433c 5b5b deb9 75de 893c
000000f0: 7352 60bc c269 37bc c0ae a2bb 6fd8 173c
00000100: 1c5c bc3b c783 b5ba 3637 663c 16a1 aabb
00000110: aaa0 92bb a17f 123c 2fdb 393c fbb1 c23c
00000120: cbfd f43b 8081 af3b 5bec 41bc cd42 97bc
00000130: 7be1 30bc 2ae1 2d3c a269 783c 1ad6 e0bb
00000140: 1c42 b0bb 34d2 21bc 7c5c 23bc a9ab 443c
00000150: 3ebd 363c 43e6 2b3c 654d 093c c482 9d3c
00000160: 4d21 e13b 00f9 0a3c b063 803c 6bed 5fbb
00000170: 89d5 c83a 504f d2ba 031c 90bc 7936 11bb
00000180: 9502 043c 0796 d43b 61dc 9e3a d1ba dbbb
00000190: 5691 3dbb 4b29 74ba 97f9 a23b 201a 71ba
000001a0: f0d2 ebba a7ce 8c3c 5cbc c33b 50ab 34bc
000001b0: e97d 413c 70b8 9e3c 54c4 94bb a701 b13b
000001c0: 64e8 e1bb b77f ca3c 7fdf 643b f2e3 363c
000001d0: 7b47 d4ba a588 c63c 9e46 033c 5db8 0fb9
000001e0: 967f b23b e9ea 493c f679 fbba 8da3 a5bb
000001f0: 2f87 6e3c 6978 213c 5d9f a53b 6560 ae3b

network_body.linear_encoder.seq_layers.2.weight f4 [128, 128]
0.04925704 -0.08549044 -0.3437141 0.04150142 -0.047738634 0.02742952 0.018467767 -0.09174972
0.13504218 -0.12913498 -0.09103723 -0.042660784 0.08672448 -0.113956854 0.014662136 -0.05792
0.08800685 -0.17076464 -0.054447204 -0.023633754 0.05707713 -0.00560698 -0.040736098 0.12331849
0.0738571 0.01231876 0.07186141 -0.046392538 -0.13559465 -0.04853783 0.10075882 0.020862218
0.030254101 0.11634052 -0.040435474 -0.023754595 0.0818187 -0.062077727 -0.028516356 0.0021421257
-0.04856484 -0.065940045 0.1978057 -0.04532769 0.19853775 -0.017885553 0.07701658 0.113619946
-0.023628345 -0.058405608 -0.047931932 0.088826634 0.0443606 0.006493147 -0.029283678 -0.012001747
-0.02199273 0.06611342 -0.047192406 0.10026563 0.046893924 0.10574231 -0.19388658 0.1089802
-0.097107366 0.025125511 0.024709221 -0.05009097 0.007600556 0.06580836 0.07188028 0.053265814
0.112564944 -0.055405937 0.05962064 0.13553238 0.035775583 0.13481201 0.10086922 -0.110839084
-0.15890536 0.040837713 -0.043021385 -0.11312221 0.041103236 -0.0018214113 -0.07627117 0.1271577
0.13824415 0.041965418 0.07491962 -0.08626635 0.10793847 -0.12272521 0.007904623 0.084148526
-0.107088484 -0.1967661 -0.0073583093 -0.04681855 0.085694745 -0.026173253 -0.116540015 0.018474363
-0.08031448 -0.16252959 0.048270144 0.06720422 0.015617188 0.03433986 0.028420182 -0.06095274
0.08580144 -0.121956974 0.048411056 0.0206927 -0.049152512 -0.0401043 0.07276928 -0.04520082
-0.14265916 0.05433855 -0.10134003 0.092711665 -0.050966285 0.02874149 -0.031300314 -0.056335475
-0.09721448 -0.010482245 -0.11018916 -0.1110059 0.0021779118 -0.047297824 0.035578344 -0.075024605
0.07584456 0.0036337478 0.06255985 -0.05070943 -0.091274515 -0.19145961 0.09903835 0.042718567
-0.082524054 0.048887983 0.0945879 0.08903425 0.056474786 -0.18364531 0.06388994 0.0034484048
-0.022258386 -0.05255558 0.019346219 -0.17774846 0.23120762 -0.024041276 -0.03740066 -0.021799758
-0.057575084 0.09785804 0.031422723 -0.22365153 0.014106088 -0.014143784 -0.043243434 -0.06444391
-0.047606412 0.18079706 0.0040998403 0.07704864 0.0843304 -0.102913044 -0.08555503 0.0051813363
0.014335376 0.013630858 0.1368875 0.09886536 -0.08851597 -0.034908812 0.2104552 -0.056166865
-0.026919352 0.061424565 -0.017018165 0.02634665 -0.102944426 -0.10551563 -0.0019377891 -0.046329282
-0.008276475 0.038174342 0.0956424 0.011368233 0.04779001 0.15211873 0.122376025 0.17212708
-0.047043335 0.05456326 -0.053556267 0.088442154 -0.08832931 -0.011027261 0.06608225 0.16666648
-0.06143923 -0.079588525 -0.14336264 0.06916424 -0.05671092 0.08001328 0.11121592 -0.08529252
-0.11008718 -0.24219947 0.063619554 -0.07738888 0.12170864 -0.037018724 -0.02309399 -0.12666479
-0.08191156 0.016652448 0.0063039954 -0.00013998951 -0.08010869 -0.036478017 -0.07856461 0.18313806
0.046785366 -0.067393884 -0.057017967 0.027978975 -0.031626835 0.13035557 0.10733729 -0.036371276
0.018360563 -0.03144774 0.047745503 -0.07695386 0.20790337 0.049696654 0.09516435 0.105409704
-0.055179365 0.020556401 -0.03457654 -0.13826893 -0.21068206 0.09761682 -0.01752005 0.051683847
00000000: c0c1 493d 9d15 afbd 4bfb afbe 65fd 293d
00000010: 9689 43bd dfb3 e03c b749 973c 47e7 bbbd
00000020: 7f48 0a3e f63b 04be ba71 babd 13bd 2ebd
00000030: 9b9c b13d 3662 e9bd 7539 703c 863d 6dbd
00000040: ef3c b43d eddc 2ebe 0804 5fbd 939b c1bc
00000050: b5c9 693d c2ba b7bb e5da 26bd 688e fc3d
00000060: 6442 973d a0d4 493c 132c 933d 1a06 3ebd
00000070: 53d9 0abe 9bcf 46bd a45a ce3d 3ee7 aa3c
00000080: 73d7 f73c f043 ee3d ab9f 25bd ff98 c2bc
00000090: 9090 a73d 3745 7ebd 229b e9bc e862 0c3b
000000a0: edeb 46bd 930b 87bd 948d 4a3e 87a9 39bd
000000b0: 7b4d 4b3e b984 92bc deba 9d3d 93b1 e83d
000000c0: 3b90 c1bc b83a 6fbd 4654 44bd bdea b53d
000000d0: 76b3 353d 77c4 d43b 53e4 efbc faa2 44bc
000000e0: 192a b4bc 7966 873d d34c 41bd 1158 cd3d
000000f0: d813 403d 6d8f d83d 348a 46be 0331 df3d
00000100: 3ae0 c6bd 04d4 cd3c fe6a ca3c 302c 4dbd
00000110: 160e f93b 89c6 863d f835 933d 412d 5a3d
00000120: 7388 e63d 56f1 62bd c634 743d 00c9 0a3e
00000130: 6b89 123d 290c 0a3e 8694 ce3d 9aff e2bd
00000140: 16b8 22be 7245 273d 3137 30bd 9eac e7bd
00000150: de5b 283d 6cbc eeba 0f34 9cbd a135 023e
00000160: e08f 0d3e eee3 2b3d 756f 993d 69ac b0bd
00000170: d80e dd3d 5b57 fbbd 6482 013c 1056 ac3d
00000180: 3551 dbbd 0d7d 49be f91d f1bb cfc4 3fbd
00000190: ba80 af3d 4a69 d6bc 88ac eebd 8c57 973c
000001a0: eb7b a4bd 286e 26be eab6 453d 5ea2 893d
000001b0: 3cdf 7f3c f4a7 0c3d 71d1 e83c 95a9 79bd
000001c0: aab8 af3d 94c4 f9bd ac4a 463d bd83 a93c
000001d0: 2554 49bd 6844 24bd 0f08 953d 7f24 39bd
000001e0: 3e15 12be 1992 5e3d 5d8b cfbd 9ddf bd3d
000001f0: 06c2 50bd 4673 eb3c c234 00bd 07c0 66bd
00000200: 6318 c7bd b9bd 2bbc dbaa e1bd 1057 e3bd
00000210: 4cbb 0e3b 5dbb 41bd 99ba 113d 80a6 99bd
00000220: 6554 9b3d 2c24 6e3b 611f 803d b1b4 4fbd
00000230: 22ee babd fd0d 44be 9ed4 ca3d aaf9 2e3d
00000240: 5f02 a9bd c43e 483d 4db7 c13d 9757 b63d
00000250: 1b52 673d 840d 3cbe bbd8 823d a2fe 613b
00000260: 3857 b6bc 8544 57bd f67b 9e3c b103 36be
00000270: b1c1 6c3e 36f2 c4bc 6f31 19bd 6895 b2bc
00000280: dad3 6bbd cc69 c83d 1db5 003d e804 65be
00000290: 391d 673c 54bb 67bc 0720 31bd 2bfb 83bd
000002a0: f1fe 42bd dd22 393e f457 863b adcb 9d3d
000002b0: 6bb5 ac3d 13c4 d2bd 7a37 afbd 33c8 a93b
000002c0: edde 6a3c f653 5f3c 3d2c 0c3e ec79 ca3d
000002d0: dc47 b5bd 8bfc 0ebd 9181 573e 3a0f 66bd
000002e0: f985 dcbc 5398 7b3d ae69 8bbc eed4 d73c
000002f0: 87d4 d2bd 9418 d8bd 6afd fdba c6c3 3dbd
00000300: 0d9a 07bc b35c 1c3d 2ae0 c33d d341 3a3c
00000310: 75bf 433d 03c5 1b3e 48a0 fa3d 1542 303e
00000320: 83b0 40bd ba7d 5f3d d15d 5bbd 2921 b53d
00000330: ffe5 b4bd afab 34bc 2156 873d 9eaa 2a3e
00000340: b4a7 7bbd 4fff a2bd a8cd 12be fba5 8d3d
00000350: b649 68bd 01de a33d 2cc5 e33d d8ad aebd
00000360: 6375 e1bd 2303 78be f84a 823d 107e 9ebd
00000370: 6142 f93d f2a0 17bd 9b2f bdbc 6ab4 01be
00000380: 3fc1 a7bd b76a 883c bf91 ce3b 26ca 12b9
00000390: 0610 a4bd f969 15bd 7be6 a0bd 8b88 3b3e
000003a0: 03a2 3f3d ce05 8abd ac8b 69bd 2a34 e53c
000003b0: 248b 01bd ee7b 053e a7d3 db3d 0cfa 14bd
000003c0: e468 963c 58cf 00bd ca90 433d fc99 9dbd
000003d0: 9fe4 543e b88e 4b3d 87e5 c23d 0be1 d73d
000003e0: c203 62bd e665 a83c 21a0 0dbd 5f96 0dbe
000003f0: 0abd 57be 54eb c73d 3586 8fbc 71b2 533d
