results/2022_0313_1526/Fight/Fight-999995.pt (torch, 508871 bytes, 33 tensors)

network_body.linear_encoder.seq_layers.0.weight f4 [128, 28]
0	0x3dd870b8	0.105683744
1	0xbd270a80	-0.040781498
2	0x3e7d68f5	0.24747069
3	0x3e48a70c	0.19594973
4	0xbd8f3a76	-0.069935724
5	0xbea23f7e	-0.31689066
6	0x3e70e6f4	0.23525602
7	0xbdaa9ab6	-0.0833029
8	0x3ea89a77	0.32930347
9	0x3e0a0a6d	0.1348054
10	0xbd9e0844	-0.0771642
11	0xbd106c07	-0.035259273
12	0xbec647da	-0.38726693
13	0x3a3781d2	0.0007000241
14	0x3db3d236	0.08780329
15	0x3e38eff3	0.18060283
16	0xbc984103	-0.018585688
17	0x3eb50271	0.35353425
18	0xbe8179a2	-0.2528811
19	0x3c2a1784	0.010381583
20	0xbe121ced	-0.14268847
21	0xbd4e3e96	-0.050352655
22	0xbdd7a041	-0.10528613
23	0x3e321826	0.17392024
24	0x3e3421db	0.1759104
25	0xbde9076d	-0.113783695
26	0x3daec1a7	0.0853303
27	0x3e0ccf5b	0.13750975
28	0x3d94655c	0.07245895
29	0xbbfd5f94	-0.007732341
30	0xbcefe15e	-0.029282268
31	0xbe539079	-0.2066058
32	0x3ea4840f	0.32132003
33	0xbdbcb914	-0.09214988
34	0x3d85fa57	0.06541889
35	0x3d8758de	0.06608747
36	0x3e8f5e84	0.28001797
37	0xbe69f66c	-0.22847909
38	0xbd163fbc	-0.036681876
39	0x3dca8a78	0.09889692
40	0x3e21a28a	0.1578466
41	0x3ce56660	0.028002918
42	0x3e2dccba	0.16972628
43	0xbc69ada7	-0.014262593
44	0xbda40918	-0.08009547
45	0x3e9c22cb	0.30495295
46	0x3c624b7a	0.01381194
47	0xbe1dc2d4	-0.15406352
48	0xbeae3170	-0.34022093
49	0xbddaa108	-0.106752455
50	0x3bd1999f	0.006396487
51	0x3e463a72	0.19358233
52	0xbc80648f	-0.01567295
53	0xbd8fe7ad	-0.070266105
54	0xbec27c1c	-0.37985313
55	0x3dc7759e	0.097392306
56	0x3dc60001	0.096679695
57	0x3e3983fa	0.18116751
58	0x3dd3c5a5	0.10340432
59	0x3e0734bd	0.13203712
60	0xbe044677	-0.12917505
61	0xbdc72e16	-0.09725587
62	0x3e7db4a5	0.24775942
63	0xbc3eff77	-0.011657587
64	0x3ea088da	0.3135441
65	0xbcf9dec2	-0.030501727
66	0x3e5d0209	0.21582808
67	0xbda49175	-0.08035556
68	0x3e78d2e5	0.242992
69	0x3e9f1373	0.31069526
70	0x3f0603df	0.52349657
71	0xbea5655a	-0.32303888
72	0x3d037731	0.03209609
73	0xbc732217	-0.014839671
74	0xbe027763	-0.12740855
75	0xbe44582f	-0.19174264
76	0x3b6d319a	0.0036192895
77	0xbed93948	-0.42426515
78	0xbdb1813c	-0.086672276
79	0xbe926a3b	-0.28596672
80	0xbcfe323d	-0.031029815
81	0x3e99e1c2	0.30055052
82	0xbe7eee18	-0.24895513
83	0x3e66faa5	0.22556551
84	0xbe41a1f9	-0.18909444
85	0xbeb47001	-0.35241702
86	0x3ea00c47	0.31259367
87	0xbe83d446	-0.2574789
88	0xbe11d0c3	-0.14239793
89	0xbdcb4237	-0.09924739
90	0xbe07d819	-0.13266028
91	0xbe0f4109	-0.13989653
92	0x3dd93fec	0.10607895
93	0x3e9774f9	0.2958143
94	0x3cd7dcd8	0.026350424
95	0x3e296dcc	0.1654579
96	0xbd922131	-0.07135237
97	0x3d92eab7	0.071736746
98	0xbe0fff20	-0.14062166
99	0xbc056ea8	-0.008144058
100	0x3d0c573f	0.03426289
101	0x3dab75f2	0.08372106
102	0x3e435996	0.19077143
103	0xbd6ff648	-0.05858448
104	0x3cb6fc96	0.02233724
105	0x3e6add6e	0.22936031
106	0xbea92b5f	-0.33040902
107	0x3dfee957	0.1244685
108	0xbe2c2baa	-0.16813532
109	0x3d94fa11	0.07274259
110	0x3de57bcc	0.11205253
111	0xbe3fc00a	-0.18725601
112	0x3dbef6f0	0.09324443
113	0xbbeb1568	-0.0071741827
114	0x3e84f34b	0.25966868
115	0x3e9230c5	0.28552833
116	0xbe239fac	-0.15978879
117	0x3e94d777	0.29070637
118	0xbd952ea5	-0.07284287
119	0x3e247a5b	0.160623
120	0x3d8f0855	0.06984011
121	0x3eadd8c9	0.33954456
122	0x3e10b881	0.14132883
123	0xbdaffde8	-0.08593351
124	0x3d5c8463	0.05383719
125	0xbce5e2f0	-0.028062314
126	0x3e85b168	0.26111913
127	0xbe874faf	-0.2642798
128	0xbdd97244	-0.106174976
129	0x3b91f33c	0.0044540446
130	0xbd7b4645	-0.06134631
131	0xbe97aa64	-0.29622185
132	0x3d3616a3	0.04445518
133	0xbe1830ab	-0.14862315
134	0xbe247da9	-0.1606356
135	0xbe2e9166	-0.17047653
136	0xbed0535d	-0.406886
137	0x3e05d758	0.13070428
138	0xbdd82880	-0.105546
139	0x3c5a7ebf	0.013335883
140	0xbd5801bd	-0.052736033
141	0x3d00d716	0.031455122
142	0xbe2f08af	-0.17093156
143	0x3e7fcce0	0.24980497
144	0xbe74af75	-0.23895057
145	0xbd8b5b88	-0.068045676
146	0xbd93fa4b	-0.07225474
147	0xbdad2aa1	-0.084553964
148	0xbe384404	-0.17994696
149	0xbd00e9f5	-0.03147312
150	0xbe73f5fc	-0.23824304
151	0x3e79c16a	0.24390188
152	0xbf3c4b37	-0.7355227
153	0x3e349ba9	0.17637505
154	0x3f0c3136	0.5476259
155	0xbd68f2e7	-0.056872275
156	0xbe1faa11	-0.15592219
157	0x3d8718fd	0.06596563
158	0x3d786bc9	0.060649667
159	0x3e7b4c39	0.24540795
160	0x3d911d37	0.070856504
161	0xbd009050	-0.031387627
162	0x3ed23172	0.4105335
163	0x3e4cd31f	0.20002411
164	0xbebe71c7	-0.3719618
165	0x3e1b614b	0.15173833
166	0x3e29490e	0.16531774
167	0xbd6fdcde	-0.058560245
168	0x3e6239b8	0.2209233
169	0x3e87efd7	0.2655017
170	0xbea02cd1	-0.31284192
171	0xbd38d354	-0.045123413
172	0x3d80c47d	0.06287477
173	0x3c933237	0.01796828
174	0x3e352020	0.17688036
175	0xbe866191	-0.26246312
176	0xbcfff089	-0.031242626
177	0x3df5a417	0.11994188
178	0x3ebf2dff	0.3733978
179	0x3e73db94	0.23814231
180	0xbe5805a9	-0.21095909
181	0x3e017932	0.12643889
182	0x3e3a99b3	0.18222694
183	0xbd944b75	-0.07240955
184	0xbd05c864	-0.03266181
185	0x3dc4174e	0.095747575
186	0x3dc86ba1	0.097861536
187	0xbc4e9218	-0.012608074
188	0x3e2b3587	0.16719638
189	0xbda92132	-0.08258285
190	0x3e805f3e	0.25072664
191	0x3ed1f35b	0.41005978
192	0x3d0fcc8d	0.035107184
193	0xbeaedad4	-0.34151328
194	0x3e0aa97c	0.13541216
195	0x3e0bfee0	0.13671446
196	0x3eb5a102	0.35474402
197	0x3d46a1c3	0.04849411
198	0x3d049bc5	0.032375116
199	0xbde763c0	-0.11298323
200	0xbcc5507a	-0.024086226
201	0x3d9f53ba	0.077796414
202	0x3e091df6	0.13390335
203	0xbdf50377	-0.119635515
204	0x3e3e32b5	0.1857403
205	0x3e882c03	0.26596078
206	0x3e8c0db1	0.27354196
207	0xbda2afbc	-0.07943675
208	0x3d27543d	0.04085182
209	0x3dcfcc58	0.10146397
210	0xbe4db5ee	-0.20088932
211	0x3c446faa	0.011989513
212	0x3e08e4b7	0.13368498
213	0x3d8b36d5	0.06797568
214	0x3e7e0930	0.24808192
215	0xbddbbe2a	-0.1072963
216	0x3e316d1f	0.17326783
217	0xbf2683bb	-0.65044755
218	0xbe4fa51e	-0.20277831
219	0xbe7f52a1	-0.24933864
220	0xbcc7fcf1	-0.024412604
221	0xbe94bb64	-0.29049218
222	0xbeadfdd8	-0.3398273
223	0xbe0567dc	-0.130279
224	0x3dc6eefa	0.0971355
225	0x3e5686d1	0.20949866
226	0xbd6540c7	-0.05596998
227	0xbdbcfb47	-0.09227615
228	0x3dc083ad	0.09400115
229	0x3d3ac630	0.045599163
230	0xbddb0ac8	-0.10695416
231	0xbe4ac3ef	-0.19801305
232	0xbe2fa20c	-0.1715166
233	0x3ed8ea51	0.4236627
234	0xbcf93517	-0.030420823
235	0x3d245d69	0.040128145
236	0xbc8972f1	-0.016778441
237	0x3e2ad0c2	0.16681197
238	0x3e9f0754	0.31060278
239	0x3b9e05d6	0.004822473
240	0xbd60711b	-0.054795366
241	0xbe7b2f9e	-0.24529883
242	0xbd435628	-0.047689587
243	0xbdfb0eba	-0.12258668
244	0xbec025b0	-0.37528753
245	0x3e2adbc2	0.16685393
246	0xbec1b5ed	-0.3783411
247	0xbd1206d4	-0.035651043
248	0x3d215f52	0.039397545
249	0xbda78b4e	-0.08180867
250	0x3e8a8cb4	0.27060473
251	0x3d9b2f74	0.0757741
252	0x3ec00c31	0.375093
253	0xbd950984	-0.072772056
254	0xbe4c769f	-0.19967125
255	0x3d626f33	0.05528183

network_body.linear_encoder.seq_layers.0.bias f4 [128]
0	0x3c04ec60	0.008112997
1	0x3cc69678	0.024241671
2	0x3bc51135	0.006014014
3	0x3a27ff4e	0.0006408588
4	0x3b2ce795	0.002638315
5	0xba325853	-0.00068033225
6	0x3b353264	0.0027648443
7	0x3cada6af	0.021197645
8	0xbba60246	-0.005066189
9	0x3d40ea63	0.04709853
10	0x3d3a5c25	0.045498032
11	0x3c84e5ca	0.016222853
12	0xbaf833ba	-0.0018936314
13	0x3b377d33	0.0027998209
14	0x3bcd37fe	0.0062627783
15	0x3c3facd0	0.011698917
16	0x3c16c476	0.009202113
17	0x3b2f79dd	0.0026775517
18	0xbc7cc5e6	-0.015428042
19	0xbc633d45	-0.013869588
20	0x3be4c934	0.006981993
21	0xbc795ce5	-0.015219902
22	0xbc139535	-0.009007742
23	0xbc4586c9	-0.012056061
24	0x3cc603f3	0.024171805
25	0xbaa6a92f	-0.0012715216
26	0x3bed8132	0.0072480673
27	0x3c936ce1	0.017996253
28	0x3b331748	0.002732711
29	0x3c6d9b41	0.014502347
30	0x3c8df8e4	0.017330594
31	0x3c24e306	0.010063892
32	0x3c473ca9	0.012160459
33	0x3cbf3e46	0.023345124
34	0x3cb599df	0.022168098
35	0x3c9b88a3	0.018986052
36	0x3cb2b117	0.021812959
37	0x3b91b48a	0.0044465708
38	0x3a48947c	0.00076515204
39	0x3c068693	0.008210796
40	0xba48ebc8	-0.00076645287
41	0xbb3014bd	-0.002686783
42	0x3d245a4f	0.040125187
43	0x3a14b718	0.0005673035
44	0x3bf7baa0	0.007560089
45	0x3b9a77db	0.004713995
46	0xbc744ef0	-0.014911398
47	0xbc447dec	-0.011992913
48	0x3c946497	0.018114371
49	0x3c59cb79	0.013293141
50	0x3d0595a9	0.03261343
51	0x3c676b73	0.014124739
52	0x3c42d87c	0.011892434
53	0x39b11042	0.00033772184
54	0x3a72ba8c	0.0009259365
55	0x3c395cb5	0.011313607
56	0x3cf5fe81	0.030028583
57	0xbbe24826	-0.0069055734
58	0xba85f889	-0.0010221164
59	0xba657bbd	-0.0008754095
60	0xbbb7a8e9	-0.0056048525
61	0xbbf59d5b	-0.007495565
62	0x3aab8885	0.0013086951
63	0x3d1bd34d	0.03804331
64	0x3c3586f4	0.011079539
65	0x3b69fb8f	0.003570292
66	0x3c11d73c	0.0089014135
67	0x39b16e4d	0.0003384225
68	0x3b8fda5a	0.004390043
69	0xbc07dffd	-0.008293149
70	0x3d02c9e6	0.031930827
71	0x3b9b3c2f	0.004737399
72	0xbc8eeb21	-0.017446103
73	0x3c38ddb9	0.011283332
74	0xbb58dbdf	-0.0033090038
75	0x3c941b60	0.01807946
76	0x3c135cd7	0.008994303
77	0x3be33e63	0.0069349273
78	0x3c944f8c	0.018104337
79	0x3c9cd30c	0.019143604
80	0x3c9b230f	0.018937616
81	0x3c75acc0	0.0149948
82	0x3c1080ca	0.008819768
83	0x3baa990a	0.005206232
84	0x3c9c753a	0.019098867
85	0xbca61bb7	-0.020276887
86	0xbc0f1b5c	-0.00873455
87	0x3c06c98f	0.008226766
88	0xbc036b78	-0.008021228
89	0x3d016bbe	0.03159689
90	0x3c6d8c9d	0.014498857
91	0x3c94011a	0.018066932
92	0x3a16fca2	0.0005759691
93	0x3c8ec89a	0.017429639
94	0xbb1083bb	-0.0022051174
95	0x3c92378c	0.017848752
96	0x3c20dbe0	0.009818047
97	0xbd3370e5	-0.043808836
98	0x3ca80f19	0.020515012
99	0x385399ad	5.0449442e-05
100	0xbcefbfd8	-0.029266283
101	0x3bf3ace4	0.0074363817
102	0x3bf2b724	0.007407086
103	0xb9c0c1e7	-0.00036765562
104	0xbb303a65	-0.0026890275
105	0x3ca8c575	0.020601967
106	0xbc3bb1d4	-0.011455972
107	0xbbc1209c	-0.00589378
108	0xb9a6d71c	-0.00031822256
109	0xbba424e5	-0.005009281
110	0x3c493ca2	0.012282522
111	0xbd323ecc	-0.04351692
112	0xbc71b79b	-0.014753248
113	0x3d127599	0.03575668
114	0x3c2ff114	0.01073863
115	0xbc99e8e0	-0.018787801
116	0x3c7a0f83	0.015262487
117	0xb9997d03	-0.00029275575
118	0xbaac4efd	-0.0013146099
119	0x3cc6a4b9	0.024248468
120	0x3bd3aeee	0.006460062
121	0xbc147a8e	-0.009062422
122	0x3cbe6550	0.023241669
123	0x3c8dafd4	0.017295755
124	0x3d6b867a	0.057501294
125	0x3d11cd11	0.035595957
126	0x3d3093bf	0.04310965
127	0x3c0015f8	0.007817738

network_body.linear_encoder.seq_layers.2.weight f4 [128, 128]
0	0x3d534ef8	0.051588982
1	0xbde6768e	-0.11253081
2	0xbea65466	-0.32486266
3	0x3da2a1f8	0.07941049
4	0xbcafc201	-0.021454813
5	0x3d4703d2	0.048587628
6	0x3cbe367b	0.023219338
7	0xbdd733e5	-0.10507945
8	0x3e19cf7c	0.15020555
9	0xbe3023b6	-0.17201123
10	0xbdf984ee	-0.121835575
11	0xbd347717	-0.044058885
12	0x3dd9ad59	0.106287666
13	0xbddc0a73	-0.107441805
14	0x3d30045f	0.04297292
15	0xbd8cefe2	-0.068816915
16	0x3dc98f6f	0.09841811
17	0xbe0694ba	-0.13142672
18	0xbd62b296	-0.055346094
19	0xbbb5dc14	-0.005549917
20	0x3d8aeacb	0.067830645
21	0x3cabdd90	0.020979673
22	0xbd2ce2a8	-0.042208344
23	0x3dd8427e	0.105595574
24	0x3d945a09	0.07243735
25	0x3ca1e929	0.0197645
26	0x3dce2cff	0.10067176
27	0xbd41955a	-0.047261573
28	0xbe097be5	-0.13426168
29	0xbd9b2abf	-0.075765125
30	0x3e073222	0.13202718
31	0x3cd5dfc2	0.026107673
32	0x3cc959be	0.024578925
33	0x3dd50ccc	0.104028314
34	0xbd6909ea	-0.05689422
35	0xbb02daa2	-0.001996674
36	0x3d851381	0.06497861
37	0xbd6b6ad4	-0.057474926
38	0xbd5a7214	-0.05333145
39	0x3c7045ac	0.014665049
40	0xbd8056b1	-0.06266535
41	0xbd660294	-0.056154802
42	0x3e4915d0	0.19637227
43	0xbd10e095	-0.035370428
44	0x3e551f35	0.20812686
45	0xbbc0c873	-0.0058832704
46	0x3da3df70	0.08001602
47	0x3df50a12	0.119648114
48	0xbd210fa2	-0.03932155
49	0xbd0538ba	-0.0325248
50	0xbd31d916	-0.04341992
51	0x3dbc84d2	0.09205021
52	0x3d47c91f	0.04877579
53	0x3c8649ce	0.016392615
54	0xbb3c55ec	-0.0028737737
55	0xba0d2394	-0.00053840247
56	0xbc6492fa	-0.013951058
57	0x3d999d07	0.07500654
58	0xbd84166b	-0.064495884
59	0x3dd17827	0.10227995
60	0x3c82b68f	0.015956191
61	0x3dd6f5d2	0.10496105
62	0xbe301f84	-0.17199522
63	0x3e0c57e6	0.13705406
64	0xbdbb5890	-0.09147751
65	0x3c6b6de0	0.014369458
66	0xbc03c77f	-0.008043169
67	0xbd4dfce1	-0.050289992
68	0x3b60b249	0.0034285954
69	0x3dab37ce	0.08360253
70	0x3d215941	0.03939176
71	0x3db64e89	0.08901698
72	0x3df4612e	0.11932598
73	0xbd762337	-0.060092177
74	0x3d2c95a7	0.042134907
75	0x3de8faad	0.113759376
76	0x3d56df94	0.052459314
77	0x3e2bb7d1	0.16769339
78	0x3dc9e515	0.09858147
79	0xbe070f8d	-0.13189526
80	0xbe3657b5	-0.17806895
81	0x3d5908cb	0.0529869
82	0xbd1e8387	-0.038699653
83	0xbe196667	-0.1498047
84	0x3d175bd2	0.0369528
85	0x3ce25c55	0.027631918
86	0xbd3ed5eb	-0.046590727
87	0x3e0d159c	0.13777775
88	0x3e1c2ac8	0.15250695
89	0x3d87178c	0.06596288
90	0x3dcbfc41	0.09960223
91	0xbd923958	-0.07139844
92	0x3de480c7	0.11157375
93	0xbe0ad458	-0.13557565
94	0x3d0a21fb	0.033723813
95	0x3da041f6	0.07825081
96	0xbdc71105	-0.09720043
97	0xbe3fa7af	-0.1871631
98	0xbc9f1bb9	-0.019422399
99	0xbd7b6614	-0.061376646
100	0x3dac79ea	0.08421691
101	0xbd09450a	-0.033513106
102	0xbda984ed	-0.08277307
103	0x3ce48309	0.027894514
104	0xbd2f8ea4	-0.042860642
105	0xbe2748a0	-0.16336298
106	0x3d587003	0.052841198
107	0x3d95ad4f	0.073084466
108	0x3cdfaa41	0.027302863
109	0x3d6b170e	0.057395034
110	0x39bc7a0a	0.0003594908
111	0xbd930c4f	-0.07180082
112	0x3d9c190d	0.076219656
113	0xbdbf17d8	-0.0933072
114	0x3d67633c	0.05649112
115	0x3b85a6b4	0.0040787105
116	0xbd8a6bd6	-0.06758849
117	0xbcb40660	-0.021975696
118	0x3dba4f41	0.09097148
119	0xbd008f1c	-0.03138648
120	0xbe1706a6	-0.1474863
121	0x3d8f33e8	0.06992322
122	0xbdd2e390	-0.1029731
123	0x3dc32c2d	0.0952991
124	0xbd99a830	-0.07502782
125	0x3c8ae44a	0.01695456
126	0xbd28b21f	-0.041185495
127	0xbccfa91c	-0.025349192
128	0xbdbfe068	-0.09368974
129	0xbc847ac8	-0.016171828
130	0xbe0b00d4	-0.13574535
131	0xbdecf80c	-0.11570749
132	0xbbd87a73	-0.006606394
133	0xbd295994	-0.041345194
134	0x3d73c3a4	0.05951275
135	0xbda27722	-0.07932879
136	0x3d8abe8d	0.06774626
137	0x3ce35f70	0.02775547
138	0x3db36de5	0.08761195
139	0xbd887979	-0.06663794
140	0xbdb01192	-0.08597101
141	0xbe4b7c9c	-0.19871753
142	0x3dcb6049	0.09930474
143	0x3cd4acd2	0.025961313
144	0xbdaea4c2	-0.08527519
145	0x3d3d8e65	0.046278376
146	0x3d8ec7ad	0.06971679
147	0x3d7d8e9a	0.061903574
148	0x3d7bc937	0.06147119
149	0xbe5a2d6b	-0.21306388
150	0x3d8daa27	0.069172196
151	0xba980af2	-0.0011599942
152	0xbce97a25	-0.028500626
153	0xbd4909d8	-0.049081653
154	0x3baf9390	0.005358167
155	0xbe31d4cc	-0.17366332
156	0x3e66adf3	0.22527294
157	0xbb263900	-0.0025363564
158	0xbd6c6c28	-0.057720333
159	0xbc776611	-0.015100018
160	0xbd1ca57f	-0.038243767
161	0x3dcf6dcc	0.10128364
162	0x3d00bcaf	0.031429943
163	0xbe65b183	-0.22430997
164	0xbb32676e	-0.0027222293
165	0xbcd21aa1	-0.025647463
166	0xbd961d2e	-0.07329784
167	0xbd25dd6b	-0.040494364
168	0xbd489a4f	-0.048975285
169	0x3e2ca261	0.16858818
170	0xbbc14abb	-0.005898801
171	0x3dabfad8	0.08397454
172	0x3da74150	0.08166754
173	0xbdf8ff2e	-0.12158047
174	0xbdb9cc03	-0.09072115
175	0xbc7ea6f9	-0.015542739
176	0x3c871135	0.016487697
177	0x3c7a0cc4	0.015261833
178	0x3de8bc5d	0.113640524
179	0x3dbae6be	0.09126042
180	0xbdc0114a	-0.093782976
181	0xbbf633c1	-0.0075134938
182	0x3e46170a	0.19344726
183	0xbd2b42bb	-0.041811686
184	0xbd8738c3	-0.06602623
185	0x3d515f38	0.0511162
186	0x3ba8adb0	0.0051476583
187	0x3d367a98	0.04455051
188	0xbdd5e2c8	-0.10443646
189	0xbda8631f	-0.08222031
190	0x3caaf27c	0.020867579
191	0xbdb01595	-0.085978664
192	0xbcd71582	-0.026255373
193	0x3d38a899	0.045082662
194	0x3dd8f508	0.10593611
195	0x3c464d3e	0.012103377
196	0x3ce15b92	0.027509484
197	0x3e1386cf	0.14406894
198	0x3df75746	0.12077193
199	0x3e1501dc	0.1455149
200	0xbc881a3f	-0.016614078
201	0x3d1d9d47	0.03848007
202	0xbd1eb51f	-0.03874695
203	0x3dceb964	0.10093954
204	0xbde07ae8	-0.109609425
205	0xbca657b7	-0.020305498
206	0x3d84790b	0.064683996
207	0x3e3cf43c	0.18452543
208	0xbd6bd22e	-0.05757349
209	0xbdb1f532	-0.086893454
210	0xbe118781	-0.14211847
211	0x3da8a5e2	0.08234765
212	0xbd6776f9	-0.056509946
213	0x3d936650	0.07197249
214	0x3dc9b598	0.098490894
215	0xbddeb8bd	-0.1087508
216	0xbdcc4e3e	-0.09975861
217	0xbe83d554	-0.25748694
218	0x3d8311c4	0.06399873
219	0xbdb5ab3f	-0.08870553
220	0x3e049497	0.12947308
221	0xbd1c3437	-0.038135733
222	0xbd100987	-0.035165336
223	0xbe08bba1	-0.13352825
224	0xbd6e3cca	-0.05816344
225	0x3cb5c40e	0.022188213
226	0xbc2366ba	-0.009973222
227	0xbcb25790	-0.021770269
228	0xbdcbe717	-0.09956186
229	0xbd1f82c4	-0.038943067
230	0xbdbd5ed7	-0.09246605
231	0x3e2a1a8b	0.16611688
232	0x3d1c23cd	0.03812008
233	0xbd9ec6fe	-0.077527985
234	0xbd217b3f	-0.039424177
235	0x3cd7299e	0.026264962
236	0xbd342674	-0.043981984
237	0x3ddb5ac2	0.1071067
238	0x3e074374	0.13209325
239	0xbd2dfe04	-0.042478576
240	0x3c0cce88	0.008594163
241	0xbd234ee5	-0.03987016
242	0x3d7899fc	0.060693726
243	0xbd8d3462	-0.06894757
244	0x3e779dd2	0.24181297
245	0x3d32a2f1	0.043612424
246	0x3dcd82e2	0.100347295
247	0x3dba2bcc	0.09090385
248	0xbd92fca8	-0.071770966
249	0x3d1c7053	0.03819306
250	0xbd19fd51	-0.037595097
251	0xbe0da2c0	-0.13831615
252	0xbe611b59	-0.21983089
253	0x3db3ee0c	0.08785638
254	0xbc174f17	-0.009235165
255	0x3d34ad8c	0.04411082

network_body.linear_encoder.seq_layers.2.bias f4 [128]
0	0x3c84351a	0.016138602
1	0x3c3ebd92	0.011641877
2	0xbc14304d	-0.009044719
3	0x3baaaa75	0.0052083083
4	0x3c0eb054	0.008709032
5	0x3c76469e	0.015031485
6	0x3c1a2e68	0.009410478
7	0x3a965930	0.0011470672
8	0xbc7fefd1	-0.0156211415
9	0xbc1da99e	-0.009622959
10	0xbba0ac99	-0.0049033877
11	0xbae10e94	-0.0017170482
12	0x3c958264	0.018250652
13	0x3bc764fd	0.006085037
14	0x3c506d33	0.012721348
15	0x36bffd42	5.7217267e-06
16	0x3c34a1aa	0.011024872
17	0x3c027553	0.007962543
18	0x3bec14be	0.007204621
19	0xbab316c0	-0.0013663396
20	0x3bdfbf7c	0.0068282466
21	0xbc61f30e	-0.013790859
22	0x3b091746	0.0020918413
23	0x3a3a0e30	0.0007097451
24	0x3c84e44e	0.016222145
25	0x3b41b9a9	0.0029560125
26	0x3c7abc0e	0.015303625
27	0x3c49186d	0.01227389
28	0x3c49a9b9	0.012308531
29	0x3c09d7d1	0.008413271
30	0x3ca14d64	0.019690223
31	0xbb61733f	-0.0034400967
32	0x3c94496c	0.018101417
33	0xbc6731a7	-0.014110959
34	0xbc1abf25	-0.0094449865
35	0x3d121ca4	0.035671845
36	0x3b4b32d6	0.0031005642
37	0xbbfc0d91	-0.007692047
38	0x3c824549	0.015902178
39	0xbba7fabc	-0.0051263254
40	0x3c744e21	0.0149112055
41	0x3b209d86	0.0024507954
42	0x3c19c005	0.00938416
43	0x3b37f3d0	0.0028068908
44	0x3c7cbd32	0.015425967
45	0xbc2186e9	-0.009858825
46	0x3c296f0a	0.010341415
47	0x3c916691	0.017749103
48	0x3caf2588	0.021380201
49	0x3c135176	0.00899159
50	0x3c5bd281	0.013416887
51	0x3cc450d3	0.023964321
52	0x3ccf3feb	0.025299033
53	0xbb96a0e5	-0.004596817
54	0xbaf2e9ed	-0.001853285
55	0xb7b1441c	-2.113176e-05
56	0x3cad5485	0.021158466
57	0x3c0b583e	0.008504925
58	0xbaad1f56	-0.0013208191
59	0x3c6073bc	0.013699468
60	0xbc69e374	-0.01427542
61	0xbc1fed7c	-0.0097612105
62	0x3bc4446c	0.005989602
63	0x3c8863ff	0.016649244
64	0x3a82ce01	0.0009979607
65	0x3b8672d4	0.004103044
66	0x3bbdc12a	0.005790849
67	0xbc1e68db	-0.009668554
68	0x3a54b728	0.00081144506
69	0x3c0c43a0	0.008561045
70	0x3c36fa2b	0.011168043
71	0x3ccca763	0.02498216
72	0x3b9f3ed3	0.004859784
73	0xb9ca2d6b	-0.0003856228
74	0xbcbd7300	-0.023126125
75	0xbcf0e444	-0.02940572
76	0xbb4a160d	-0.0030835897
77	0x3b9adba1	0.004725889
78	0x3c8dc9ee	0.017308202
79	0xbb530ff5	-0.0032205556
80	0x3c1f1183	0.009708765
81	0xbc065465	-0.008198832
82	0xbbd2ec6e	-0.006436876
83	0x3c916000	0.017745972
84	0x3bd17dad	0.0063931555
85	0x3c00e549	0.007867166
86	0x3c848adb	0.016179493
87	0x3c965f55	0.018356005
88	0x3b1d90b6	0.0024042553
89	0x3b1f1f9c	0.0024280315
90	0x3c3f872a	0.0116899405
91	0x3b686902	0.003546298
92	0x3c31f560	0.010861725
93	0xbb2d9625	-0.0026487198
94	0xbc7515b6	-0.01495879
95	0x3ab8a41b	0.0014086993
96	0x3ca9c5f5	0.020724276
97	0x3c8a94c6	0.016916644
98	0xbb694d73	-0.0035599142
99	0xbc45e03d	-0.012077388
100	0x3c233fba	0.009963924
101	0xbbd3a4db	-0.0064588613
102	0x3baaccc6	0.005212399
103	0xbb2c8056	-0.0026321611
104	0x3add1ebb	0.001687012
105	0x3c2e23c2	0.0106286425
106	0x3c1f9c89	0.009741911
107	0x3c47b022	0.012187989
108	0x3c920cfa	0.017828453
109	0x3ca0f3db	0.01964753
110	0x3b3cd4bc	0.0028813323
111	0x3c2a7d5b	0.010405864
112	0x3b07d3d4	0.0020725625
113	0x3c7e57b0	0.015523836
114	0x3c3f3e4b	0.011672567
115	0x3bc17159	0.0059034047
116	0x3ad51ae6	0.0016258627
117	0x3cb3fea9	0.021972017
118	0x3b5f64c1	0.0034087154
119	0xbacdc631	-0.0015699324
120	0xba84438f	-0.0010090935
121	0x3c033676	0.00800859
122	0x3c5d1f7e	0.013496278
123	0xbc0cd627	-0.00859598
124	0x3c333c94	0.010939736
125	0xba6d62b2	-0.0009055539
126	0x3bd4b66e	0.006491474
127	0xba90f1fe	-0.0011058447

action_model._discrete_distribution.branches.0.weight f4 [4, 128]
0	0x3cdaf22a	0.026726801
1	0xbb9d6c8d	-0.0048042
2	0x3bed3432	0.007238888
3	0x3b75cb7c	0.003750532
4	0xbc4da4df	-0.012551515
5	0xbc01edc6	-0.007930225
6	0x3bfd59a3	0.007731633
7	0xbc5476cf	-0.012967779
8	0x3abe6d17	0.0014528361
9	0x3c6b8f8b	0.014377485
10	0x3c53c12b	0.012924473
11	0x3c0ee9bd	0.00872272
12	0xbbaa6e6f	-0.005201153
13	0xbc0125db	-0.007882561
14	0x3c8250a4	0.015907593
15	0x3cce3e56	0.025176208
16	0x3bd37e11	0.0064542373
17	0x3c743c3d	0.01490694
18	0xbb3879d5	-0.002814879
19	0x3cb15b94	0.021650113
20	0xbb07c96f	-0.002071943
21	0xbb24fda8	-0.0025175605
22	0xb93ea35e	-0.00018180671
23	0xbc7b8648	-0.015351839
24	0x3c0096e8	0.007848479
25	0x3c39bf69	0.01133714
26	0x3c07ee2b	0.00829653
27	0x3be450f9	0.0069676605
28	0x3c8eb7b5	0.017421583
29	0xbc26dfe1	-0.010185213
30	0xbb9490b9	-0.004533854
31	0xbc9331f5	-0.017968157
32	0xbc5e0110	-0.013550058
33	0x3c519275	0.012791266
34	0xbb7bca56	-0.0038420162
35	0x3c45ceea	0.012073258
36	0x3c2946a1	0.010331781
37	0x3bd92b2f	0.0066274623
38	0x3beca584	0.0072218794
39	0x3b00e49d	0.0019667514
40	0x3bef0318	0.00729407
41	0xbc12c209	-0.008957394
42	0x3bfb85aa	0.007675846
43	0x3bc710f8	0.006075021
44	0x3c81c1e2	0.01583952
45	0xbcec082c	-0.02881249
46	0x3afce2ea	0.00192937
47	0x3bc64edc	0.0060518812
48	0x3bc055f7	0.005869623
49	0x3c121eb6	0.008918455
50	0x3ccc023e	0.024903413
51	0xbc16fa61	-0.009214968
52	0xbaf2a15a	-0.0018511221
53	0xbbd8c1f4	-0.006614918
54	0x3c293cf9	0.010329478
55	0xbb8cb5e2	-0.004294143
56	0xbbfcc814	-0.007714281
57	0xbc1dc28f	-0.009628906
58	0x3cb90062	0.02258319
59	0xbbcd2af9	-0.0062612263
60	0xbb8b8046	-0.0042572347
61	0x3c8ef4bf	0.017450688
62	0x3c65d46e	0.014027698
63	0x3c6f0af5	0.014590015
64	0xbb1fee5b	-0.0024403546
65	0xbc05933a	-0.008152777
66	0xbc805508	-0.015665546
67	0x3c5b35ee	0.013379557
68	0x3bb08afd	0.0053876624
69	0x3b1ac983	0.0023618646
70	0x3cca38ee	0.02468535
71	0xbbabc36e	-0.005241803
72	0x3bb50019	0.0055236933
73	0xbb1d2e5f	-0.0023983938
74	0xbc8aa275	-0.016923169
75	0xbc00e7ac	-0.007867735
76	0x3cb44a81	0.022008182
77	0xbc040271	-0.008057223
78	0xbbf04069	-0.007331897
79	0xbb921b7b	-0.0044588423
80	0xbc33320a	-0.010937223
81	0x3b6d016c	0.0036164178
82	0xbb8a65e5	-0.0042235726
83	0x3b586553	0.0033019378
84	0x3c444ba1	0.011980922
85	0xbb85bcb6	-0.004081334
86	0x3b973297	0.004614185
87	0xbca9df16	-0.020736258
88	0xbc574cf7	-0.013140908
89	0xbc98088b	-0.018558761
90	0xbc0ee957	-0.008722625
91	0x3c95f92a	0.018307287
92	0xbc49aaf9	-0.012308829
93	0x3c05716d	0.008144719
94	0x3bc4883b	0.0059976852
95	0x3b8075d1	0.003920295
96	0xbba342c4	-0.0049823243
97	0x3c57bc3c	0.013167437
98	0x3b9474fc	0.004530547
99	0xbc9fb66c	-0.019496165
100	0xbc2c7116	-0.010525009
101	0xbbafa32a	-0.005360027
102	0xbc01f22c	-0.007931273
103	0xbc835b22	-0.016034666
104	0xbb8891ff	-0.0041677947
105	0xbc837b2b	-0.016049942
106	0x3ba87c05	0.0051417374
107	0x3c58cb91	0.013232128
108	0x3cc0e0e2	0.023544732
109	0x3c2b4bff	0.010455131
110	0x3b77f042	0.0037832414
111	0xbb3513ca	-0.0027630203
112	0xbbb7f9fe	-0.005614518
113	0xbc9fa840	-0.019489408
114	0xbc20af33	-0.009807396
115	0xbc1df0fe	-0.009639977
116	0xbbdefdf7	-0.0068051773
117	0xbb7f96e5	-0.0038999852
118	0x39c244d7	0.00037053853
119	0xbc913559	-0.017725633
120	0xbc30effe	-0.010799406
121	0x3c05236a	0.008126119
122	0xbc933979	-0.017971741
123	0x3b8bb1aa	0.0042631226
124	0xbd00f339	-0.031481955
125	0xbc93a541	-0.018023135
126	0xbc7af2a8	-0.015316643
127	0x398a08fc	0.00026328105
128	0xbbbfe152	-0.0058557177
129	0xbc6c9dc1	-0.014441908
130	0xbc84c695	-0.016207973
131	0x3cd1c0e8	0.02560468
132	0x3d0adae6	0.033900164
133	0xbd0560cd	-0.03256302
134	0xbc02e223	-0.0079884855
135	0x3b17aa2a	0.0023142197
136	0xbc8af1e5	-0.016961047
137	0xbcd1dcd3	-0.025617993
138	0xbca98f28	-0.020698145
139	0xbcd3b565	-0.025843332
140	0x3cf3f2fc	0.02977895
141	0xbd1585ba	-0.036504485
142	0x3d0a56cc	0.033774182
143	0x3d19c9df	0.037546035
144	0x3cd63989	0.026150482
145	0x3c9e1ef7	0.019301875
146	0x3a5fe2ce	0.00085405714
147	0xbca214d4	-0.019785322
148	0xbd17cf73	-0.037063073
149	0xbb74153f	-0.003724411
150	0x3cab3aa0	0.020901978
151	0x3d2950d0	0.041336834
152	0xbd962275	-0.07330791
153	0x3c9458c2	0.01810873
154	0xbd581c6e	-0.052761488
155	0xbc5dc5b8	-0.013535909
156	0x3ceef5d1	0.029169949
157	0x3c95934e	0.018258717
158	0x3bdee46c	0.0068021324
159	0x3cb54c6e	0.022131171
160	0xbd1bacf6	-0.038006745
161	0xbc6f7ee4	-0.014617655
162	0x3c848ff9	0.016181933
163	0x3cdf7be9	0.027280765
164	0x3c6647b3	0.01405518
165	0xbb43994b	-0.0029846008
166	0xbd202986	-0.0391021
167	0x3c37fb60	0.011229366
168	0xbd37410a	-0.04473976
169	0xbd0b310d	-0.033982325
170	0x3c81c652	0.015841637
171	0xbc2e61a5	-0.010643397
172	0xbb862437	-0.0040936726
173	0xbc976b64	-0.018483825
174	0xbcb48009	-0.022033708
175	0x3d1b52ab	0.037920635
176	0xbc99cb8f	-0.018773822
177	0x3cbf0532	0.023317907
178	0xbcba0bf3	-0.022710776
179	0xbd1764e2	-0.036961444
180	0xbd23f110	-0.040024817
181	0xba6c2ff8	-0.00090098334
182	0x3c011ce7	0.007880426
183	0x3c0e0a3a	0.00866943
184	0x3d213112	0.039353438
185	0x3ca3b4fa	0.019983757
186	0xbca88016	-0.020568889
187	0x3d0b9812	0.034080572
188	0xbcfb8fa0	-0.030708134
189	0x3c6c9986	0.0144409
190	0xbd31fcb5	-0.04345389
191	0x3c15d994	0.009146113
192	0xb99ed5c5	-0.0003029538
193	0xbcdca709	-0.026935117
194	0x3cba88bd	0.02277028
195	0xbbf0aee8	-0.007345069
196	0xbce72066	-0.028213691
197	0x3cf801f0	0.030274361
198	0x3cb5685e	0.022144493
199	0xbc8aa854	-0.016925968
200	0x3b316f9d	0.0027074583
201	0xbbacfa03	-0.005278827
202	0x3ba47413	0.00501872
203	0xbb97dff0	-0.0046348497
204	0xbc8a56e0	-0.016887128
205	0xbc09af93	-0.008403677
206	0xbcfab699	-0.030604647
207	0xbd00af84	-0.031417385
208	0xbd502e60	-0.050825477
209	0xbce3bb0c	-0.027799152
210	0xbca5e625	-0.020251343
211	0x3d130e83	0.03590251
212	0x3cc2f2b5	0.023797372
213	0x3cf002f7	0.029298289
214	0xbcbc7235	-0.023003677
215	0xbc819198	-0.015816495
216	0xbc2fc6d7	-0.010728559
217	0x3c07325f	0.0082517555
218	0x3cfeaa75	0.03108714
219	0xbc0599a6	-0.008154308
220	0xbc193f81	-0.009353519
221	0x3b974e25	0.00461747
222	0xbc0e8708	-0.008699186
223	0xbcf362d1	-0.029710205
224	0xbd6fdf2d	-0.058562446
225	0xbd2a488a	-0.041573085
226	0xbcacbf2e	-0.021087255
227	0xbc02bac7	-0.0079791015
228	0xbc6b7f99	-0.014373683
229	0x3c38d8a7	0.011282123
230	0xbcd3d0f2	-0.025856469
231	0xbbceeace	-0.006314612
232	0xbca4970d	-0.020091558
233	0x3cce6bfa	0.025197972
234	0xbd488b14	-0.04896076
235	0xbaff05a5	-0.0019456638
236	0x3cba6c6c	0.022756778
237	0x3d4e8986	0.05042412
238	0xbd0465b3	-0.03232355
239	0x3ce79b73	0.028272366
240	0xbcd29bea	-0.025709111
241	0x3c042c08	0.0080671385
242	0xbd0e1738	-0.034690112
243	0x3cd91c03	0.026502615
244	0xbd1b3e1f	-0.03790104
245	0x3d617e72	0.05505223
246	0x3cb00382	0.021486048
247	0xbcf0d62b	-0.029398998
248	0x3b42f314	0.0029746937
249	0x3cb9cd7a	0.022680987
250	0xbd45a3ab	-0.04825179
251	0x3bc8592a	0.006114145
252	0x3c99ecc9	0.018789666
253	0x3c14a450	0.009072378
254	0xbb640c70	-0.0034797452
255	0x3c7bd35e	0.015370218

action_model._discrete_distribution.branches.0.bias f4 [4]
0	0xbb6960a6	-0.0035610585
1	0x3c3b2053	0.011421281
2	0xba8f46e6	-0.0010931164
3	0xbb85c5d5	-0.0040824213

critic.network_body.linear_encoder.seq_layers.0.weight f4 [128, 28]
0	0xbe410ba9	-0.18852104
1	0x3ed20c1e	0.4102487
2	0xbd07bdf4	-0.033140138
3	0xbc6ffbd7	-0.014647446
4	0xbdedcbc3	-0.1161113
5	0x3c2cda6c	0.010550123
6	0x3e2c5755	0.1683019
7	0xbef1533d	-0.47133818
8	0xbbec7183	-0.00721568
9	0xbca67767	-0.020320607
10	0x3e04f52f	0.12984155
11	0x3ef65bba	0.48116857
12	0x3ea7ab8d	0.3274807
13	0x3d93a57a	0.072092965
14	0xbbe6b45e	-0.0070405444
15	0x3e8cadcb	0.27476344
16	0xbe650b9e	-0.22367713
17	0xbb3c6ccf	-0.0028751378
18	0xbdb1a8b6	-0.08674757
19	0x3e0b35a7	0.13594685
20	0x3e2b6724	0.16738564
21	0xbe8a8175	-0.27051893
22	0x3e9cd6b9	0.3063257
23	0x3e1e3a64	0.15451962
24	0xbd8f6af9	-0.07002825
25	0x3de90d2a	0.11379464
26	0xbf1bc98e	-0.60854423
27	0xbeb02906	-0.34406298
28	0xbe820645	-0.25395408
29	0xbd8ed6d9	-0.06974573
30	0xbcb4f02a	-0.022087175
31	0xbcebea66	-0.028798293
32	0x3ea93167	0.33045503
33	0x3d29964b	0.041403096
34	0x3e5f82d7	0.21827255
35	0x3d3cd0cf	0.046097573
36	0xbced04da	-0.028932977
37	0x3e8188f6	0.25299805
38	0x3de733a4	0.112891465
39	0x3e862508	0.26200128
40	0xbe419810	-0.18905663
41	0x3ea03e94	0.31297743
42	0x3bf375e3	0.0074298247
43	0xbe84e638	-0.25956893
44	0x3e59a86d	0.21255656
45	0x3f212ec0	0.6296196
46	0xbe04cab7	-0.12967955
47	0xbd09e26d	-0.033663202
48	0xbe23ca27	-0.15995084
49	0x3e332c88	0.17497456
50	0xbe64ed7a	-0.22356215
51	0xbc9d4426	-0.019197535
52	0x3ee701a9	0.45118454
53	0xbf04cdf5	-0.51876765
54	0xbe52b1cc	-0.20575637
55	0x3e03ea48	0.1288234
56	0xbe628a0b	-0.22122972
57	0x3e1470d8	0.14496171
58	0x3e1907fb	0.1494445
59	0xbd9124dd	-0.07087109
60	0x3dd2228f	0.10260498
61	0xbd54dbbd	-0.05196737
62	0x3e59543d	0.2122354
63	0xbe376e13	-0.17913084
64	0x3e098911	0.13431193
65	0xbe850338	-0.25979018
66	0x3e5106bf	0.2041273
67	0xbdcbbf15	-0.099485554
68	0x3e95966f	0.29216334
69	0x3dd8ff6b	0.10595592
70	0xbdabbba8	-0.08385402
71	0x3e34221f	0.17591141
72	0x3e8795bf	0.26481435
73	0x3dc20d67	0.094752125
74	0xbe9eb09c	-0.30994117
75	0x3c7897fe	0.0151729565
76	0x3ebe15f6	0.3712613
77	0x3c9e712e	0.019341078
78	0x3e711df2	0.2354658
79	0x3db66c0e	0.089073285
80	0x3d4c6571	0.04990143
81	0xbe24740a	-0.1605989
82	0x3b24f0dc	0.0025167977
83	0xbe4988cb	-0.19681089
84	0x3e30ddb1	0.17272069
85	0x3dfbe5a3	0.12299659
86	0x3ea60f4c	0.32433546
87	0x3e9595a7	0.29215738
88	0xbe0b3edb	-0.13598196
89	0x3e41cdf6	0.18926224
90	0xbe0753e8	-0.13215601
91	0x3c84ab02	0.016194824
92	0xbe44851b	-0.191914
93	0xbdc0ec27	-0.094200425
94	0xbdcf33e5	-0.1011732
95	0xbddb3c5d	-0.10704873
96	0x3e2aa99e	0.16666266
97	0xbe96b365	-0.29433742
98	0x3ec0f2b5	0.3768517
99	0x3d519957	0.051171627
100	0xbdac727d	-0.084202744
101	0x3e9a80b9	0.30176333
102	0x3deb544c	0.11490688
103	0xbe136b9e	-0.14396521
104	0x3e2efcda	0.17088643
105	0xbe5bcf89	-0.21465887
106	0x3e5cf63e	0.21578309
107	0xbd8636fb	-0.065534554
108	0x3dc8c490	0.09803116
109	0xbe7bac1f	-0.24577378
110	0x3e20556c	0.15657586
111	0xbe18b109	-0.14911284
112	0x3e6834e6	0.22676429
113	0x3e1cabbb	0.15299885
114	0x3da7dd95	0.0819656
115	0xbda3e7bf	-0.080031864
116	0xbc45a7ce	-0.012063934
117	0xbdd3fd1c	-0.10351011
118	0xbdc3a8a0	-0.09553647
119	0x3e0b23a0	0.13587809
120	0x3e37c0d1	0.17944647
121	0x3e0910af	0.1338527
122	0x3de19fa3	0.110167764
123	0x3e98cddf	0.29844567
124	0x3dd2076e	0.10255323
125	0xbc6eb474	-0.014569391
126	0xbea1f1f5	-0.3162991
127	0x3d893c40	0.06700945
128	0xbddcdb1c	-0.10783979
129	0x3d9c640e	0.076362714
130	0xbc869a8d	-0.016431117
131	0x3cfe405d	0.03103655
132	0x3d947437	0.07248729
133	0xbe8e7168	-0.27820897
134	0x3d4ea10c	0.050446555
135	0x3ab6a6f3	0.0013935253
136	0x3ccf27cf	0.025287537
137	0x3ec87084	0.39148343
138	0x3ce1bab5	0.02755485
139	0x3e25938a	0.16169563
140	0xbbb01e18	-0.005374681
141	0xbebb5d55	-0.36594644
142	0xbd55158b	-0.052022498
143	0xbe21ff56	-0.15820059
144	0x3ef53c1c	0.47897422
145	0xbe48d4ff	-0.19612502
146	0x3ec311a7	0.38099405
147	0x3e6c22d9	0.23060168
148	0xbe087632	-0.13326338
149	0x3e0ab344	0.13544947
150	0x3e49e99c	0.19718021
151	0x3e1afd79	0.15135755
152	0xbe2a8e2c	-0.16655797
153	0xbe535f23	-0.2064176
154	0x3c6a4901	0.014299632
155	0x3e3f16e9	0.18661083
156	0x3e9ac147	0.30225584
157	0x3dcc1a52	0.09965958
158	0xbe3aa880	-0.1822834
159	0x3d40fca1	0.047115926
160	0x3e444dd0	0.19170308
161	0xbd7688c7	-0.060189035
162	0xbdd618e9	-0.1045397
163	0x3ea65268	0.32484746
164	0x3d27a23a	0.040926196
165	0xbdc2fdb9	-0.0952105
166	0xbb6c80ac	-0.0036087437
167	0xbc72ed52	-0.014827089
168	0x3e02e65a	0.12783185
169	0xbbf7359c	-0.0075442325
170	0xbdf1406e	-0.11779867
171	0xbe3feab0	-0.1874187
172	0xbde78691	-0.113049634
173	0xbde7a846	-0.113113925
174	0xbdbf8e03	-0.093532585
175	0xbe8cd449	-0.2750571
176	0x3d475362	0.048663504
177	0xbe873843	-0.26410112
178	0x3e3fe993	0.18741445
179	0x3d815b99	0.06316299
180	0xbdee2f08	-0.11630064
181	0x3b6431ca	0.0034819716
182	0x3e4abf06	0.19799432
183	0xbdf58f4e	-0.11990224
184	0xbd2609f5	-0.04053684
185	0x3d09cf64	0.03364505
186	0x3e366307	0.17811213
187	0x3d924c75	0.07143489
188	0x3e823c9f	0.25436875
189	0xbe314f90	-0.17315507
190	0x3d7a9117	0.061173525
191	0xbed00612	-0.4062963
192	0xbe603577	-0.21895395
193	0x3e194bb8	0.1497029
194	0x3df4ca1b	0.11952611
195	0x3e6f0ea4	0.23345429
196	0xbd168fc7	-0.03675821
197	0x3bf7d7ae	0.007563553
198	0xbe3cfe63	-0.18456416
199	0x3d949b8b	0.0725623
200	0x3d56c444	0.052433267
201	0x3db26466	0.08710556
202	0xbdafcc02	-0.08583833
203	0xbe13b17f	-0.14423178
204	0x3e014de0	0.12627363
205	0xbcb50b98	-0.022100255
206	0x3e8ea78d	0.27862206
207	0x3e185f38	0.14880073
208	0x3e505a06	0.20346841
209	0xbd337645	-0.043813962
210	0x3dcd865d	0.100353934
211	0x3df5fd8b	0.1201125
212	0x3deb10e2	0.114778295
213	0xbe30d563	-0.172689
214	0xbe0ba07c	-0.13635439
215	0x3e83d335	0.25747076
216	0x3e4ee2d0	0.2020371
217	0x3e64d93e	0.22348496
218	0xbd113ca4	-0.035458222
219	0x3dff6c98	0.124718845
220	0x3d910461	0.07080913
221	0xbe9f5a49	-0.3112357
222	0xbe79ea9f	-0.24405907
223	0xbd405571	-0.046956483
224	0x3e59dd89	0.21275915
225	0x3c631ad1	0.013861374
226	0xbd015b29	-0.031581078
227	0xbcf20341	-0.029542567
228	0xbe15e7e7	-0.14639245
229	0x3e8e2226	0.27760428
230	0x3de75b53	0.112967156
231	0xbe8fd9d4	-0.28095877
232	0x3ece0dcd	0.40244904
233	0x3e1eb49e	0.15498587
234	0xbeb81ce0	-0.3595953
235	0x3abf1f11	0.0014581402
236	0xbe967034	-0.2938248
237	0x3e0b214c	0.1358692
238	0xbddfa893	-0.10920825
239	0xbe933ee3	-0.28758916
240	0x3e755ca9	0.23961128
241	0xbe8974cc	-0.2684692
242	0x3d95fd5c	0.07323715
243	0xbe780a91	-0.24222781
244	0xbde80241	-0.11328555
245	0x3de1c143	0.1102319
246	0x3b5cac6d	0.003367211
247	0xbe712edc	-0.23553032
248	0xbeb79e2a	-0.35862857
249	0x3e7f0e9e	0.2490792
250	0xbd703fd1	-0.05865461
251	0xbd9a2a0d	-0.07527552
252	0x3d631bfa	0.055446602
253	0xbce9c6d9	-0.0285372
254	0x3e282a9a	0.16422501
255	0xbd9350f9	-0.07193179

critic.network_body.linear_encoder.seq_layers.0.bias f4 [128]
0	0x3c3a34e7	0.011365152
1	0x3c905b75	0.017621735
2	0xbbdba20e	-0.006702668
3	0xbb22228a	-0.0024739825
4	0xbb94d7d9	-0.0045423326
5	0x3b8c6c59	0.004285377
6	0x3a673375	0.00088196184
7	0x3c02233a	0.007942969
8	0x3c3d1a09	0.011541852
9	0x3b4ea0c9	0.003152894
10	0x3b906eec	0.004407754
11	0xbb2d0db4	-0.0026405873
12	0xbc1e7ceb	-0.009673337
13	0x3b90d9a8	0.004420478
14	0xbbbe6d34	-0.005811358
15	0x3ac3637c	0.0014906968
16	0xbc06673c	-0.008203324
17	0xbb5bb426	-0.0033524125
18	0xbc4f02c9	-0.012634941
19	0x3c1be787	0.00951565
20	0x3a29cd18	0.00064774
21	0xbc0e087f	-0.008669018
22	0x3b4e9c7d	0.003152638
23	0xbba32702	-0.0049790153
24	0xbb8bc0de	-0.004264935
25	0xbc6dd42f	-0.014515921
26	0xbc1886a1	-0.009309442
27	0xbb08aab4	-0.00208537
28	0x3a920f59	0.001114349
29	0xbbb0d411	-0.005396374
30	0x39ffec28	0.0004881334
31	0xbba22086	-0.0049477248
32	0xbc95dd3b	-0.018293967
33	0x3ccb91a6	0.024849724
34	0xbb1a9979	-0.0023590012
35	0x3c3c8bbe	0.0115079265
36	0xbb53e952	-0.0032335115
37	0xbc4ee08d	-0.012626779
38	0x3a84b159	0.0010123655
39	0x3d551048	0.05201748
40	0xbb12fa89	-0.0022427163
41	0xbb77644d	-0.0037748993
42	0xb8d05aa5	-9.935097e-05
43	0xbc20b36d	-0.009808403
44	0x3cb0e3c2	0.021592978
45	0xba7bcda2	-0.0009605532
46	0x3baa97a7	0.0052060666
47	0x3c258507	0.010102517
48	0xbb8813ad	-0.004152736
49	0xbb194ab3	-0.0023390471
50	0xbc90ad2b	-0.017660698
51	0xb9833b45	-0.00025030426
52	0xbb807eef	-0.0039213817
53	0x3aaf239b	0.0013362052
54	0x3b8a4c47	0.0042205187
55	0xbba934b6	-0.0051637543
56	0x3ac8ed75	0.0015329557
57	0xbbcbba6d	-0.006217292
58	0x3c18b3ce	0.0093202125
59	0x3cdcacf7	0.026937945
60	0x3ba24585	0.004952135
61	0xbc264818	-0.010149024
62	0xb91f50ce	-0.00015193524
63	0x3bcece6f	0.00631123
64	0x3b7fd798	0.0039038416
65	0x3ba77ff4	0.0051116887
66	0x3bf4e83f	0.007473975
67	0x3d647adb	0.055781227
68	0x3bf75a85	0.0075486326
69	0xbaaa4c35	-0.0012992682
70	0xbca889a0	-0.020573437
71	0xbc0b170c	-0.0084893815
72	0x3c071e15	0.008246918
73	0xbc8524c4	-0.016252883
74	0x3c1c8a68	0.009554483
75	0xbb854cbb	-0.004067985
76	0x39889fd6	0.00026059028
77	0xbb850c7b	-0.0040603257
78	0x38f098cc	0.000114725524
79	0x3a6a67b8	0.0008941847
80	0xbaed7417	-0.0018116263
81	0x3c0f4e99	0.0087467665
82	0xbc56ec41	-0.013117851
83	0xbbf1af23	-0.0073756143
84	0x3b71c9ca	0.0036893957
85	0xbb00cb52	-0.0019652438
86	0x3bb06e7d	0.005384265
87	0xbb1df427	-0.0024101825
88	0x3ce30b4d	0.02771535
89	0xbba0c649	-0.00490645
90	0xbaad583c	-0.0013225148
91	0xbc29bfd7	-0.01036068
92	0xbc3b6330	-0.011437222
93	0x3d046fba	0.032333113
94	0xbc94f775	-0.018184403
95	0x3b8ac0d3	0.004234412
96	0xbc046795	-0.0080813365
97	0x3b8f00a4	0.00436409
98	0xbbebdab7	-0.0071977037
99	0x3b6bae81	0.0035962167
100	0x3c881754	0.016612686
101	0xbc13888d	-0.009004724
102	0xbc53a4d7	-0.012917719
103	0xbacfd86f	-0.0015857349
104	0xbc183b0f	-0.009291424
105	0x3abfee6b	0.0014643198
106	0x3b09605c	0.0020961976
107	0x3cab7474	0.020929553
108	0xbb9c044e	-0.0047612553
109	0x3c40b222	0.01176122
110	0xba2613c5	-0.00063353434
111	0xbb2bb365	-0.0026199457
112	0x3b9126e4	0.004429685
113	0x3cbd0dc5	0.023077855
114	0x3bcac451	0.0061879535
115	0x3c3627e6	0.011117911
116	0xbc9c7c9b	-0.019102385
117	0xbc647ce8	-0.013945796
118	0x3d566465	0.052341837
119	0xbc12be97	-0.008956573
120	0xbcbb3e42	-0.022856835
121	0x39d4d2db	0.0004059289
122	0x3c205b7a	0.009787435
123	0x3c1fabbc	0.0097455345
124	0xbcd446d7	-0.025912685
125	0x3d155dee	0.03646653
126	0x3af968d7	0.0019028437
127	0x3d2929a0	0.041299462

critic.network_body.linear_encoder.seq_layers.2.weight f4 [128, 128]
0	0x3d4403a4	0.047855034
1	0xbcef6a4f	-0.029225497
2	0x3c4818a6	0.012212908
3	0xbdf1e925	-0.11812047
4	0xbdbcc7b1	-0.092177756
5	0xbe347b65	-0.17625196
6	0xbdea9561	-0.11454273
7	0xbc6261bd	-0.013817248
8	0x3c0754ab	0.0082599325
9	0x3d186eae	0.037214927
10	0x3d1a5bad	0.037685085
11	0x3d834012	0.06408705
12	0x3d0c2b99	0.034221265
13	0xbd017111	-0.03160197
14	0x3d4a1016	0.049331747
15	0x3c1b728f	0.009487762
16	0xbdac55b6	-0.084147856
17	0xbde2ab87	-0.110678725
18	0x3d5c76cd	0.053824235
19	0x3db67e7d	0.089108445
20	0x3e607415	0.21919282
21	0x3d10b357	0.03532728
22	0xbc0c748c	-0.008572709
23	0x3d31b3b1	0.043384258
24	0xbb9bd923	-0.0047561093
25	0x3bedc728	0.0072564073
26	0x3ddd06a2	0.10792281
27	0x3c43324c	0.011913847
28	0x38b53286	8.640163e-05
29	0x3da84275	0.08215801
30	0xbd88c01b	-0.06677266
31	0x3e367b7b	0.17820542
32	0x3cb9ec89	0.022695797
33	0xbdea9f0f	-0.11456119
34	0x3cddcc17	0.027074857
35	0x3cf62b27	0.030049874
36	0x3e1623a4	0.14662033
37	0x3d5b7f49	0.053588185
38	0x3d441470	0.047871053
39	0x3c25bc8b	0.010115753
40	0x3d84acd9	0.064782806
41	0x3d41a3a8	0.047275215
42	0x3d829686	0.06376366
43	0x3d270053	0.040771794
44	0x3d8718e4	0.065965444
45	0xbc8085d4	-0.015688814
46	0x3c885bf8	0.016645417
47	0xbd13560c	-0.035970733
48	0x3b54130a	0.003235998
49	0xbd90a2a2	-0.0706227
50	0x3cd2ca51	0.025731238
51	0xbe06e9fc	-0.13175195
52	0x3e1ed348	0.15510285
53	0xbe5f42e5	-0.21802862
54	0x3d4fedc8	0.050763875
55	0x3c9056b8	0.017619476
56	0x3d4fb527	0.05070987
57	0xbe0c4a27	-0.13700162
58	0xbe73482c	-0.23758
59	0xbcdcc5ba	-0.026949752
60	0xbdc85298	-0.097813785
61	0x3e38fcad	0.18065138
62	0x3c9a54e8	0.018839315
63	0xbcf6507f	-0.03006768
64	0xbccd64bb	-0.025072446
65	0x3cb4115c	0.021980934
66	0xbd8a1ae6	-0.06743412
67	0xbda1fb90	-0.0790931
68	0x3d00f545	0.031483907
69	0xbdafc008	-0.08581549
70	0xbe36edaa	-0.17864099
71	0x3e5339c2	0.20627502
72	0x3d7e7455	0.06212266
73	0xbd37b53d	-0.044850577
74	0xbcc23a16	-0.023709338
75	0x3d49e3f7	0.04928967
76	0xbdea0120	-0.11425996
77	0xbe15d91d	-0.14633603
78	0x3e0ccc75	0.13749869
79	0x3d82a1c1	0.06378508
80	0xbd9fdeb0	-0.07806146
81	0xbe0b13a6	-0.13581714
82	0xbce19ee2	-0.027541582
83	0x3da475a5	0.080302514
84	0xbdaa8439	-0.08326001
85	0xbe3807d0	-0.1797173
86	0x3b795588	0.0038045365
87	0xbc0ca02d	-0.008583111
88	0xbdcaf7f9	-0.09910578
89	0x3dfdc8d9	0.12391824
90	0x3da4423e	0.08020447
91	0xbe1c957b	-0.15291397
92	0x3c8e80a2	0.017395321
93	0xbdee8db3	-0.11648121
94	0xbd949ea0	-0.07256818
95	0x3d9ac328	0.07556754
96	0x3e0324fa	0.12807074
97	0x3dcdaafd	0.10042379
98	0x3b28b7fb	0.0025744427
99	0x3c81069c	0.015750222
100	0xbcb4e2cd	-0.022080803
101	0x3d47404b	0.0486453
102	0x3e44c12b	0.19214313
103	0x3df7471c	0.1207411
104	0x3e821b3b	0.254114
105	0xbd56f06a	-0.05247537
106	0xbdb08096	-0.08618276
107	0x3d34b3b5	0.044116694
108	0x3d3c1868	0.045921713
109	0xbb70b572	-0.0036729244
110	0x3d9f39d4	0.07774702
111	0xbd6736b4	-0.056448653
112	0x3dcc1725	0.09965352
113	0x3d9cf541	0.07663966
114	0xbd9270d4	-0.071504265
115	0xbc814d2b	-0.015783867
116	0x3d90588a	0.070481375
117	0x3dd2080f	0.10255443
118	0x3bf0da5e	0.00735025
119	0x3c6ddc45	0.014517848
120	0xbb53fd24	-0.0032346928
121	0x3d83eadd	0.06441281
122	0x3c3e9ccf	0.011634066
123	0x3ce23188	0.027611509
124	0xbaad941e	-0.0013242995
125	0xbd71c349	-0.05902413
126	0xbd5df29b	-0.054186445
127	0x3decbf41	0.11559916
128	0xbe358b8c	-0.17729014
129	0x3d39274d	0.045203496
130	0xbd203dbf	-0.039121386
131	0x3d843284	0.064549476
132	0x3d0ece7c	0.034864888
133	0x3c845a91	0.016156467
134	0x3b95557c	0.0045573097
135	0x3c80c1e7	0.01571746
136	0xbd11de6a	-0.0356125
137	0x3d2a422e	0.04156702
138	0x3e5acc9e	0.21367118
139	0x3d398b73	0.045299005
140	0x3d4d00b8	0.050049514
141	0xbd9d5db5	-0.07683889
142	0xbdfdb6b2	-0.12388362
143	0x3dd78dfb	0.105251275
144	0xbc92e8e7	-0.017933322
145	0xbd741bd7	-0.059596863
146	0x3ce8b45d	0.028406316
147	0xbe332830	-0.17495799
148	0xbd0bf5ab	-0.034169834
149	0x3e1aee0b	0.15129869
150	0xbd194874	-0.037422612
151	0x3d614644	0.05499865
152	0x38a30454	7.773252e-05
153	0xbd39bf64	-0.04534854
154	0xbd9e9075	-0.07742397
155	0x3e5bef95	0.21478112
156	0x3d861039	0.06546063
157	0x3dd9e172	0.106387034
158	0xbcfbeb82	-0.030751947
159	0xbd85df98	-0.06536788
160	0xbc6d8b31	-0.014498518
161	0x3dd5afaa	0.10433896
162	0xbd79bb9f	-0.060969945
163	0x3c5ebdce	0.013595058
164	0x3d7da13a	0.061921336
165	0x3b4d742e	0.0031349766
166	0xbc8c3797	-0.017116351
167	0x3dce0f2e	0.10061489
168	0x3d41f1df	0.047349807
169	0x3d57ab5f	0.052653667
170	0xbe0ba297	-0.13636242
171	0x3dbc12a4	0.09183243
172	0xbe175b06	-0.14780816
173	0xbbb2c3e5	-0.0054554814
174	0xbc8be899	-0.017078685
175	0x3d8c91c0	0.06863737
176	0xbd535466	-0.05159416
177	0xbe1ddb56	-0.15415701
178	0x3de289dc	0.11061451
179	0x3d620b60	0.05518663
180	0x3cac7a7b	0.021054497
181	0x3c713e4e	0.014724327
182	0xbd9952d3	-0.074865006
183	0xbaf9ec05	-0.0019067532
184	0xbd94fb04	-0.0727444
185	0x3db1e11a	0.08685513
186	0x3db61ec4	0.08892587
187	0x3cca96ce	0.024730112
188	0xbe057a65	-0.13034971
189	0x3df5a104	0.11993602
190	0xbd84349e	-0.064553484
191	0xbca1545c	-0.019693546
192	0xbc39cb6c	-0.011340003
193	0xbd0d5d19	-0.034512613
194	0x3e1e9f25	0.15490396
195	0xbcd20825	-0.02563865
196	0x3de65d65	0.11248282
197	0x3d955dbc	0.07293269
198	0xbbf97f85	-0.0076140785
199	0xbca57ac7	-0.020200146
200	0x3cc91ee6	0.024550866
201	0x3df6bb59	0.120474525
202	0x3d849c54	0.0647513
203	0xbd06f5f7	-0.032949414
204	0x3dddbfcf	0.108276
205	0x3e0a9054	0.1353162
206	0xbc776be2	-0.015101405
207	0xbcd15403	-0.025552755
208	0xbd1095c4	-0.035299078
209	0xbd270813	-0.040779185
210	0xbe364f25	-0.17803629
211	0x3e0981d2	0.13428429
212	0xbd28fc12	-0.041256018
213	0xbd5d87a9	-0.054084454
214	0x3e107ac1	0.14109327
215	0x3c22cd5f	0.00993666
216	0xbdaa5744	-0.08317426
217	0xbc75fde7	-0.015014148
218	0x3d2e5824	0.042564526
219	0xbdb67a6b	-0.08910068
220	0xbd9ee5ee	-0.07758699
221	0x3defed61	0.11715198
222	0x3e166a66	0.14689025
223	0xbe38075d	-0.17971559
224	0x3d4d255c	0.050084457
225	0xbc744cd3	-0.014910894
226	0x3dda556e	0.10660826
227	0x3e77441d	0.24147077
228	0xbe26bf6a	-0.16283956
229	0xbe32e807	-0.17471324
230	0x3d8dd391	0.06925119
231	0xbc9e4aa8	-0.019322708
232	0xbcb947c2	-0.022617225
233	0x3d5c6728	0.053809315
234	0x3d330647	0.04370716
235	0xbdc01c53	-0.093804024
236	0xbd264ff5	-0.040603597
237	0xbe11ad98	-0.14226377
238	0xbc30e549	-0.010796853
239	0xbe40945a	-0.18806592
240	0xbcc8930d	-0.024484182
241	0xbd248854	-0.040169075
242	0x3b972813	0.0046129315
243	0x3dc68086	0.09692483
244	0xbd8c24b9	-0.06842942
245	0x3cebdb65	0.028791139
246	0xbaf4ad3d	-0.0018667352
247	0x3de22e90	0.11044037
248	0xbd142026	-0.03616347
249	0x3d97577c	0.07389733
250	0x3e4b115e	0.19830844
251	0x3db010b3	0.08596935
252	0x3da2fd37	0.07958453
253	0x3d3ef0e7	0.04661646
254	0x3e5efa99	0.21775283
255	0x3c6c726f	0.01443158

critic.network_body.linear_encoder.seq_layers.2.bias f4 [128]
0	0x3aa0ec5b	0.0012277471
1	0x3a359842	0.000692729
2	0xbb75a969	-0.003748501
3	0xbb76925a	-0.0037623853
4	0x3a009263	0.0004904626
5	0xb7d25cd7	-2.5077183e-05
6	0x3bfeeb4a	0.0077795135
7	0xbb86ec8c	-0.004117554
8	0xbaa2d67d	-0.0012423542
9	0x38eca3f3	0.00011283895
10	0xb8c1ca14	-9.240597e-05
11	0xba73a377	-0.00092940725
12	0x3990f09c	0.00027645088
13	0x3b406f71	0.00293633
14	0xbb824eaf	-0.003976665
15	0xbb21670a	-0.0024628066
16	0xba39599e	-0.0007070544
17	0xba7f86a6	-0.0009747542
18	0xbb153b2c	-0.0022770865
19	0x3b292134	0.0025807144
20	0x3a5fb209	0.0008533304
21	0xbac37caf	-0.0014914478
22	0x3af60c2f	0.0018771942
23	0xba5a1ec3	-0.0008320624
24	0xbab683f3	-0.0013924822
25	0x3b43d0ab	0.0029879014
26	0x39d266f0	0.00040131016
27	0x3b171690	0.002305422
28	0xba9afb8c	-0.0011824234
29	0xbacfd346	-0.0015855811
30	0xb98eee46	-0.00027261878
31	0xba88aa2e	-0.0010426694
32	0xba3f1754	-0.0007289548
33	0xbb219008	-0.00246525
34	0xbaa4417c	-0.0012531723
35	0xba8fb076	-0.0010962624
36	0xbaeddc63	-0.0018147345
37	0xbb42f04e	-0.0029745284
38	0xba45bf15	-0.0007543427
39	0x3b898002	0.004196168
40	0xbb3d2775	-0.002886263
41	0xbb43adac	-0.0029858155
42	0xb9a42a19	-0.00031311883
43	0x3b1f80fd	0.0024338358
44	0x3a9644de	0.0011464616
45	0xbc02014d	-0.00793488
46	0xba9e8fa9	-0.0012097257
47	0xbbc1ca61	-0.005914018
48	0xbb08705a	-0.002081892
49	0x3b30d9f3	0.0026985377
50	0xba642ff0	-0.0008704653
51	0xb97a4e66	-0.00023871064
52	0xba469d73	-0.00075765623
53	0xbb9244de	-0.004463776
54	0xb92f76ce	-0.00016733559
55	0xbb36b1e9	-0.0027877039
56	0x3ad74757	0.0016424459
57	0xbb8cf7da	-0.004302007
58	0xbb241d5a	-0.002504191
59	0xbbbcceda	-0.0057619633
60	0xbb4569d5	-0.0030122895
61	0xbaaa5088	-0.0012993971
62	0x3a81ded5	0.0009908328
63	0xba8dedf6	-0.0010828364
64	0x3ac8135a	0.0015264556
65	0xbb17e52f	-0.0023177376
66	0xbb75c341	-0.0037500414
67	0xbae81d24	-0.001770888
68	0xba4e1005	-0.00078606635
69	0xbae5a4f0	-0.0017520469
70	0x38c1fd33	9.250119e-05
71	0xbb7ea3d7	-0.003885498
72	0x3ac6b066	0.0015158772
73	0x3b20988d	0.002450499
74	0x3ce104fd	0.027468199
75	0xba2eab5b	-0.0006663107
76	0xbb359379	-0.0027706309
77	0x3b3bd4fa	0.002866088
78	0xbb7fa190	-0.003900621
79	0x3ae10bad	0.0017169617
80	0x3a98bf3b	0.0011653671
81	0xbaab6948	-0.0013077641
82	0x3b187568	0.002326334
83	0xb9271e5d	-0.00015937672
84	0x39ea2655	0.00044660518
85	0x3a51d4aa	0.00080044067
86	0xbab4bc85	-0.0013789093
87	0xbb4a9430	-0.003091108
88	0x3c695e3e	0.0142436605
89	0xbad47fcb	-0.0016212402
90	0xbad78b08	-0.0016444633
91	0x39fd275e	0.0004828525
92	0x3ac0f9b3	0.0014722854
93	0xba375cc5	-0.000699472
94	0xbb9a29bc	-0.004704682
95	0x3aeaf57a	0.0017925941
96	0x3a8266a8	0.0009948807
97	0xbbc87207	-0.0061171087
98	0xbafd059c	-0.001930404
99	0xbba0dd39	-0.0049091843
100	0xbaefa01c	-0.0018281969
101	0x3a642a91	0.00087038527
102	0x3b2e0268	0.0026551727
103	0x3ac09830	0.0014693793
104	0xbb8425e9	-0.0040328396
105	0x3c8e9499	0.017404841
106	0xbafddf23	-0.0019368868
107	0xbaad3793	-0.0013215415
108	0xba770348	-0.0009422791
109	0xba431959	-0.0007442437
110	0xbafa5e3c	-0.001910157
111	0xbb34f6eb	-0.0027612995
112	0xba121c83	-0.00055737066
113	0xbb5d641f	-0.00337816
114	0xbb0a112b	-0.0021067362
115	0xbb69b2bd	-0.0035659515
116	0x3b18b14e	0.0023299041
117	0x3a371693	0.000698426
118	0xbbf4dcbb	-0.007472602
119	0xbacce0ba	-0.0015630939
120	0x3bcfc7b4	0.006340945
121	0xbac081c1	-0.0014687107
122	0xba3fd978	-0.0007318477
123	0x3b6033d0	0.003421057
124	0xbb9e31d5	-0.004827718
125	0xbbebddc8	-0.0071980692
126	0xba92762a	-0.0011174132
127	0xbb7f2090	-0.003892932
