results/2022_0313_1526/Fight/Fight-999995.onnx (onnx, 85170 bytes, 6 tensors)

action_model._discrete_distribution.branches.0.bias f4 [4]
000000 a6 60 69 bb 53 20 3b 3c e6 46 8f ba d5 c5 85 bb
       -0.0035610585 0.011421281 -0.0010931164 -0.0040824213

action_model._discrete_distribution.branches.0.weight f4 [4, 128]
000000 2a f2 da 3c 8d 6c 9d bb 32 34 ed 3b 7c cb 75 3b
       0.026726801 -0.0048042 0.007238888 0.003750532
000010 df a4 4d bc c6 ed 01 bc a3 59 fd 3b cf 76 54 bc
       -0.012551515 -0.007930225 0.007731633 -0.012967779
000020 17 6d be 3a 8b 8f 6b 3c 2b c1 53 3c bd e9 0e 3c
       0.0014528361 0.014377485 0.012924473 0.00872272
000030 6f 6e aa bb db 25 01 bc a4 50 82 3c 56 3e ce 3c
       -0.005201153 -0.007882561 0.015907593 0.025176208
000040 11 7e d3 3b 3d 3c 74 3c d5 79 38 bb 94 5b b1 3c
       0.0064542373 0.01490694 -0.002814879 0.021650113
000050 6f c9 07 bb a8 fd 24 bb 5e a3 3e b9 48 86 7b bc
       -0.002071943 -0.0025175605 -0.00018180671 -0.015351839
000060 e8 96 00 3c 69 bf 39 3c 2b ee 07 3c f9 50 e4 3b
       0.007848479 0.01133714 0.00829653 0.0069676605
000070 b5 b7 8e 3c e1 df 26 bc b9 90 94 bb f5 31 93 bc
       0.017421583 -0.010185213 -0.004533854 -0.017968157
000080 10 01 5e bc 75 92 51 3c 56 ca 7b bb ea ce 45 3c
       -0.013550058 0.012791266 -0.0038420162 0.012073258
000090 a1 46 29 3c 2f 2b d9 3b 84 a5 ec 3b 9d e4 00 3b
       0.010331781 0.0066274623 0.0072218794 0.0019667514
0000a0 18 03 ef 3b 09 c2 12 bc aa 85 fb 3b f8 10 c7 3b
       0.00729407 -0.008957394 0.007675846 0.006075021
0000b0 e2 c1 81 3c 2c 08 ec bc ea e2 fc 3a dc 4e c6 3b
       0.01583952 -0.02881249 0.00192937 0.0060518812
0000c0 f7 55 c0 3b b6 1e 12 3c 3e 02 cc 3c 61 fa 16 bc
       0.005869623 0.008918455 0.024903413 -0.009214968
0000d0 5a a1 f2 ba f4 c1 d8 bb f9 3c 29 3c e2 b5 8c bb
       -0.0018511221 -0.006614918 0.010329478 -0.004294143
0000e0 14 c8 fc bb 8f c2 1d bc 62 00 b9 3c f9 2a cd bb
       -0.007714281 -0.009628906 0.02258319 -0.0062612263
0000f0 46 80 8b bb bf f4 8e 3c 6e d4 65 3c f5 0a 6f 3c
       -0.0042572347 0.017450688 0.014027698 0.014590015
000100 5b ee 1f bb 3a 93 05 bc 08 55 80 bc ee 35 5b 3c
       -0.0024403546 -0.008152777 -0.015665546 0.013379557
000110 fd 8a b0 3b 83 c9 1a 3b ee 38 ca 3c 6e c3 ab bb
       0.0053876624 0.0023618646 0.02468535 -0.005241803
000120 19 00 b5 3b 5f 2e 1d bb 75 a2 8a bc ac e7 00 bc
       0.0055236933 -0.0023983938 -0.016923169 -0.007867735
000130 81 4a b4 3c 71 02 04 bc 69 40 f0 bb 7b 1b 92 bb
       0.022008182 -0.008057223 -0.007331897 -0.0044588423
000140 0a 32 33 bc 6c 01 6d 3b e5 65 8a bb 53 65 58 3b
       -0.010937223 0.0036164178 -0.0042235726 0.0033019378
000150 a1 4b 44 3c b6 bc 85 bb 97 32 97 3b 16 df a9 bc
       0.011980922 -0.004081334 0.004614185 -0.020736258
000160 f7 4c 57 bc 8b 08 98 bc 57 e9 0e bc 2a f9 95 3c
       -0.013140908 -0.018558761 -0.008722625 0.018307287
000170 f9 aa 49 bc 6d 71 05 3c 3b 88 c4 3b d1 75 80 3b
       -0.012308829 0.008144719 0.0059976852 0.003920295
000180 c4 42 a3 bb 3c bc 57 3c fc 74 94 3b 6c b6 9f bc
       -0.0049823243 0.013167437 0.004530547 -0.019496165
000190 16 71 2c bc 2a a3 af bb 2c f2 01 bc 22 5b 83 bc
       -0.010525009 -0.005360027 -0.007931273 -0.016034666
0001a0 ff 91 88 bb 2b 7b 83 bc 05 7c a8 3b 91 cb 58 3c
       -0.0041677947 -0.016049942 0.0051417374 0.013232128
0001b0 e2 e0 c0 3c ff 4b 2b 3c 42 f0 77 3b ca 13 35 bb
       0.023544732 0.010455131 0.0037832414 -0.0027630203
0001c0 fe f9 b7 bb 40 a8 9f bc 33 af 20 bc fe f0 1d bc
       -0.005614518 -0.019489408 -0.009807396 -0.009639977
0001d0 f7 fd de bb e5 96 7f bb d7 44 c2 39 59 35 91 bc
       -0.0068051773 -0.0038999852 0.00037053853 -0.017725633
0001e0 fe ef 30 bc 6a 23 05 3c 79 39 93 bc aa b1 8b 3b
       -0.010799406 0.008126119 -0.017971741 0.0042631226
0001f0 39 f3 00 bd 41 a5 93 bc a8 f2 7a bc fc 08 8a 39
       -0.031481955 -0.018023135 -0.015316643 0.00026328105
000200 52 e1 bf bb c1 9d 6c bc 95 c6 84 bc e8 c0 d1 3c
       -0.0058557177 -0.014441908 -0.016207973 0.02560468
000210 e6 da 0a 3d cd 60 05 bd 23 e2 02 bc 2a aa 17 3b
       0.033900164 -0.03256302 -0.0079884855 0.0023142197
000220 e5 f1 8a bc d3 dc d1 bc 28 8f a9 bc 65 b5 d3 bc
       -0.016961047 -0.025617993 -0.020698145 -0.025843332
000230 fc f2 f3 3c ba 85 15 bd cc 56 0a 3d df c9 19 3d
       0.02977895 -0.036504485 0.033774182 0.037546035
000240 89 39 d6 3c f7 1e 9e 3c ce e2 5f 3a d4 14 a2 bc
       0.026150482 0.019301875 0.00085405714 -0.019785322
000250 73 cf 17 bd 3f 15 74 bb a0 3a ab 3c d0 50 29 3d
       -0.037063073 -0.003724411 0.020901978 0.041336834
000260 75 22 96 bd c2 58 94 3c 6e 1c 58 bd b8 c5 5d bc
       -0.07330791 0.01810873 -0.052761488 -0.013535909
000270 d1 f5 ee 3c 4e 93 95 3c 6c e4 de 3b 6e 4c b5 3c
       0.029169949 0.018258717 0.0068021324 0.022131171
000280 f6 ac 1b bd e4 7e 6f bc f9 8f 84 3c e9 7b df 3c
       -0.038006745 -0.014617655 0.016181933 0.027280765
000290 b3 47 66 3c 4b 99 43 bb 86 29 20 bd 60 fb 37 3c
       0.01405518 -0.0029846008 -0.0391021 0.011229366
0002a0 0a 41 37 bd 0d 31 0b bd 52 c6 81 3c a5 61 2e bc
       -0.04473976 -0.033982325 0.015841637 -0.010643397
0002b0 37 24 86 bb 64 6b 97 bc 09 80 b4 bc ab 52 1b 3d
       -0.0040936726 -0.018483825 -0.022033708 0.037920635
0002c0 8f cb 99 bc 32 05 bf 3c f3 0b ba bc e2 64 17 bd
       -0.018773822 0.023317907 -0.022710776 -0.036961444
0002d0 10 f1 23 bd f8 2f 6c ba e7 1c 01 3c 3a 0a 0e 3c
       -0.040024817 -0.00090098334 0.007880426 0.00866943
0002e0 12 31 21 3d fa b4 a3 3c 16 80 a8 bc 12 98 0b 3d
       0.039353438 0.019983757 -0.020568889 0.034080572
0002f0 a0 8f fb bc 86 99 6c 3c b5 fc 31 bd 94 d9 15 3c
       -0.030708134 0.0144409 -0.04345389 0.009146113
000300 c5 d5 9e b9 09 a7 dc bc bd 88 ba 3c e8 ae f0 bb
       -0.0003029538 -0.026935117 0.02277028 -0.007345069
000310 66 20 e7 bc f0 01 f8 3c 5e 68 b5 3c 54 a8 8a bc
       -0.028213691 0.030274361 0.022144493 -0.016925968
000320 9d 6f 31 3b 03 fa ac bb 13 74 a4 3b f0 df 97 bb
       0.0027074583 -0.005278827 0.00501872 -0.0046348497
000330 e0 56 8a bc 93 af 09 bc 99 b6 fa bc 84 af 00 bd
       -0.016887128 -0.008403677 -0.030604647 -0.031417385
000340 60 2e 50 bd 0c bb e3 bc 25 e6 a5 bc 83 0e 13 3d
       -0.050825477 -0.027799152 -0.020251343 0.03590251
000350 b5 f2 c2 3c f7 02 f0 3c 35 72 bc bc 98 91 81 bc
       0.023797372 0.029298289 -0.023003677 -0.015816495
000360 d7 c6 2f bc 5f 32 07 3c 75 aa fe 3c a6 99 05 bc
       -0.010728559 0.0082517555 0.03108714 -0.008154308
000370 81 3f 19 bc 25 4e 97 3b 08 87 0e bc d1 62 f3 bc
       -0.009353519 0.00461747 -0.008699186 -0.029710205
000380 2d df 6f bd 8a 48 2a bd 2e bf ac bc c7 ba 02 bc
       -0.058562446 -0.041573085 -0.021087255 -0.0079791015
000390 99 7f 6b bc a7 d8 38 3c f2 d0 d3 bc ce ea ce bb
       -0.014373683 0.011282123 -0.025856469 -0.006314612
0003a0 0d 97 a4 bc fa 6b ce 3c 14 8b 48 bd a5 05 ff ba
       -0.020091558 0.025197972 -0.04896076 -0.0019456638
0003b0 6c 6c ba 3c 86 89 4e 3d b3 65 04 bd 73 9b e7 3c
       0.022756778 0.05042412 -0.03232355 0.028272366
0003c0 ea 9b d2 bc 08 2c 04 3c 38 17 0e bd 03 1c d9 3c
       -0.025709111 0.0080671385 -0.034690112 0.026502615
0003d0 1f 3e 1b bd 72 7e 61 3d 82 03 b0 3c 2b d6 f0 bc
       -0.03790104 0.05505223 0.021486048 -0.029398998
0003e0 14 f3 42 3b 7a cd b9 3c ab a3 45 bd 2a 59 c8 3b
       0.0029746937 0.022680987 -0.04825179 0.006114145
0003f0 c9 ec 99 3c 50 a4 14 3c 70 0c 64 bb 5e d3 7b 3c
       0.018789666 0.009072378 -0.0034797452 0.015370218

network_body.linear_encoder.seq_layers.0.bias f4 [128]
000000 60 ec 04 3c 78 96 c6 3c 35 11 c5 3b 4e ff 27 3a
       0.008112997 0.024241671 0.006014014 0.0006408588
000010 95 e7 2c 3b 53 58 32 ba 64 32 35 3b af a6 ad 3c
       0.002638315 -0.00068033225 0.0027648443 0.021197645
000020 46 02 a6 bb 63 ea 40 3d 25 5c 3a 3d ca e5 84 3c
       -0.005066189 0.04709853 0.045498032 0.016222853
000030 ba 33 f8 ba 33 7d 37 3b fe 37 cd 3b d0 ac 3f 3c
       -0.0018936314 0.0027998209 0.0062627783 0.011698917
000040 76 c4 16 3c dd 79 2f 3b e6 c5 7c bc 45 3d 63 bc
       0.009202113 0.0026775517 -0.015428042 -0.013869588
000050 34 c9 e4 3b e5 5c 79 bc 35 95 13 bc c9 86 45 bc
       0.006981993 -0.015219902 -0.009007742 -0.012056061
000060 f3 03 c6 3c 2f a9 a6 ba 32 81 ed 3b e1 6c 93 3c
       0.024171805 -0.0012715216 0.0072480673 0.017996253
000070 48 17 33 3b 41 9b 6d 3c e4 f8 8d 3c 06 e3 24 3c
       0.002732711 0.014502347 0.017330594 0.010063892
000080 a9 3c 47 3c 46 3e bf 3c df 99 b5 3c a3 88 9b 3c
       0.012160459 0.023345124 0.022168098 0.018986052
000090 17 b1 b2 3c 8a b4 91 3b 7c 94 48 3a 93 86 06 3c
       0.021812959 0.0044465708 0.00076515204 0.008210796
0000a0 c8 eb 48 ba bd 14 30 bb 4f 5a 24 3d 18 b7 14 3a
       -0.00076645287 -0.002686783 0.040125187 0.0005673035
0000b0 a0 ba f7 3b db 77 9a 3b f0 4e 74 bc ec 7d 44 bc
       0.007560089 0.004713995 -0.014911398 -0.011992913
0000c0 97 64 94 3c 79 cb 59 3c a9 95 05 3d 73 6b 67 3c
       0.018114371 0.013293141 0.03261343 0.014124739
0000d0 7c d8 42 3c 42 10 b1 39 8c ba 72 3a b5 5c 39 3c
       0.011892434 0.00033772184 0.0009259365 0.011313607
0000e0 81 fe f5 3c 26 48 e2 bb 89 f8 85 ba bd 7b 65 ba
       0.030028583 -0.0069055734 -0.0010221164 -0.0008754095
0000f0 e9 a8 b7 bb 5b 9d f5 bb 85 88 ab 3a 4d d3 1b 3d
       -0.0056048525 -0.007495565 0.0013086951 0.03804331
000100 f4 86 35 3c 8f fb 69 3b 3c d7 11 3c 4d 6e b1 39
       0.011079539 0.003570292 0.0089014135 0.0003384225
000110 5a da 8f 3b fd df 07 bc e6 c9 02 3d 2f 3c 9b 3b
       0.004390043 -0.008293149 0.031930827 0.004737399
000120 21 eb 8e bc b9 dd 38 3c df db 58 bb 60 1b 94 3c
       -0.017446103 0.011283332 -0.0033090038 0.01807946
000130 d7 5c 13 3c 63 3e e3 3b 8c 4f 94 3c 0c d3 9c 3c
       0.008994303 0.0069349273 0.018104337 0.019143604
000140 0f 23 9b 3c c0 ac 75 3c ca 80 10 3c 0a 99 aa 3b
       0.018937616 0.0149948 0.008819768 0.005206232
000150 3a 75 9c 3c b7 1b a6 bc 5c 1b 0f bc 8f c9 06 3c
       0.019098867 -0.020276887 -0.00873455 0.008226766
000160 78 6b 03 bc be 6b 01 3d 9d 8c 6d 3c 1a 01 94 3c
       -0.008021228 0.03159689 0.014498857 0.018066932
000170 a2 fc 16 3a 9a c8 8e 3c bb 83 10 bb 8c 37 92 3c
       0.0005759691 0.017429639 -0.0022051174 0.017848752
000180 e0 db 20 3c e5 70 33 bd 19 0f a8 3c ad 99 53 38
       0.009818047 -0.043808836 0.020515012 5.0449442e-05
000190 d8 bf ef bc e4 ac f3 3b 24 b7 f2 3b e7 c1 c0 b9
       -0.029266283 0.0074363817 0.007407086 -0.00036765562
0001a0 65 3a 30 bb 75 c5 a8 3c d4 b1 3b bc 9c 20 c1 bb
       -0.0026890275 0.020601967 -0.011455972 -0.00589378
0001b0 1c d7 a6 b9 e5 24 a4 bb a2 3c 49 3c cc 3e 32 bd
       -0.00031822256 -0.005009281 0.012282522 -0.04351692
0001c0 9b b7 71 bc 99 75 12 3d 14 f1 2f 3c e0 e8 99 bc
       -0.014753248 0.03575668 0.01073863 -0.018787801
0001d0 83 0f 7a 3c 03 7d 99 b9 fd 4e ac ba b9 a4 c6 3c
       0.015262487 -0.00029275575 -0.0013146099 0.024248468
0001e0 ee ae d3 3b 8e 7a 14 bc 50 65 be 3c d4 af 8d 3c
       0.006460062 -0.009062422 0.023241669 0.017295755
0001f0 7a 86 6b 3d 11 cd 11 3d bf 93 30 3d f8 15 00 3c
       0.057501294 0.035595957 0.04310965 0.007817738

network_body.linear_encoder.seq_layers.0.weight f4 [128, 28]
000000 b8 70 d8 3d 80 0a 27 bd f5 68 7d 3e 0c a7 48 3e
       0.105683744 -0.040781498 0.24747069 0.19594973
000010 76 3a 8f bd 7e 3f a2 be f4 e6 70 3e b6 9a aa bd
       -0.069935724 -0.31689066 0.23525602 -0.0833029
000020 77 9a a8 3e 6d 0a 0a 3e 44 08 9e bd 07 6c 10 bd
       0.32930347 0.1348054 -0.0771642 -0.035259273
000030 da 47 c6 be d2 81 37 3a 36 d2 b3 3d f3 ef 38 3e
       -0.38726693 0.0007000241 0.08780329 0.18060283
000040 03 41 98 bc 71 02 b5 3e a2 79 81 be 84 17 2a 3c
       -0.018585688 0.35353425 -0.2528811 0.010381583
000050 ed 1c 12 be 96 3e 4e bd 41 a0 d7 bd 26 18 32 3e
       -0.14268847 -0.050352655 -0.10528613 0.17392024
000060 db 21 34 3e 6d 07 e9 bd a7 c1 ae 3d 5b cf 0c 3e
       0.1759104 -0.113783695 0.0853303 0.13750975
000070 5c 65 94 3d 94 5f fd bb 5e e1 ef bc 79 90 53 be
       0.07245895 -0.007732341 -0.029282268 -0.2066058
000080 0f 84 a4 3e 14 b9 bc bd 57 fa 85 3d de 58 87 3d
       0.32132003 -0.09214988 0.06541889 0.06608747
000090 84 5e 8f 3e 6c f6 69 be bc 3f 16 bd 78 8a ca 3d
       0.28001797 -0.22847909 -0.036681876 0.09889692
0000a0 8a a2 21 3e 60 66 e5 3c ba cc 2d 3e a7 ad 69 bc
       0.1578466 0.028002918 0.16972628 -0.014262593
0000b0 18 09 a4 bd cb 22 9c 3e 7a 4b 62 3c d4 c2 1d be
       -0.08009547 0.30495295 0.01381194 -0.15406352
0000c0 70 31 ae be 08 a1 da bd 9f 99 d1 3b 72 3a 46 3e
       -0.34022093 -0.106752455 0.006396487 0.19358233
0000d0 8f 64 80 bc ad e7 8f bd 1c 7c c2 be 9e 75 c7 3d
       -0.01567295 -0.070266105 -0.37985313 0.097392306
0000e0 01 00 c6 3d fa 83 39 3e a5 c5 d3 3d bd 34 07 3e
       0.096679695 0.18116751 0.10340432 0.13203712
0000f0 77 46 04 be 16 2e c7 bd a5 b4 7d 3e 77 ff 3e bc
       -0.12917505 -0.09725587 0.24775942 -0.011657587
000100 da 88 a0 3e c2 de f9 bc 09 02 5d 3e 75 91 a4 bd
       0.3135441 -0.030501727 0.21582808 -0.08035556
000110 e5 d2 78 3e 73 13 9f 3e df 03 06 3f 5a 65 a5 be
       0.242992 0.31069526 0.52349657 -0.32303888
000120 31 77 03 3d 17 22 73 bc 63 77 02 be 2f 58 44 be
       0.03209609 -0.014839671 -0.12740855 -0.19174264
000130 9a 31 6d 3b 48 39 d9 be 3c 81 b1 bd 3b 6a 92 be
       0.0036192895 -0.42426515 -0.086672276 -0.28596672
000140 3d 32 fe bc c2 e1 99 3e 18 ee 7e be a5 fa 66 3e
       -0.031029815 0.30055052 -0.24895513 0.22556551
000150 f9 a1 41 be 01 70 b4 be 47 0c a0 3e 46 d4 83 be
       -0.18909444 -0.35241702 0.31259367 -0.2574789
000160 c3 d0 11 be 37 42 cb bd 19 d8 07 be 09 41 0f be
       -0.14239793 -0.09924739 -0.13266028 -0.13989653
000170 ec 3f d9 3d f9 74 97 3e d8 dc d7 3c cc 6d 29 3e
       0.10607895 0.2958143 0.026350424 0.1654579
000180 31 21 92 bd b7 ea 92 3d 20 ff 0f be a8 6e 05 bc
       -0.07135237 0.071736746 -0.14062166 -0.008144058
000190 3f 57 0c 3d f2 75 ab 3d 96 59 43 3e 48 f6 6f bd
       0.03426289 0.08372106 0.19077143 -0.05858448
0001a0 96 fc b6 3c 6e dd 6a 3e 5f 2b a9 be 57 e9 fe 3d
       0.02233724 0.22936031 -0.33040902 0.1244685
0001b0 aa 2b 2c be 11 fa 94 3d cc 7b e5 3d 0a c0 3f be
       -0.16813532 0.07274259 0.11205253 -0.18725601
0001c0 f0 f6 be 3d 68 15 eb bb 4b f3 84 3e c5 30 92 3e
       0.09324443 -0.0071741827 0.25966868 0.28552833
0001d0 ac 9f 23 be 77 d7 94 3e a5 2e 95 bd 5b 7a 24 3e
       -0.15978879 0.29070637 -0.07284287 0.160623
0001e0 55 08 8f 3d c9 d8 ad 3e 81 b8 10 3e e8 fd af bd
       0.06984011 0.33954456 0.14132883 -0.08593351
0001f0 63 84 5c 3d f0 e2 e5 bc 68 b1 85 3e af 4f 87 be
       0.05383719 -0.028062314 0.26111913 -0.2642798
000200 44 72 d9 bd 3c f3 91 3b 45 46 7b bd 64 aa 97 be
       -0.106174976 0.0044540446 -0.06134631 -0.29622185
000210 a3 16 36 3d ab 30 18 be a9 7d 24 be 66 91 2e be
       0.04445518 -0.14862315 -0.1606356 -0.17047653
000220 5d 53 d0 be 58 d7 05 3e 80 28 d8 bd bf 7e 5a 3c
       -0.406886 0.13070428 -0.105546 0.013335883
000230 bd 01 58 bd 16 d7 00 3d af 08 2f be e0 cc 7f 3e
       -0.052736033 0.031455122 -0.17093156 0.24980497
000240 75 af 74 be 88 5b 8b bd 4b fa 93 bd a1 2a ad bd
       -0.23895057 -0.068045676 -0.07225474 -0.084553964
000250 04 44 38 be f5 e9 00 bd fc f5 73 be 6a c1 79 3e
       -0.17994696 -0.03147312 -0.23824304 0.24390188
000260 37 4b 3c bf a9 9b 34 3e 36 31 0c 3f e7 f2 68 bd
       -0.7355227 0.17637505 0.5476259 -0.056872275
000270 11 aa 1f be fd 18 87 3d c9 6b 78 3d 39 4c 7b 3e
       -0.15592219 0.06596563 0.060649667 0.24540795
000280 37 1d 91 3d 50 90 00 bd 72 31 d2 3e 1f d3 4c 3e
       0.070856504 -0.031387627 0.4105335 0.20002411
000290 c7 71 be be 4b 61 1b 3e 0e 49 29 3e de dc 6f bd
       -0.3719618 0.15173833 0.16531774 -0.058560245
0002a0 b8 39 62 3e d7 ef 87 3e d1 2c a0 be 54 d3 38 bd
       0.2209233 0.2655017 -0.31284192 -0.045123413
0002b0 7d c4 80 3d 37 32 93 3c 20 20 35 3e 91 61 86 be
       0.06287477 0.01796828 0.17688036 -0.26246312
0002c0 89 f0 ff bc 17 a4 f5 3d ff 2d bf 3e 94 db 73 3e
       -0.031242626 0.11994188 0.3733978 0.23814231
0002d0 a9 05 58 be 32 79 01 3e b3 99 3a 3e 75 4b 94 bd
       -0.21095909 0.12643889 0.18222694 -0.07240955
0002e0 64 c8 05 bd 4e 17 c4 3d a1 6b c8 3d 18 92 4e bc
       -0.03266181 0.095747575 0.097861536 -0.012608074
0002f0 87 35 2b 3e 32 21 a9 bd 3e 5f 80 3e 5b f3 d1 3e
       0.16719638 -0.08258285 0.25072664 0.41005978
000300 8d cc 0f 3d d4 da ae be 7c a9 0a 3e e0 fe 0b 3e
       0.035107184 -0.34151328 0.13541216 0.13671446
000310 02 a1 b5 3e c3 a1 46 3d c5 9b 04 3d c0 63 e7 bd
       0.35474402 0.04849411 0.032375116 -0.11298323
000320 7a 50 c5 bc ba 53 9f 3d f6 1d 09 3e 77 03 f5 bd
       -0.024086226 0.077796414 0.13390335 -0.119635515
000330 b5 32 3e 3e 03 2c 88 3e b1 0d 8c 3e bc af a2 bd
       0.1857403 0.26596078 0.27354196 -0.07943675
000340 3d 54 27 3d 58 cc cf 3d ee b5 4d be aa 6f 44 3c
       0.04085182 0.10146397 -0.20088932 0.011989513
000350 b7 e4 08 3e d5 36 8b 3d 30 09 7e 3e 2a be db bd
       0.13368498 0.06797568 0.24808192 -0.1072963
000360 1f 6d 31 3e bb 83 26 bf 1e a5 4f be a1 52 7f be
       0.17326783 -0.65044755 -0.20277831 -0.24933864
000370 f1 fc c7 bc 64 bb 94 be d8 fd ad be dc 67 05 be
       -0.024412604 -0.29049218 -0.3398273 -0.130279
000380 fa ee c6 3d d1 86 56 3e c7 40 65 bd 47 fb bc bd
       0.0971355 0.20949866 -0.05596998 -0.09227615
000390 ad 83 c0 3d 30 c6 3a 3d c8 0a db bd ef c3 4a be
       0.09400115 0.045599163 -0.10695416 -0.19801305
0003a0 0c a2 2f be 51 ea d8 3e 17 35 f9 bc 69 5d 24 3d
       -0.1715166 0.4236627 -0.030420823 0.040128145
0003b0 f1 72 89 bc c2 d0 2a 3e 54 07 9f 3e d6 05 9e 3b
       -0.016778441 0.16681197 0.31060278 0.004822473
0003c0 1b 71 60 bd 9e 2f 7b be 28 56 43 bd ba 0e fb bd
       -0.054795366 -0.24529883 -0.047689587 -0.12258668
0003d0 b0 25 c0 be c2 db 2a 3e ed b5 c1 be d4 06 12 bd
       -0.37528753 0.16685393 -0.3783411 -0.035651043
0003e0 52 5f 21 3d 4e 8b a7 bd b4 8c 8a 3e 74 2f 9b 3d
       0.039397545 -0.08180867 0.27060473 0.0757741
0003f0 31 0c c0 3e 84 09 95 bd 9f 76 4c be 33 6f 62 3d
       0.375093 -0.072772056 -0.19967125 0.05528183

network_body.linear_encoder.seq_layers.2.bias f4 [128]
000000 1a 35 84 3c 92 bd 3e 3c 4d 30 14 bc 75 aa aa 3b
       0.016138602 0.011641877 -0.009044719 0.0052083083
000010 54 b0 0e 3c 9e 46 76 3c 68 2e 1a 3c 30 59 96 3a
       0.008709032 0.015031485 0.009410478 0.0011470672
000020 d1 ef 7f bc 9e a9 1d bc 99 ac a0 bb 94 0e e1 ba
       -0.0156211415 -0.009622959 -0.0049033877 -0.0017170482
000030 64 82 95 3c fd 64 c7 3b 33 6d 50 3c 42 fd bf 36
       0.018250652 0.006085037 0.012721348 5.7217267e-06
000040 aa a1 34 3c 53 75 02 3c be 14 ec 3b c0 16 b3 ba
       0.011024872 0.007962543 0.007204621 -0.0013663396
000050 7c bf df 3b 0e f3 61 bc 46 17 09 3b 30 0e 3a 3a
       0.0068282466 -0.013790859 0.0020918413 0.0007097451
000060 4e e4 84 3c a9 b9 41 3b 0e bc 7a 3c 6d 18 49 3c
       0.016222145 0.0029560125 0.015303625 0.01227389
000070 b9 a9 49 3c d1 d7 09 3c 64 4d a1 3c 3f 73 61 bb
       0.012308531 0.008413271 0.019690223 -0.0034400967
000080 6c 49 94 3c a7 31 67 bc 25 bf 1a bc a4 1c 12 3d
       0.018101417 -0.014110959 -0.0094449865 0.035671845
000090 d6 32 4b 3b 91 0d fc bb 49 45 82 3c bc fa a7 bb
       0.0031005642 -0.007692047 0.015902178 -0.0051263254
0000a0 21 4e 74 3c 86 9d 20 3b 05 c0 19 3c d0 f3 37 3b
       0.0149112055 0.0024507954 0.00938416 0.0028068908
0000b0 32 bd 7c 3c e9 86 21 bc 0a 6f 29 3c 91 66 91 3c
       0.015425967 -0.009858825 0.010341415 0.017749103
0000c0 88 25 af 3c 76 51 13 3c 81 d2 5b 3c d3 50 c4 3c
       0.021380201 0.00899159 0.013416887 0.023964321
0000d0 eb 3f cf 3c e5 a0 96 bb ed e9 f2 ba 1c 44 b1 b7
       0.025299033 -0.004596817 -0.001853285 -2.113176e-05
0000e0 85 54 ad 3c 3e 58 0b 3c 56 1f ad ba bc 73 60 3c
       0.021158466 0.008504925 -0.0013208191 0.013699468
0000f0 74 e3 69 bc 7c ed 1f bc 6c 44 c4 3b ff 63 88 3c
       -0.01427542 -0.0097612105 0.005989602 0.016649244
000100 01 ce 82 3a d4 72 86 3b 2a c1 bd 3b db 68 1e bc
       0.0009979607 0.004103044 0.005790849 -0.009668554
000110 28 b7 54 3a a0 43 0c 3c 2b fa 36 3c 63 a7 cc 3c
       0.00081144506 0.008561045 0.011168043 0.02498216
000120 d3 3e 9f 3b 6b 2d ca b9 00 73 bd bc 44 e4 f0 bc
       0.004859784 -0.0003856228 -0.023126125 -0.02940572
000130 0d 16 4a bb a1 db 9a 3b ee c9 8d 3c f5 0f 53 bb
       -0.0030835897 0.004725889 0.017308202 -0.0032205556
000140 83 11 1f 3c 65 54 06 bc 6e ec d2 bb 00 60 91 3c
       0.009708765 -0.008198832 -0.006436876 0.017745972
000150 ad 7d d1 3b 49 e5 00 3c db 8a 84 3c 55 5f 96 3c
       0.0063931555 0.007867166 0.016179493 0.018356005
000160 b6 90 1d 3b 9c 1f 1f 3b 2a 87 3f 3c 02 69 68 3b
       0.0024042553 0.0024280315 0.0116899405 0.003546298
000170 60 f5 31 3c 25 96 2d bb b6 15 75 bc 1b a4 b8 3a
       0.010861725 -0.0026487198 -0.01495879 0.0014086993
000180 f5 c5 a9 3c c6 94 8a 3c 73 4d 69 bb 3d e0 45 bc
       0.020724276 0.016916644 -0.0035599142 -0.012077388
000190 ba 3f 23 3c db a4 d3 bb c6 cc aa 3b 56 80 2c bb
       0.009963924 -0.0064588613 0.005212399 -0.0026321611
0001a0 bb 1e dd 3a c2 23 2e 3c 89 9c 1f 3c 22 b0 47 3c
       0.001687012 0.0106286425 0.009741911 0.012187989
0001b0 fa 0c 92 3c db f3 a0 3c bc d4 3c 3b 5b 7d 2a 3c
       0.017828453 0.01964753 0.0028813323 0.010405864
0001c0 d4 d3 07 3b b0 57 7e 3c 4b 3e 3f 3c 59 71 c1 3b
       0.0020725625 0.015523836 0.011672567 0.0059034047
0001d0 e6 1a d5 3a a9 fe b3 3c c1 64 5f 3b 31 c6 cd ba
       0.0016258627 0.021972017 0.0034087154 -0.0015699324
0001e0 8f 43 84 ba 76 36 03 3c 7e 1f 5d 3c 27 d6 0c bc
       -0.0010090935 0.00800859 0.013496278 -0.00859598
0001f0 94 3c 33 3c b2 62 6d ba 6e b6 d4 3b fe f1 90 ba
       0.010939736 -0.0009055539 0.006491474 -0.0011058447

network_body.linear_encoder.seq_layers.2.weight f4 [128, 128]
000000 f8 4e 53 3d 8e 76 e6 bd 66 54 a6 be f8 a1 a2 3d
       0.051588982 -0.11253081 -0.32486266 0.07941049
000010 01 c2 af bc d2 03 47 3d 7b 36 be 3c e5 33 d7 bd
       -0.021454813 0.048587628 0.023219338 -0.10507945
000020 7c cf 19 3e b6 23 30 be ee 84 f9 bd 17 77 34 bd
       0.15020555 -0.17201123 -0.121835575 -0.044058885
000030 59 ad d9 3d 73 0a dc bd 5f 04 30 3d e2 ef 8c bd
       0.106287666 -0.107441805 0.04297292 -0.068816915
000040 6f 8f c9 3d ba 94 06 be 96 b2 62 bd 14 dc b5 bb
       0.09841811 -0.13142672 -0.055346094 -0.005549917
000050 cb ea 8a 3d 90 dd ab 3c a8 e2 2c bd 7e 42 d8 3d
       0.067830645 0.020979673 -0.042208344 0.105595574
000060 09 5a 94 3d 29 e9 a1 3c ff 2c ce 3d 5a 95 41 bd
       0.07243735 0.0197645 0.10067176 -0.047261573
000070 e5 7b 09 be bf 2a 9b bd 22 32 07 3e c2 df d5 3c
       -0.13426168 -0.075765125 0.13202718 0.026107673
000080 be 59 c9 3c cc 0c d5 3d ea 09 69 bd a2 da 02 bb
       0.024578925 0.104028314 -0.05689422 -0.001996674
000090 81 13 85 3d d4 6a 6b bd 14 72 5a bd ac 45 70 3c
       0.06497861 -0.057474926 -0.05333145 0.014665049
0000a0 b1 56 80 bd 94 02 66 bd d0 15 49 3e 95 e0 10 bd
       -0.06266535 -0.056154802 0.19637227 -0.035370428
0000b0 35 1f 55 3e 73 c8 c0 bb 70 df a3 3d 12 0a f5 3d
       0.20812686 -0.0058832704 0.08001602 0.119648114
0000c0 a2 0f 21 bd ba 38 05 bd 16 d9 31 bd d2 84 bc 3d
       -0.03932155 -0.0325248 -0.04341992 0.09205021
0000d0 1f c9 47 3d ce 49 86 3c ec 55 3c bb 94 23 0d ba
       0.04877579 0.016392615 -0.0028737737 -0.00053840247
0000e0 fa 92 64 bc 07 9d 99 3d 6b 16 84 bd 27 78 d1 3d
       -0.013951058 0.07500654 -0.064495884 0.10227995
0000f0 8f b6 82 3c d2 f5 d6 3d 84 1f 30 be e6 57 0c 3e
       0.015956191 0.10496105 -0.17199522 0.13705406
000100 90 58 bb bd e0 6d 6b 3c 7f c7 03 bc e1 fc 4d bd
       -0.09147751 0.014369458 -0.008043169 -0.050289992
000110 49 b2 60 3b ce 37 ab 3d 41 59 21 3d 89 4e b6 3d
       0.0034285954 0.08360253 0.03939176 0.08901698
000120 2e 61 f4 3d 37 23 76 bd a7 95 2c 3d ad fa e8 3d
       0.11932598 -0.060092177 0.042134907 0.113759376
000130 94 df 56 3d d1 b7 2b 3e 15 e5 c9 3d 8d 0f 07 be
       0.052459314 0.16769339 0.09858147 -0.13189526
000140 b5 57 36 be cb 08 59 3d 87 83 1e bd 67 66 19 be
       -0.17806895 0.0529869 -0.038699653 -0.1498047
000150 d2 5b 17 3d 55 5c e2 3c eb d5 3e bd 9c 15 0d 3e
       0.0369528 0.027631918 -0.046590727 0.13777775
000160 c8 2a 1c 3e 8c 17 87 3d 41 fc cb 3d 58 39 92 bd
       0.15250695 0.06596288 0.09960223 -0.07139844
000170 c7 80 e4 3d 58 d4 0a be fb 21 0a 3d f6 41 a0 3d
       0.11157375 -0.13557565 0.033723813 0.07825081
000180 05 11 c7 bd af a7 3f be b9 1b 9f bc 14 66 7b bd
       -0.09720043 -0.1871631 -0.019422399 -0.061376646
000190 ea 79 ac 3d 0a 45 09 bd ed 84 a9 bd 09 83 e4 3c
       0.08421691 -0.033513106 -0.08277307 0.027894514
0001a0 a4 8e 2f bd a0 48 27 be 03 70 58 3d 4f ad 95 3d
       -0.042860642 -0.16336298 0.052841198 0.073084466
0001b0 41 aa df 3c 0e 17 6b 3d 0a 7a bc 39 4f 0c 93 bd
       0.027302863 0.057395034 0.0003594908 -0.07180082
0001c0 0d 19 9c 3d d8 17 bf bd 3c 63 67 3d b4 a6 85 3b
       0.076219656 -0.0933072 0.05649112 0.0040787105
0001d0 d6 6b 8a bd 60 06 b4 bc 41 4f ba 3d 1c 8f 00 bd
       -0.06758849 -0.021975696 0.09097148 -0.03138648
0001e0 a6 06 17 be e8 33 8f 3d 90 e3 d2 bd 2d 2c c3 3d
       -0.1474863 0.06992322 -0.1029731 0.0952991
0001f0 30 a8 99 bd 4a e4 8a 3c 1f b2 28 bd 1c a9 cf bc
       -0.07502782 0.01695456 -0.041185495 -0.025349192
000200 68 e0 bf bd c8 7a 84 bc d4 00 0b be 0c f8 ec bd
       -0.09368974 -0.016171828 -0.13574535 -0.11570749
000210 73 7a d8 bb 94 59 29 bd a4 c3 73 3d 22 77 a2 bd
       -0.006606394 -0.041345194 0.05951275 -0.07932879
000220 8d be 8a 3d 70 5f e3 3c e5 6d b3 3d 79 79 88 bd
       0.06774626 0.02775547 0.08761195 -0.06663794
000230 92 11 b0 bd 9c 7c 4b be 49 60 cb 3d d2 ac d4 3c
       -0.08597101 -0.19871753 0.09930474 0.025961313
000240 c2 a4 ae bd 65 8e 3d 3d ad c7 8e 3d 9a 8e 7d 3d
       -0.08527519 0.046278376 0.06971679 0.061903574
000250 37 c9 7b 3d 6b 2d 5a be 27 aa 8d 3d f2 0a 98 ba
       0.06147119 -0.21306388 0.069172196 -0.0011599942
000260 25 7a e9 bc d8 09 49 bd 90 93 af 3b cc d4 31 be
       -0.028500626 -0.049081653 0.005358167 -0.17366332
000270 f3 ad 66 3e 00 39 26 bb 28 6c 6c bd 11 66 77 bc
       0.22527294 -0.0025363564 -0.057720333 -0.015100018
000280 7f a5 1c bd cc 6d cf 3d af bc 00 3d 83 b1 65 be
       -0.038243767 0.10128364 0.031429943 -0.22430997
000290 6e 67 32 bb a1 1a d2 bc 2e 1d 96 bd 6b dd 25 bd
       -0.0027222293 -0.025647463 -0.07329784 -0.040494364
0002a0 4f 9a 48 bd 61 a2 2c 3e bb 4a c1 bb d8 fa ab 3d
       -0.048975285 0.16858818 -0.005898801 0.08397454
0002b0 50 41 a7 3d 2e ff f8 bd 03 cc b9 bd f9 a6 7e bc
       0.08166754 -0.12158047 -0.09072115 -0.015542739
0002c0 35 11 87 3c c4 0c 7a 3c 5d bc e8 3d be e6 ba 3d
       0.016487697 0.015261833 0.113640524 0.09126042
0002d0 4a 11 c0 bd c1 33 f6 bb 0a 17 46 3e bb 42 2b bd
       -0.093782976 -0.0075134938 0.19344726 -0.041811686
0002e0 c3 38 87 bd 38 5f 51 3d b0 ad a8 3b 98 7a 36 3d
       -0.06602623 0.0511162 0.0051476583 0.04455051
0002f0 c8 e2 d5 bd 1f 63 a8 bd 7c f2 aa 3c 95 15 b0 bd
       -0.10443646 -0.08222031 0.020867579 -0.085978664
000300 82 15 d7 bc 99 a8 38 3d 08 f5 d8 3d 3e 4d 46 3c
       -0.026255373 0.045082662 0.10593611 0.012103377
000310 92 5b e1 3c cf 86 13 3e 46 57 f7 3d dc 01 15 3e
       0.027509484 0.14406894 0.12077193 0.1455149
000320 3f 1a 88 bc 47 9d 1d 3d 1f b5 1e bd 64 b9 ce 3d
       -0.016614078 0.03848007 -0.03874695 0.10093954
000330 e8 7a e0 bd b7 57 a6 bc 0b 79 84 3d 3c f4 3c 3e
       -0.109609425 -0.020305498 0.064683996 0.18452543
000340 2e d2 6b bd 32 f5 b1 bd 81 87 11 be e2 a5 a8 3d
       -0.05757349 -0.086893454 -0.14211847 0.08234765
000350 f9 76 67 bd 50 66 93 3d 98 b5 c9 3d bd b8 de bd
       -0.056509946 0.07197249 0.098490894 -0.1087508
000360 3e 4e cc bd 54 d5 83 be c4 11 83 3d 3f ab b5 bd
       -0.09975861 -0.25748694 0.06399873 -0.08870553
000370 97 94 04 3e 37 34 1c bd 87 09 10 bd a1 bb 08 be
       0.12947308 -0.038135733 -0.035165336 -0.13352825
000380 ca 3c 6e bd 0e c4 b5 3c ba 66 23 bc 90 57 b2 bc
       -0.05816344 0.022188213 -0.009973222 -0.021770269
000390 17 e7 cb bd c4 82 1f bd d7 5e bd bd 8b 1a 2a 3e
       -0.09956186 -0.038943067 -0.09246605 0.16611688
0003a0 cd 23 1c 3d fe c6 9e bd 3f 7b 21 bd 9e 29 d7 3c
       0.03812008 -0.077527985 -0.039424177 0.026264962
0003b0 74 26 34 bd c2 5a db 3d 74 43 07 3e 04 fe 2d bd
       -0.043981984 0.1071067 0.13209325 -0.042478576
0003c0 88 ce 0c 3c e5 4e 23 bd fc 99 78 3d 62 34 8d bd
       0.008594163 -0.03987016 0.060693726 -0.06894757
0003d0 d2 9d 77 3e f1 a2 32 3d e2 82 cd 3d cc 2b ba 3d
       0.24181297 0.043612424 0.100347295 0.09090385
0003e0 a8 fc 92 bd 53 70 1c 3d 51 fd 19 bd c0 a2 0d be
       -0.071770966 0.03819306 -0.037595097 -0.13831615
0003f0 59 1b 61 be 0c ee b3 3d 17 4f 17 bc 8c ad 34 3d
       -0.21983089 0.08785638 -0.009235165 0.04411082
