results/2022_0313_1526/Fight/Fight-1499937.pt (torch, 508871 bytes, 33 tensors)

network_body.linear_encoder.seq_layers.0.weight f4 [128, 28]
0.11363758 -0.021823503 0.2556559 0.21382314 -0.06216988 -0.29885048 0.24703678 -0.065322965
0.33883306 0.15143046 -0.063659705 -0.018407162 -0.38333496 0.016533634 0.10214595 0.1992215
-0.0077535007 0.3714604 -0.24263614 0.02914163 -0.13244349 -0.03159256 -0.108635515 0.18202856
0.17543605 -0.09934592 0.09644508 0.12504983 0.076311074 -0.00023435404 -0.020664375 -0.19969389
0.32851002 -0.0887469 0.07527176 0.071954936 0.27214956 -0.23413202 -0.033252776 0.101002395
0.15018594 0.024544148 0.17075434 -0.011722338 -0.08455158 0.30207285 0.015099556 -0.15591086
-0.33893332 -0.10859981 0.0058603296 0.18778062 -0.020443808 -0.067827106 -0.36857498 0.08932962
0.09242266 0.17070058 0.09812486 0.121692255 -0.12837112 -0.10610979 0.24181047 -0.023883626
0.30704838 -0.043503277 0.2079427 -0.092178494 0.2359183 0.29923505 0.51468176 -0.33529162
0.017196657 -0.026809007 -0.14054981 -0.20570697 -0.009522266 -0.43822902 -0.08875765 -0.28634748
-0.025721628 0.2904569 -0.2572398 0.23621966 -0.19459507 -0.36769173 0.29718676 -0.27472854
-0.1556827 -0.11229916 -0.14175595 -0.15637772 0.10536185 0.28801814 0.010045221 0.150648
-0.06483455 0.06548413 -0.144912 -0.02065015 0.03245415 0.0734119 0.19226494 -0.06829155
0.023830745 0.21965335 -0.31315455 0.12628055 -0.1653337 0.062040366 0.09951138 -0.17188221
0.09749476 -0.010224911 0.2618396 0.28100714 -0.14635324 0.29270464 -0.07417981 0.15319332
0.07343536 0.3344245 0.13217212 -0.09393416 0.053824678 -0.033386886 0.24745993 -0.2721328
-0.11887712 -0.0020985994 -0.07377668 -0.30537632 0.032024927 -0.15777786 -0.15920573 -0.17373659
-0.40338832 0.12846465 -0.10882321 0.039061945 -0.050734784 0.045848403 -0.17062816 0.2642772
-0.253826 -0.059018973 -0.06589145 -0.06798429 -0.1771571 -0.013292909 -0.22581017 0.2611143
-0.7217671 0.19554599 0.5689129 -0.03689645 -0.13409688 0.08500882 0.08633668 0.26852158
0.09654355 -0.008274453 0.42753664 0.20993383 -0.36492348 0.1678362 0.18453828 -0.06690948
0.22572878 0.2844685 -0.30773073 -0.027195046 0.05396809 0.032605425 0.18586423 -0.24421568
-0.033475854 0.13894807 0.38644642 0.25570464 -0.202188 0.14550526 0.1995047 -0.05266648
-0.01564262 0.11459093 0.11906128 0.009728845 0.18839626 -0.060245886 0.26211944 0.42052573
0.04208018 -0.3253292 0.15063469 0.12937975 0.35702085 0.0468279 0.042909678 -0.11569376
-0.01070389 0.081782766 0.13372481 -0.12531482 0.18710713 0.2644012 0.2674148 -0.08703553
0.042480916 0.09632897 -0.22057943 0.0043919263 0.12605435 0.061165527 0.23950914 -0.114503086
0.16469505 -0.65765375 -0.19947113 -0.2556074 -0.018591952 -0.29149097 -0.34190422 -0.11248279
0.100358464 0.19835328 -0.060766183 -0.10452877 0.096015215 0.035098124 -0.112951055 -0.21106486
-0.17706352 0.4101127 -0.042850196 0.02678936 -0.025177501 0.15404046 0.29630682 -0.009010448
-0.06944874 -0.2595396 -0.058227137 -0.13702546 -0.3858256 0.15241517 -0.36825594 -0.044876225
0.04546274 -0.089696944 0.26572374 0.0953746 0.37894166 -0.071837574 -0.18894687 0.05600179
00000000: d2ba e83d 34c7 b2bc 55e5 823e 74f4 5a3e
00000010: d8a5 7ebd ee02 99be 36f7 7c3e 0cc8 85bd
00000020: 877b ad3e 9610 1b3e 0560 82bd 9eca 96bc
00000030: 7b44 c4be 8b71 873c e531 d13d b900 4c3e
00000040: 1411 febb 0f30 be3e 9c75 78be 6dba ee3c
00000050: 449f 07be 3367 01bd 4c7c debd b265 3a3e
00000060: 82a5 333e e075 cbbd 0085 c53d 100d 003e
00000070: fb48 9c3d efbc 75b9 5648 a9bc 8e7c 4cbe
00000080: 7732 a83e efc0 b5bd 1528 9a3d 1c5d 933d
00000090: 3057 8b3e 4ec0 6fbe 1034 08bd 58da ce3d
000000a0: 58ca 193e cf10 c93c 3ada 2e3e 0d0f 40bc
000000b0: 6129 adbd 4ba9 9a3e 2164 773c 19a7 1fbe
000000c0: ab88 adbe 9469 debd 0208 c03b 9049 403e
000000d0: c679 a7bc f0e8 8abd dcb5 bcbe 73f2 b63d
000000e0: 1748 bd3d 22cc 2e3e b0f5 c83d ca39 f93d
000000f0: b873 03be 1750 d9bd 2a9d 773e 98a7 c3bc
00000100: 7235 9d3e 7e30 32bd eeee 543e 14c8 bcbd
00000110: 9194 713e 5635 993e 2fc2 033f 58ab abbe
00000120: 01e0 8c3c 909e dbbc 4aec 0fbe d9a4 52be
00000130: 4703 1cbc 8e5f e0be 92c6 b5bd 239c 92be
00000140: 2ab6 d2bc c4b6 943e efb4 83be 91e3 713e
00000150: ee43 47be 1742 bcbe dd28 983e 38a9 8cbe
00000160: 496b 1fbe 1afd e5bd 7928 11be 7b21 20be
00000170: f4c7 d73d 1d77 933e b694 243c 7843 1a3e
00000180: fac7 84bd 8b1c 863d d063 14be 812a a9bc
00000190: a5ee 043d fa58 963d 1ae1 443e 71dc 8bbd
000001a0: b238 c33c cfec 603e cb55 a0be b04f 013e
000001b0: 3d4d 29be 0a1e 7e3d 9fcc cb3d e401 30be
000001c0: 55ab c73d 6386 27bc d70f 863e 2be0 8f3e
000001d0: a0dd 15be 62dd 953e 96eb 97bd b6de 1c3e
000001e0: 4765 963d b039 ab3e 2158 073e 8e60 c0bd
000001f0: 4477 5c3d b0c0 08bd 2366 7d3e fe54 8bbe
00000200: d975 f3bd a888 09bb 3a18 97bd 495a 9cbe
00000210: 922c 033d 8590 21be d406 23be 01e8 31be
00000220: ea88 cebe 3d8c 033e b4de debd 6bff 1f3d
00000230: 47cf 4fbd 89cb 3b3d 26b9 2ebe 574f 873e
00000240: 7bf5 81be e1bd 71bd 19f2 86bd 593b 8bbd
00000250: ac68 35be 80ca 59bc c83a 67be c6b0 853e
00000260: bbc5 38bf 353d 483e 47a4 113f bb20 17bd
00000270: b150 09be 1b19 ae3d 49d1 b03d a97b 893e
00000280: a0b8 c53d 9291 07bc 15e6 da3e e5f8 563e
00000290: 40d7 babe 41dd 2b3e 9af7 3c3e d607 89bd
000002a0: 7225 673e dba5 913e e28e 9dbe 25c8 debc
000002b0: a50d 5d3d 448d 053d 3153 3e3e ad13 7abe
000002c0: fa1d 09bd 6748 0e3e 4edc c53e b8eb 823e
000002d0: 5f0a 4fbe 55ff 143e f64a 4c3e cfb8 57bd
000002e0: f424 80bc a6ae ea3d 66d6 f33d bc65 1f3c
000002f0: f3ea 403e 64c4 76bd 8534 863e 264f d73e
00000300: 445c 2c3d 8d91 a6be fb3f 1a3e 207c 043e
00000310: 70cb b63e 9dce 3f3d 0fc2 2f3d daf0 ecbd
00000320: 5e5f 2fbc b97d a73d 28ef 083e 8752 00be
00000330: 0399 3f3e 985f 873e 98ea 883e af3f b2bd
00000340: 7800 2e3d 1f48 c53d 93df 61be 26ea 8f3b
00000350: 6414 013e b488 7a3d e241 753e 9880 eabd
00000360: d2a5 283e ff5b 28bf 2942 4cbe f9de 82be
00000370: 264e 98bc 4e3e 95be 120e afbe 615d e6bd
00000380: bd88 cd3d 1f1d 4b3e f6e5 78bd 2e13 d6bd
00000390: a0a3 c43d 0dc3 0f3d e252 e7bd 6321 58be
000003a0: 2450 35be 4bfa d13e b083 2fbd 5c75 db3c
000003b0: 0c41 cebc c8bc 1d3e 87b5 973e 8fa0 13bc
000003c0: 243b 8ebd 60e2 84be 947f 6ebd 6750 0cbe
000003d0: ef8a c5be b912 1c3e 0b8c bcbe 22d0 37bd
000003e0: 2337 3a3d 08b3 b7bd f10c 883e c253 c33d
000003f0: a404 c23e 941f 93bd 4a7b 41be 2262 653d

network_body.linear_encoder.seq_layers.0.bias f4 [128]
0.02664547 0.026697278 -0.006893936 -0.012218751 -0.0046637813 0.019150363 0.02230955 0.016174162
-0.018746182 0.04458424 0.044205092 0.04239004 0.004405909 0.018518578 -0.003282864 0.034216557
0.020706113 0.0052947644 -0.0135010425 -0.02249478 0.022901956 -0.0065090936 0.015956907 -0.007548287
0.03640152 0.018568408 0.010256716 0.038489543 0.03100841 0.011720202 0.027353832 0.033851482
0.021596616 0.020951416 0.04315067 0.039617684 0.04684495 0.02023667 0.01309479 0.025460873
-0.016012553 -0.003062258 0.025563447 0.009773767 0.0028041657 -0.0048972312 0.0055225682 -0.017023025
0.008889929 0.03368612 0.0546969 0.0031876864 -0.0044634175 -0.018143745 0.00934218 0.027741982
0.040045217 0.011847391 -0.008756644 0.0042144917 -0.010033548 0.0019259407 0.013234383 0.05930548
0.021848196 0.006187386 0.001519341 -0.0057648313 0.029410964 -0.02673055 0.051613607 0.020467144
-0.035781894 0.018082894 -0.018482072 0.012088129 0.03174064 0.015717912 0.009839184 0.0131662395
0.0059898733 0.010581326 0.02971626 0.000103269784 0.04354984 -0.013428677 -0.01804184 0.004859119
0.006137394 0.042257264 0.033385053 0.01770191 0.019986851 0.007736364 -0.014236655 0.0112624075
0.027520914 -0.043121926 0.014662129 0.015618859 -0.045939963 -0.009495112 0.021184398 0.01936805
0.007500207 0.048351187 0.0003121931 -0.018287428 0.020713544 -0.006784661 -2.3333725e-05 -0.044431992
0.0052978504 0.060084727 0.003561662 -0.031939335 0.00918601 0.026720198 0.018596813 0.039876707
0.027159348 0.007928038 0.016807321 0.032861356 0.050855312 0.028503189 0.038125765 0.023460403
00000000: 9a47 da3c 40b4 da3c 87e6 e1bb 2831 48bc
00000010: a2d2 98bb 39e1 9c3c 84c2 b63c ad7f 843c
00000020: 9891 99bc f79d 363d 6610 353d 2ea1 2d3d
00000030: 725f 903b 46b4 973c 5225 57bb a926 0c3d
00000040: de9f a93c b47f ad3b 7a33 5dbc f946 b8bc
00000050: e29c bb3c 3c4a d5bb 0fb8 823c 9f57 f7bb
00000060: c319 153d c61c 983c c90b 283c 36a7 1d3d
00000070: 5905 fe3c 1706 403c 2515 e03c daa7 0a3d
00000080: 63eb b03c 4ea2 ab3c c2be 303d 2746 223d
00000090: 7ee0 3f3d 5fc7 a53c 888b 563c 5293 d03c
000000a0: c22c 83bc 2ab0 48bb 6f6a d13c 2622 203c
000000b0: 18c6 373b f478 a0bb a9f6 b43b df73 8bbc
000000c0: 11a7 113c 75fa 093d db09 603d 81e8 503b
000000d0: dc41 92bb 31a2 94bc f10f 193c 2743 e33c
000000e0: 7406 243d 8f1b 423c 0778 0fbc b819 8a3b
000000f0: c063 24bc d96f fc3a 07d5 583c 4eea 723d
00000100: fdfa b23c 8ebf ca3b a024 c73a e9e6 bcbb
00000110: 43ef f03c 07fa dabc ca68 533d b6aa a73c
00000120: 0990 12bd 9422 943c b767 97bc 4a0d 463c
00000130: 7902 023d dac2 803c 8734 213c 36b7 573c
00000140: b346 c43b 4c5d 2d3c 846f f33c 8b92 d838
00000150: 5161 323d f403 5cbc 7bcc 93bc 3f39 9f3b
00000160: 311c c93b f415 2d3d c4be 083d 9903 913c
00000170: 77bb a33c 5381 fd3b dc40 69bc f685 383c
00000180: 8a73 e13c 9ea0 30bd 6d39 703c 3ee6 7f3c
00000190: 8b2b 3cbd 6391 1bbc e78a ad3c bfa9 9e3c
000001a0: 4cc4 f53b e50b 463d d9ad a339 84cf 95bc
000001b0: 73af a93c dd51 debb cbbc c3b7 52fe 35bd
000001c0: 9799 ad3b 671b 763d c66a 693b d2d2 02bd
000001d0: eb80 163c 51e4 da3c 5858 983c c255 233d
000001e0: 487d de3c 9ae4 013c 82af 893c a199 063d
000001f0: a94d 503d 857f e93c c329 1c3d 0830 c03c

network_body.linear_encoder.seq_layers.2.weight f4 [128, 128]
0.043109603 -0.10764828 -0.33663276 0.072534844 -0.03503955 0.043986715 0.023334026 -0.09929152
0.13903652 -0.16920328 -0.11988888 -0.060886618 0.10037756 -0.11770609 0.0345375 -0.06277262
0.10778293 -0.13879842 -0.056315046 -0.014152888 0.065636605 0.01685941 -0.040457748 0.11545451
0.08554514 0.013110467 0.08482162 -0.05602901 -0.13812064 -0.07843146 0.13057749 0.023763942
0.021397004 0.09622937 -0.06007647 -0.008767636 0.067375235 -0.05744593 -0.04723651 0.0101559665
-0.06026676 -0.07291586 0.1992692 -0.037217867 0.18923567 -0.018370993 0.0859686 0.116293155
-0.030293662 -0.038456682 -0.03828462 0.09311154 0.04914752 0.013085125 -0.014905363 -0.008646497
-0.017389778 0.0672392 -0.06409927 0.10207659 0.02588962 0.09859607 -0.17485009 0.1395012
-0.097253494 0.0040598493 -0.0021038516 -0.058529656 0.013256838 0.07827688 0.044445664 0.0787241
0.11743558 -0.059696153 0.054117277 0.11077594 0.041355457 0.1566628 0.08701399 -0.13681255
-0.16346669 0.0555476 -0.03804185 -0.14364761 0.029575342 0.023149915 -0.05234286 0.14463137
0.14601992 0.067311876 0.10446326 -0.08909957 0.10908761 -0.124366656 0.03459264 0.08573991
-0.09887817 -0.18035783 -0.011043831 -0.05190321 0.092740424 -0.035094626 -0.09606344 0.012566913
-0.05205134 -0.16815957 0.050681654 0.062355835 0.041102752 0.042306967 0.0026354087 -0.060337044
0.08572711 -0.097744726 0.05314157 0.014078135 -0.074921675 -0.03431011 0.08262729 -0.048274588
-0.1397335 0.0726766 -0.108445875 0.088523865 -0.066647865 0.027174512 -0.05350831 -0.038551193
-0.0882381 -0.008624327 -0.12546638 -0.11578768 0.0041115987 -0.05428539 0.046872158 -0.07488718
0.07536392 0.030072588 0.08977383 -0.055423867 -0.0832639 -0.20192762 0.10606231 0.014489219
-0.09671179 0.049440723 0.07278686 0.07032643 0.050540186 -0.21793917 0.056547336 -0.00022047604
-0.035525173 -0.05681441 0.013689285 -0.17818925 0.21495543 0.008175964 -0.05951222 -0.032178786
-0.040208858 0.10313858 0.032666627 -0.23711261 -0.009845564 -0.020307915 -0.07671298 -0.051869515
-0.039875712 0.1832899 0.0039134924 0.077071965 0.097252175 -0.11049872 -0.1085718 -0.014030733
0.0113493735 0.0046790508 0.110544786 0.09292187 -0.08562411 -0.0073013753 0.19779342 -0.047442477
-0.06078123 0.049314864 0.004918579 0.039360084 -0.10382326 -0.076463185 0.013727692 -0.09760146
-0.021652887 0.051466223 0.10732068 0.02301259 0.006882017 0.14299068 0.11725971 0.14587882
-0.018418858 0.041776523 -0.040730342 0.109872825 -0.10819045 -0.021543756 0.0812154 0.19800721
-0.06565349 -0.09813529 -0.15191175 0.081151776 -0.062718146 0.06824742 0.10112709 -0.12087936
-0.105418526 -0.2642096 0.048008703 -0.07728227 0.12001522 -0.034288865 -0.031091608 -0.1323078
-0.06850662 0.024065116 -0.0060830433 -0.022728994 -0.09865306 -0.03607716 -0.0940576 0.17174935
0.039321303 -0.08759994 -0.039491337 0.041565828 -0.061892033 0.11417646 0.13175501 -0.04195861
-0.00378058 -0.06239477 0.06484149 -0.06998163 0.24601638 0.039324302 0.09712244 0.10040579
-0.089506514 0.018379867 -0.035536516 -0.13949181 -0.21472277 0.08765904 0.003067586 0.03746653
00000000: b293 303d b476 dcbd 215b acbe 268d 943d
00000010: a285 0fbd 6a2b 343d 0027 bf3c 5a59 cbbd
00000020: 975f 0e3e a043 2dbe 4d88 f5bd 3f64 79bd
00000030: c092 cd3d e40f f1bd 3277 0d3d ee8e 80bd
00000040: 4cbd dc3d 2c21 0ebe 9baa 66bd 84e1 67bc
00000050: 7c6c 863d bf1c 8a3c 06b7 25bd 6a73 ec3d
00000060: 4a32 af3d 49cd 563c f5b6 ad3d ad7e 65bd
00000070: 7f6f 0dbe aca0 a0bd 1bb6 053e 99ac c23c
00000080: c548 af3c e713 c53d bf12 76bd 21a6 0fbc
00000090: 07fc 893d 6c4c 6bbd 127b 41bd 3665 263c
000000a0: 47da 76bd e954 95bd 3a0d 4c3e c371 18bd
000000b0: ffc6 413e c47e 96bc 4e10 b03d 1b2b ee3d
000000c0: 6a2a f8bc c184 1dbd 55d0 1cbd 43b1 be3d
000000d0: e94e 493d fe62 563c a035 74bc 09aa 0dbc
000000e0: 0275 8ebc b5b4 893d 7a46 83bd 880d d13d
000000f0: 7816 d43c bdec c93d e70b 33be 67d9 0e3e
00000100: d72c c7bd 7c08 853b c6e0 09bb cbbc 6fbd
00000110: 3533 593c a14f a03d a80c 363d 1a3a a13d
00000120: 1182 f03d f483 74bd 14aa 5d3d 7fde e23d
00000130: 5764 293d 376c 203e 6434 b23d 9718 0cbe
00000140: d063 27be e185 633d c5d1 1bbd 5c18 13be
00000150: fd47 f23c e4a4 bd3c 7765 56bd 3f1a 143e
00000160: 3f86 153e cfda 893d d5f0 d53d d679 b6bd
00000170: 5369 df3d f2b3 febd 03b1 0d3d 6898 af3d
00000180: a380 cabd b9af 38be 2ff1 34bc 7698 54bd
00000190: b1ee bd3d 62bf 0fbd e9bc c4bd 74e5 4d3c
000001a0: c933 55bd 0632 2cbe 9197 4f3d d568 7f3d
000001b0: 5c5b 283d 124a 2d3d d2b6 2c3b fa23 77bd
000001c0: b291 af3d 632e c8bd faaa 593d faa7 663c
000001d0: 8970 99bd c288 0cbd 7f38 a93d 93bb 45bd
000001e0: 4c16 0fbe 78d7 943d df18 debd 004c b53d
000001f0: ad7e 88bd 159d de3c 882b 5bbd dbe7 1dbd
00000200: 2db6 b4bd 0d4d 0dbc 427a 00be 1722 edbd
00000210: 97ba 863b 5b5a 5ebd 05fd 3f3d 735e 99bd
00000220: 6658 9a3d ca5a f63c 57db b73d 2304 63bd
00000230: 4386 aabd 1dc6 4ebe 3237 d93d 3064 6d3c
00000240: d510 c6bd 5b82 4a3d 4711 953d 4e07 903d
00000250: 3a03 4f3d 722b 5fbe 2e9e 673d 962f 67b9
00000260: d882 11bd 3ab6 68bd 0649 603c 3e77 36be
00000270: 471d 5c3e 7af4 053c 16c3 73bd e7cd 03bd
00000280: 0bb2 24bd 523a d33d 71cd 053d a6cd 72be
00000290: 4a4f 21bc c95c a6bc b21b 9dbd 2175 54bd
000002a0: b754 23bd 59b0 3b3e c13c 803b e8d7 9d3d
000002b0: 262c c73d 274d e2bd e45a debd 29e1 65bc
000002c0: b9f2 393c b952 993b 4e65 e23d d24d be3d
000002d0: b25b afbd 6040 efbb 5c8a 4a3e 0b53 42bd
000002e0: bdf5 78bd 62fe 493d 082c a13b 0a38 213d
000002f0: 4aa1 d4bd bb98 9cbd 1dea 603c 46e3 c7bd
00000300: 6561 b1bc 3fce 523d f2ca db3d e684 bc3c
00000310: 8b82 e13b 266c 123e dc25 f03d 4261 153e
00000320: 25e3 96bc dc1d 2b3d dcd4 26bd 0105 e13d
00000330: f492 ddbd 887c b0bc 4254 a63d 67c2 4a3e
00000340: 5675 86bd 28fb c8bd c18e 1bbe e732 a63d
00000350: 5f72 80bd 4ec5 8b3d b81b cf3d 998f f7bd
00000360: abe5 d7bd 7b46 87be c6a4 443d 2b46 9ebd
00000370: 8aca f53d 7b72 0cbd d4b3 febc b27b 07be
00000380: 334d 8cbd 3524 c53c 4454 c7bb 2832 babc
00000390: 9e0a cabd a5c5 13bd 45a1 c0bd 10df 2f3e
000003a0: 600f 213d 9967 b3bd abc1 21bd ee40 2a3d
000003b0: 8082 7dbd 59d5 e93d c9ea 063e cbdc 2bbd
000003c0: 9bc3 77bb a991 7fbd 9dcb 843d 8752 8fbd
000003d0: b8eb 7b3e 8512 213d 21e8 c63d 8da1 cd3d
000003e0: 314f b7bd 6091 963c bd8e 11bd f1d6 0ebe
000003f0: 49e0 5bbe 9586 b33d 8e09 493b 8176 193d

network_body.linear_encoder.seq_layers.2.bias f4 [128]
0.0050765234 0.011405814 -0.014274927 0.027202766 0.029813828 0.009505183 0.0016241434 0.012084944
-0.026645696 -0.015341681 -0.012699371 -0.014709582 0.035969432 0.00042390518 0.032490402 0.0235368
0.031505857 0.01967143 0.008608344 -0.006902442 -0.0016637131 -0.0043975892 0.02159509 0.019461488
0.007851084 0.01331559 0.0055083274 -0.001394445 0.023375724 0.030835567 0.028426467 0.01535524
0.015210778 -0.026900426 0.006148751 0.050437022 0.016417831 -0.0025811612 0.0137695465 -0.0029087192
0.0051202667 0.00037989585 0.025936674 0.010194368 0.0037264014 -0.010833493 0.006526281 0.036756784
0.009648598 0.021458631 0.005735672 0.019072494 0.024690004 -0.009086891 -0.002923033 0.017928848
0.039122492 0.022056783 -0.007472603 0.03102642 -0.022265866 -0.012679149 -0.0101374 0.025546128
0.00048040625 -0.002594681 0.024285417 -0.012096427 -0.0024882003 0.02960327 0.022753157 0.023452481
0.010105197 -0.0034868678 -0.012205246 -0.025224479 -0.007831828 0.00020822998 0.011497996 -0.012979486
0.005338638 -0.0122356685 -0.014129448 0.029718567 0.018044064 0.027887931 0.013703024 0.020634487
0.004899477 0.021604897 0.031087503 -0.0070589106 0.011332075 0.0023779196 -0.02779106 -0.0063195014
0.015346675 0.0058242967 -0.007259955 -0.015750881 0.0135822985 0.0041112974 -0.002920302 -0.0012294448
0.0009803209 0.032478567 0.0011867587 0.007330007 0.024395736 0.041038845 -0.013026781 0.028415969
-0.0025075353 0.02771602 0.010125438 0.018615823 -0.0028362314 0.041081537 0.021213606 -0.008120625
0.008426011 0.020580452 0.012343617 -0.0079217665 0.030847076 0.014049063 0.011672661 0.010021045
00000000: f758 a63b 74df 3a3c 62e1 69bc 56d8 de3c
00000010: 213c f43c a1bb 1b3c 36e1 d43a eeff 453c
00000020: 1348 dabc ad5b 7bbc 0611 50bc 7500 71bc
00000030: af54 133d 973f de39 a814 053d 3fd0 c03c
00000040: 490c 013d fb25 a13c 030a 0d3c e12d e2bb
00000050: f310 daba a719 90bb 30e8 b03c b36d 9f3c
00000060: d5a1 003c a229 5a3c 337f b43b cfc5 b6ba
00000070: 727e bf3c df9a fc3c 9fde e83c 8b94 7b3c
00000080: a136 793c 485e dcbc 767b c93b 0d97 4e3d
00000090: b07e 863c b328 29bb aa99 613c 36a0 3ebb
000000a0: e9c7 a73b c22c c739 2679 d43c 4706 273c
000000b0: a436 743b f77e 31bc 6ada d53b 488e 163d
000000c0: 2715 1e3c 03ca af3c 4ef2 bb3b eb3d 9c3c
000000d0: b142 ca3c 2fe1 14bc 5b90 3fbb 85df 923c
000000e0: e83e 203d 6db0 b43c bddc f4bb 1e2b fe3c
000000f0: e866 b6bc 35bc 4fbc 5617 26bc 1d46 d13c
00000100: 09df fb39 860b 2abb 36f2 c63c 1830 46bc
00000110: 1311 23bb 8f82 f23c d464 ba3c 6b1f c03c
00000120: 4590 253c ef83 64bb 83f8 47bc 91a3 cebc
00000130: 1151 00bc 4f58 5a39 1762 3c3c e9a7 54bc
00000140: beef ae3b 1d78 48bc 337f 67bc 5a74 f33c
00000150: 25d1 933c 3b75 e43c a682 603c a809 a93c
00000160: cb8b a03b c1fc b03c 38ab fe3c 6f4e e7bb
00000170: 2baa 393c dfd6 1b3b 14aa e3bc d213 cfbb
00000180: 9f70 7b3c bed9 be3b ebe4 edbb fe07 81bc
00000190: 4a88 5e3c 10b8 863b 8a62 3fbb 5225 a1ba
000001a0: 1c7e 803a 3f08 053d 048d 9b3a 8e30 f03b
000001b0: 91d9 c73c 5918 283d 486e 55bc 9bc8 e83c
000001c0: 7655 24bb b50c e33c 2ae5 253c 3680 983c
000001d0: 11e0 39bb 1d45 283d 28c8 ad3c 5f0c 05bc
000001e0: 400d 0a3c 5698 a83c e23c 4a3c 4cca 01bc
000001f0: 02b3 fc3c 0b2e 663c b03e 3f3c 4f2f 243c

action_model._discrete_distribution.branches.0.weight f4 [4, 128]
0.018537948 -0.011637783 0.011851296 7.6845296e-05 -0.023883842 -0.013645968 0.0035531956 -0.014521082
0.009101131 0.012243365 0.018426538 0.0106543405 -0.01613437 -1.0071987e-05 0.0076520503 0.025597904
-0.003957279 0.008189676 -0.01423944 0.015301011 0.006245124 -0.0064380746 -0.011750509 -0.026179304
0.011018328 -0.00012506399 0.012805688 0.010271226 0.008879113 -0.020890208 -0.006875537 -0.029711172
-0.013538543 0.013560535 -0.012867444 -0.0027455369 -0.0006027489 0.0038086036 0.0015906317 0.0029516015
0.00055228523 -0.012674514 0.0036394063 -0.0014756361 0.012806399 -0.024378533 0.01095015 -0.0054539167
-0.003996808 -0.003398617 0.009994574 -0.009497633 -0.0025476466 -0.006720126 0.018313333 -0.011983085
-0.014451769 -0.021496711 0.02862962 -0.015304006 -0.0046511693 0.02132699 0.019517219 0.0071177664
0.0009512726 -0.022045344 -0.026579347 0.023553265 0.0037500018 -0.0039769066 0.02352933 -0.0062455987
-0.0012827193 -0.008388003 -0.020898886 0.004437735 0.033639964 -0.008669815 -0.01162139 -0.0046610544
-0.0111206835 0.005355288 0.004507006 -0.004238998 0.005322784 -0.0152773885 0.010746761 -0.022046242
-0.018561458 -0.026605729 -0.018907784 0.009675998 -0.0075741746 -0.0010507399 0.0086201355 0.004822966
-0.002418525 -0.0025777994 0.0011372691 -0.016332375 -0.010719143 -0.004694966 -0.0051337862 -0.0102334665
-0.006674807 -0.02597651 0.010053241 0.012746766 0.016157268 -0.0033357095 0.01622352 -0.007417972
-0.00078472483 -0.025884936 -0.022054737 -0.010771254 -0.010539617 -0.012820325 -0.009683393 -0.016342051
-0.019673748 -0.002457134 -0.017083615 0.006019753 -0.03413185 -0.02450588 -0.009415541 -0.0044918726
0.0004023145 -0.019836174 -0.03001407 0.05155202 0.051027168 -0.044820186 -0.0073645366 0.012756111
-0.026657294 -0.03160607 -0.038214408 -0.028913932 0.050040986 -0.048612446 0.057785623 0.06097429
0.05253596 0.03999981 0.012891199 -0.028301382 -0.053346764 0.008061386 0.042679694 0.055770513
-0.08052484 0.031512428 -0.058962196 -0.016328687 0.047442302 0.040594496 0.016194968 0.028285567
-0.046364386 -0.020501139 0.028002663 0.050571304 0.034061417 -0.015365186 -0.055335794 0.008707797
-0.04224008 -0.04450385 0.03134697 0.006726347 -0.01025431 -0.023742279 -0.03763168 0.06045033
-0.021243323 0.035771593 -0.021145422 -0.04149009 -0.04457281 -0.006435727 -0.00344764 0.030498391
0.0578826 0.037412286 -0.03461158 0.051761013 -0.037145346 0.0012874405 -0.05645779 0.024886236
0.0039347205 -0.018114034 0.03955418 -0.021111777 -0.043805875 0.044696815 0.04199268 -0.020182122
0.012316966 -0.008066226 0.005932339 -0.017508326 -0.0318837 -0.012056531 -0.028836103 -0.036787022
-0.049847946 -0.03983398 -0.028428078 0.047503475 0.038523667 0.046759523 -0.03222888 -0.019761436
-0.0110335965 0.02631363 0.05354639 -0.011767785 -0.018950908 0.00949074 -0.019616686 -0.046422333
-0.06261788 -0.03910847 -0.025669646 -0.016423896 -0.012259661 0.016076656 -0.03720852 -0.004034042
-0.036442414 0.045096084 -0.05736659 0.0026506386 0.03727312 0.073208995 -0.0415432 0.03922151
-0.04027123 0.01601715 -0.027690265 0.034410913 -0.041674934 0.076138355 0.04129268 -0.032558896
0.015588774 0.040688224 -0.055114362 0.0033952282 0.033963464 0.023334067 -0.016117403 0.023559347
00000000: e5dc 973c 66ac 3ebc f02b 423c 0128 a138
00000010: 0ca8 c3bc 5793 5fbc bbdc 683b d5e9 6dbc
00000020: e91c 153c 6598 483c 40f3 963c 8b8f 2e3c
00000030: 3a2c 84bc dbfa 28b7 0dbe fa3b b2b2 d13c
00000040: 10ac 81bb fe2d 063c 8a4c 69bc 17b1 7a3c
00000050: e6a3 cc3b 7cf6 d2bb 3585 40bc fb75 d6bc
00000060: 3886 343c 9c23 03b9 f3ce 513c a548 283c
00000070: b379 113c f121 abbc 2f4c e1bb d864 f3bc
00000080: c4d0 5dbc 022d 5e3c f9d1 52bc 77ee 33bb
00000090: cb01 1eba c499 793b be7c d03a a86f 413b
000000a0: 3cc7 103a c4a8 4fbc 1b83 6e3b 226a c1ba
000000b0: eed1 513c 7db5 c7bc 4268 333c c5b6 b2bb
000000c0: a8f7 82bb 55bb 5ebb 48c0 233c f69b 1bbc
000000d0: 6bf6 26bb 8134 dcbb d805 963c b454 44bc
000000e0: 1dc7 6cbc df19 b0bc aa88 ea3c a7bd 7abc
000000f0: d668 98bb f1b5 ae3c 93e2 9f3c 273c e93b
00000100: d35e 793a 7098 b4bc eebc d9bc c7f2 c03c
00000110: 97c2 753b b650 82bb 95c0 c03c e1a7 ccbb
00000120: eb20 a8ba d66d 09bc 2434 abbc 6b6a 913b
00000130: 0fca 093d d70b 0ebc a467 3ebc c2bb 98bb
00000140: 8733 36bc 697b af3b 82af 933b 4be7 8abb
00000150: c06a ae3b 034e 7abc 2f13 303c 529a b4bc
00000160: 330e 98bc 42f4 d9bc 7fe4 9abc 1488 1e3c
00000170: c830 f8bb fbb8 89ba 783b 0d3c f909 9e3b
00000180: 1e80 1ebb 4cf0 28bb 6b10 953a 79cb 85bc
00000190: 589f 2fbc 3bd8 99bb 5239 a8bb 45aa 27bc
000001a0: 57b8 dabb b1cc d4bc 59b6 243c d0d7 503c
000001b0: 3f5c 843c eb9b 5abb 30e7 843c 7612 f3bb
000001c0: feb5 4dba a50c d4bc 23ac b4bc ea79 30bc
000001d0: 5cae 2cbc 570c 52bc 18a7 1ebc c4df 85bc
000001e0: d72a a1bc de07 21bb f0f2 8bbc 5941 c53b
000001f0: d7cd 0bbd 8ec0 c8bc a443 1abc 8f30 93bb
00000200: bded d239 797f a2bc 11e0 f5bc 3628 533d
00000210: dd01 513d 5f95 37bd 3652 f1bb 02ff 503c
00000220: 6660 dabc 5e75 01bd b686 1cbd e9dc ecbc
00000230: c7f7 4c3d d81d 47bd 9eb0 6c3d 2dc0 793d
00000240: f22f 573d d7d6 233d 9c35 533c 4dd8 e7bc
00000250: 2382 5abd e713 043c e7d0 2e3d 9f6f 643d
00000260: 35ea a4bd 2d13 013d 5882 71bd bdc3 85bc
00000270: dc52 423d 6a46 263d 4fab 843c 22b7 e73c
00000280: 95e8 3dbd 01f2 a7bc d765 e53c db23 4f3d
00000290: fc83 0b3d 43be 7bbc c9a7 62bd 26ab 0e3c
000002a0: ef03 2dbd ab49 36bd ae65 003d b068 dc3b
000002b0: b201 28bc 2b7f c2bc ad23 1abd c49a 773d
000002c0: 7a06 aebc 3c85 123d 2a39 adbc 83f1 29bd
000002d0: fb91 36bd cae2 d2bb cdf1 61bb c3d7 f93c
000002e0: 4e16 6d3d a03d 193d dfc4 0dbd 5b03 543d
000002f0: b825 18bd 56bf a83a 4940 67bd 38de cb3c
00000300: d4ee 803b e263 94bc 9003 223d 9bf2 acbc
00000310: ca6d 33bd 0214 373d 8400 2c3d fa54 a5bc
00000320: 1acd 493c 3428 04bc 1164 c23b 9f6d 8fbc
00000330: 7c98 02bd c288 45bc b139 ecbc fdad 16bd
00000340: 5c2d 4cbd f528 23bd 00e2 e8bc 0193 423d
00000350: feca 1d3d ea86 3f3d 6e02 04bd bce2 a1bc
00000360: 42c6 34bc af8f d73c 7653 5b3d abcd 40bc
00000370: ef3e 9bbc 0c7f 1b3c 2cb3 a0bc 5825 3ebd
00000380: ce3d 80bd 3430 20bd 2649 d2bc 688b 86bc
00000390: bfdc 48bc 31b3 833c f667 18bd ff2f 84bb
000003a0: a444 15bd acb6 383d 3bf9 6abd 56b6 2d3b
000003b0: b3ab 183d 99ee 953d 3429 2abd bca6 203d
000003c0: 72f3 24bd 6636 833c b2d6 e2bc 75f2 0c3d
000003d0: 56b3 2abd 6dee 9b3d 8322 293d 7a5c 05bd
000003e0: 0f68 7f3c b2a8 263d 99bf 61bd 7a82 5e3b
000003f0: 461d 0b3d 1627 bf3c a508 84bc 88ff c03c

action_model._discrete_distribution.branches.0.bias f4 [4]
-0.015909959 0.026149446 -0.007799579 -0.0016059036
00000000: 9a55 82bc 5d37 d63c 9c93 ffbb 2f7d d2ba

critic.network_body.linear_encoder.seq_layers.0.weight f4 [128, 28]
-0.19116852 0.40931195 -0.03421739 -0.012794233 -0.1137879 0.008711997 0.1621376 -0.4707958
-0.009626867 -0.019337421 0.12894417 0.48018947 0.3285352 0.07446815 -0.0030428239 0.27447483
-0.22424346 -0.0006081458 -0.07985513 0.13465926 0.17427807 -0.27180663 0.30306685 0.15781537
-0.073794276 0.110553436 -0.615973 -0.34746245 -0.23058821 -0.06718562 -0.014062937 -0.021678822
0.3309905 0.039605185 0.23097692 0.055163093 -0.040490128 0.24730588 0.11614512 0.26658684
-0.20617175 0.30752245 0.013279288 -0.25950062 0.20003445 0.6220919 -0.13149862 -0.03677819
-0.16176991 0.1718599 -0.23029684 -0.012912955 0.4574796 -0.5185898 -0.20556317 0.14227273
-0.2248841 0.1464125 0.14923282 -0.06645294 0.08908046 -0.055879917 0.21862006 -0.17180243
0.12166183 -0.2565267 0.20688397 -0.09440377 0.29638338 0.11240933 -0.077864125 0.18028322
0.27096257 0.10260306 -0.30457443 0.020180814 0.37662804 0.024348937 0.24141178 0.09566208
0.045220595 -0.15953083 0.008264355 -0.19302662 0.17063314 0.13121708 0.32789803 0.29374257
-0.13347784 0.18270774 -0.13008018 0.012974917 -0.18340248 -0.10571289 -0.10327765 -0.11066119
0.16813116 -0.306202 0.3737606 0.04754295 -0.086220115 0.2910944 0.109761685 -0.14815694
0.16574115 -0.2188506 0.22228742 -0.07239841 0.09374276 -0.24876095 0.16162461 -0.16275781
0.23360512 0.16349924 0.083370656 -0.071431294 -0.008465282 -0.104478575 -0.09136239 0.14284247
0.16898645 0.13928452 0.11450741 0.30364648 0.090570495 -0.008523668 -0.2996404 0.07246482
-0.105832115 0.0771604 -0.006720567 0.03359826 0.08219784 -0.2756468 0.037784398 0.012841342
0.02499882 0.39888114 0.029214337 0.1868941 -0.009236973 -0.36338457 -0.05546711 -0.15756926
0.47982842 -0.19360812 0.38152468 0.22933213 -0.12476933 0.13147457 0.19612177 0.14903319
-0.17318721 -0.21342064 0.0085247755 0.18369985 0.2941751 0.09386697 -0.18857346 0.044157688
0.18541302 -0.063147284 -0.10494664 0.3217824 0.041191604 -0.094424546 0.001784483 -0.027684655
0.12973775 -0.010313272 -0.11384739 -0.1877673 -0.11905549 -0.10773678 -0.077954456 -0.27111924
0.04471488 -0.25594252 0.17809062 0.062345434 -0.096969366 0.015453208 0.17827392 -0.117064394
-0.022219405 0.04208453 0.17858514 0.07983777 0.25484127 -0.1647526 0.06947329 -0.4140505
-0.22029485 0.15716203 0.12584317 0.24490884 -0.039539617 0.002516372 -0.18583873 0.0685811
0.044628695 0.08732444 -0.09127332 -0.14612918 0.12921046 -0.021635024 0.2801158 0.14756186
0.20633529 -0.042318355 0.10002067 0.12154141 0.114354625 -0.1681655 -0.12956822 0.25893003
0.20882326 0.22494464 -0.03773903 0.12858585 0.067363806 -0.31257898 -0.25554594 -0.048889797
0.22108333 0.020775013 -0.0137013765 -0.016437965 -0.1481194 0.27403373 0.11346087 -0.26911414
0.38075832 0.15582053 -0.34850928 0.0046183066 -0.3086253 0.13715917 -0.10336817 -0.28892285
0.22803555 -0.27056918 0.06835002 -0.24843948 -0.11817268 0.1040203 -0.00021051324 -0.2464894
-0.37214854 0.2561288 -0.0482112 -0.06550952 0.047895346 -0.03204523 0.16432604 -0.07268654
00000000: aec1 43be 5691 d13e 8927 0cbd e79e 51bc
00000010: a109 e9bd c4bc 0e3c 6607 263e 260c f1be
00000020: 02ba 1dbc 8369 9ebc f109 043e 65db f53e
00000030: c435 a83e c282 983d 1d6a 47bb f787 8c3e
00000040: 14a0 65be f96b 1fba 168b a3bd 1ee4 093e
00000050: f375 323e 3d2a 8bbe 942b 9b3e 5a9a 213e
00000060: 7421 97bd d769 e23d 68b0 1dbf 99e6 b1be
00000070: 511f 6cbe 9d98 89bd 3c68 66bc c997 b1bc
00000080: 9677 a93e 0c39 223d 3785 6c3e b2f2 613d
00000090: fad8 25bd c13d 7d3e 7edd ed3d 127e 883e
000000a0: b01e 53be 9573 9d3e 5f91 593c 44dd 84be
000000b0: d5d5 4c3e 6a41 1f3f 93a7 06be baa4 16bd
000000c0: 03a7 25be 0bfc 2f3e efd2 6bbe dc90 53bc
000000d0: c43a ea3e 4dc2 04bf 277f 52be f1af 113e
000000e0: 0448 66be 29ed 153e 7dd0 183e 7b18 88bd
000000f0: d16f b63d 57e2 64bd f0dd 5f3e faec 2fbe
00000100: d629 f93d 7857 83be 64d9 533e c456 c1bd
00000110: 90bf 973e dd36 e63d 3a77 9fbd 2a9c 383e
00000120: 9bbb 8a3e 8e21 d23d 2ef1 9bbe 3c52 a53c
00000130: 64d5 c03e 6c77 c73c a634 773e 7bea c33d
00000140: 3b39 393d 0d5c 23be 3867 073c c5a8 45be
00000150: 74ba 2e3e c55d 063e 40e2 a73e 6d65 963e
00000160: 6aae 08be bd17 3b3e bd33 05be bf94 543c
00000170: dccd 3bbe 0080 d8bd 3c83 d3bd 55a2 e2bd
00000180: 932a 2c3e 82c6 9cbe 8d5d bf3e 65bc 423d
00000190: 2c94 b0bd 530a 953e bcca e03d 74b6 17be
000001a0: 0cb8 293e 5f1a 60be 509f 633e 9e45 94bd
000001b0: 34fc bf3d 31bb 7ebe ec80 253e fca9 26be
000001c0: 2e36 6f3e 586c 273e 3cbe aa3d 924a 92bd
000001d0: f7b1 0abc ddf8 d5bd 341c bbbd 4c45 123e
000001e0: c90a 2d3e 9aa0 0e3e dc82 ea3d 8d77 9b3e
000001f0: 067d b93d dba6 0bbc 776a 99be 7068 943d
00000200: 82be d8bd 4606 9e3d 3438 dcbb 549e 093d
00000210: 5757 a83d 9421 8dbe d0c3 1a3d 7e64 523c
00000220: 53ca cc3c 263a cc3e e852 ef3c 2b61 3f3e
00000230: ac56 17bc 8b0d babe 7b31 63bd d659 21be
00000240: 12ac f53e 3541 46be 3457 c33e 0bd6 6a3e
00000250: 1087 ffbd 45a1 063e 25d4 483e 289c 183e
00000260: fd57 31be f18a 5abe 80ab 0b3c d01b 3c3e
00000270: 1e9e 963e 533d c03d 6719 41be b1de 343d
00000280: e9dc 3d3e 5d53 81bd 44ee d6bd aac0 a43e
00000290: 87b8 283d a861 c1bd 50e5 e93a eeca e2bc
000002a0: f9d9 043e fff8 28bc d228 e9bd 1246 40be
000002b0: 5dd3 f3bd 1aa5 dcbd 96a6 9fbd 24d0 8abe
000002c0: f326 373d e60a 83be 635d 363e ed5d 7f3d
000002d0: e097 c6bd 742f 7d3c 708d 363e 75bf efbd
000002e0: 7805 b6bc d460 2c3d 06df 363e fc81 a33d
000002f0: 8e7a 823e e8b4 28be 0348 8e3d 6dfe d3be
00000300: f994 61be 15ef 203e 08dd 003e 62c9 7a3e
00000310: 4bf4 21bd b7e9 243b 824c 3ebe 3f74 8c3d
00000320: 94cc 363d 28d7 b23d 82ed babd e3a2 15be
00000330: bf4f 043e ef3b b1bc 576b 8f3e 751a 173e
00000340: 8f49 533e 0356 2dbd a3d7 cc3d b4ea f83d
00000350: c232 ea3d 9433 2cbe 88ad 04be 7a92 843e
00000360: c4d5 553e e357 663e 3e94 1abd 02ac 033e
00000370: 09f6 893d 5a0a a0be ebd6 82be ab40 48bd
00000380: ab63 623e 5c30 aa3c bd7b 60bc e9a8 86bc
00000390: 9dac 17be 264e 8c3e 2c5e e83d 54c9 89be
000003a0: c1f2 c23e 6b8f 1f3e cf6f b2be 2a55 973b
000003b0: 2304 9ebe 7473 0c3e b1b2 d3bd b2ed 93be
000003c0: 2782 693e 0b88 8abe 18fb 8b3d eb66 7ebe
000003d0: 8504 f2bd 9808 d53d 38bd 5cb9 b867 7cbe
000003e0: 418a bebe 5023 833e 1b79 45bd db29 86bd
000003f0: e92d 443d dc41 03bd 1645 283e aedc 94bd

critic.network_body.linear_encoder.seq_layers.0.bias f4 [128]
0.01234154 0.016351208 -0.0023080795 -0.0036221007 -0.001019545 0.0008023434 0.004402452 0.009351396
0.008289616 -0.0001808682 0.013882737 -0.0003571975 -0.004195728 0.014366858 -0.0055821105 -0.0011035907
-0.0073324493 -0.0016722527 -0.013555803 0.022221608 -0.0042049317 -0.016706163 0.014492863 -0.009201587
-0.004847591 -0.005448293 -0.012108518 0.0012335134 -6.945589e-05 -0.008650487 -0.0071652397 -0.0043418338
-0.011494654 0.024265366 0.0037137987 0.016895374 -4.4773937e-05 -0.008197149 -0.0011970414 0.049110148
-0.0058103562 -0.0003042293 -0.0007455474 -0.009842414 0.019559478 -0.0036017334 0.008329626 0.01637269
-0.005411204 0.0027452863 -0.008814049 0.00485381 -0.0008362979 0.0004924824 0.0011254721 0.0048168446
0.00094638026 -0.007868518 0.008219164 0.01962006 0.0055205035 -0.00592877 -0.02064931 0.009530024
0.010815422 0.008146803 0.008437597 0.050055593 0.007867713 -0.00028802242 -0.014324812 -0.0012216031
0.01563618 -0.021487124 0.00954777 -0.0049559986 0.0018027026 -0.0074317507 -0.004184892 -0.00087600335
0.0041901376 0.0052226093 -0.0034516605 -0.007405153 0.0010819585 -0.0014653452 0.00046911667 -0.0027833919
0.051989805 -0.011632405 -0.0048035723 -0.012212797 -0.015370597 0.02748769 -0.024436552 0.00425065
-0.008860605 0.0035149434 -0.007533097 0.00015967683 0.011313399 -0.010175448 -0.0042095864 -0.0024058195
-0.017914966 0.0034267863 0.0025864881 0.024339749 -0.0035422384 0.012277948 -0.0020358888 -0.0016049083
0.0017055066 0.018725073 0.0012040479 0.0062568476 -0.024496084 -0.014789825 0.04912 -0.0150729595
-0.021228107 0.001319933 0.016278252 0.00071551127 -0.026062725 0.014269103 0.0019001884 0.03931704
00000000: 2c34 4a3c f8f2 853c 2643 17bb c460 6dbb
00000010: 41a2 85ba 5b54 523a 7242 903b 9936 193c
00000020: 2bd1 073c 70a7 3db9 6b74 633c 3d46 bbb9
00000030: 517c 89bb f862 6b3c 23ea b6bb 5ca6 90ba
00000040: 0b45 f0bb 7d2f dbba 2919 5ebc 170a b63c
00000050: 86c9 89bb 5ddb 88bc 7973 6d3c 41c2 16bc
00000060: 8ad8 9ebb 9887 b2bb ce62 46bc d7ad a13a
00000070: d9a8 91b8 c6ba 0dbc 63ca eabb f145 8ebb
00000080: 1354 3cbc 29c8 c63c 3463 733b 2b68 8a3c
00000090: a6cb 3bb8 564d 06bc 0be6 9cba b927 493d
000000a0: cd64 bebb f780 9fb9 d770 43ba 1442 21bc
000000b0: 333b a03c 0f0b 6cbb fc78 083c 0520 863c
000000c0: 7850 b1bb 43ea 333b cd68 10bc b60c 9f3b
000000d0: 013b 5bba ef19 013a 9484 933a 9fd6 9d3b
000000e0: 8116 783a f5ea 00bc aca9 063c 40ba a03c
000000f0: 57e5 b43b 2146 c2bb be28 a9bc d123 1c3c
00000100: 2b33 313c 2b7a 053c d93d 0a3c 1807 4d3d
00000110: 95e7 003c b701 97b9 9eb2 6abc 331e a0ba
00000120: 7217 803c c405 b0bc 406e 1c3c ee65 a2bb
00000130: a948 ec3a 0b86 f3bb 6b21 89bb 97a3 65ba
00000140: 6c4d 893b 6c22 ab3b 4135 62bb eda6 f2bb
00000150: 81d0 8d3a d310 c0ba c6f3 f539 9169 36bb
00000160: 43f3 543d d895 3ebc 4967 9dbb 2f18 48bc
00000170: f5d4 7bbc dd2d e13c 2a2f c8bc 0949 8b3b
00000180: 122c 11bc f75a 663b 33d8 f6bb ec6e 2739
00000190: d65b 393c ecb6 26bc 92f0 89bb f4aa 1dbb
000001a0: 68c2 92bc ef93 603b 1282 293b 2764 c73c
000001b0: e624 68bb 7229 493c 8c6c 05bb c95b d2ba
000001c0: 4e8b df3a 5365 993c 25d1 9d3a 3e06 cd3b
000001d0: 03ac c8bc 0651 72bc 0e32 493d 93f4 76bc
000001e0: 91e6 adbc 9a01 ad3a f859 853c 2691 3b3a
000001f0: 7f81 d5bc f5c8 693c be0f f93a e80a 213d

critic.network_body.linear_encoder.seq_layers.2.weight f4 [128, 128]
0.047127005 -0.041002292 0.011665591 -0.11925656 -0.09000078 -0.17930514 -0.11850826 -0.020525018
0.008826038 0.03366477 0.041522477 0.06746352 0.02797608 -0.036063306 0.050165262 0.007126016
-0.083735645 -0.11180727 0.053270757 0.093790464 0.21894525 0.032754354 -0.0046026893 0.04034338
-0.0016009235 0.010984463 0.105123505 0.010513966 0.00084232196 0.075542435 -0.06740298 0.17772794
0.023970695 -0.11015948 0.02809741 0.035852052 0.14669786 0.052466888 0.044360768 0.010246896
0.061813597 0.046457723 0.06566187 0.04211786 0.059419204 -0.019293375 0.016464474 -0.030259922
-0.0017832052 -0.07160415 0.027118918 -0.13412325 0.15475915 -0.22169778 0.052095544 0.018767556
0.05219221 -0.13662195 -0.23606932 -0.024621252 -0.095824346 0.18229872 0.021789372 -0.02827313
-0.019010885 0.026900675 -0.072203 -0.07798519 0.026863994 -0.08576857 -0.1787035 0.2052871
0.06892564 -0.045980766 -0.022147138 0.050771628 -0.1118098 -0.1470225 0.13608728 0.06585419
-0.07907132 -0.1420491 -0.026725644 0.08066819 -0.081121564 -0.18217786 0.0075172056 -0.010956073
-0.10127469 0.12903653 0.07995755 -0.14089918 0.018986784 -0.12311271 -0.07199822 0.08064723
0.12869556 0.106288604 0.0029332186 0.0094968695 -0.022379043 0.047456875 0.19642277 0.12563227
0.24892133 -0.048089564 -0.08787335 0.05266282 0.04407788 -0.0027024327 0.086587325 -0.053493567
0.103729226 0.07733161 -0.074880935 -0.020082004 0.07382817 0.10757463 0.0067832065 0.013179817
-0.0047721975 0.056906242 0.018331867 0.027775252 -0.002182642 -0.06603151 -0.052699674 0.11109309
-0.17808132 0.04282854 -0.038185 0.07058718 0.03576652 0.012621806 -0.003691731 0.010362806
-0.036291253 0.03805097 0.2142391 0.047604848 0.041268885 -0.07962326 -0.12030763 0.104590155
-0.0129546495 -0.06279634 0.025448592 -0.16837591 -0.03220241 0.15109313 -0.038629603 0.051427115
0.0004324932 -0.04820318 -0.079449125 0.20990007 0.06457633 0.10097908 -0.03366319 -0.06430122
-0.009633646 0.11290896 -0.059408374 0.019869514 0.061072562 0.00089813414 -0.019839674 0.10056069
0.042908914 0.051423304 -0.13710877 0.090754665 -0.14993937 -0.0035285784 -0.01897664 0.0707533
-0.05613274 -0.15492372 0.1096619 0.051088646 0.018461065 0.0072440603 -0.07595654 0.00069230725
-0.074656226 0.08580757 0.0906177 0.024180414 -0.12724027 0.119273536 -0.060814053 -0.016562449
-0.0058116447 -0.03119138 0.15235421 -0.024365125 0.11171756 0.07405751 -0.0077311504 -0.02222737
0.034010872 0.12479506 0.06559567 -0.033098098 0.10822126 0.13451022 -0.013477155 -0.02472901
-0.03396346 -0.045005422 -0.17851299 0.13162138 -0.04251194 -0.057324473 0.14153606 0.004403127
-0.09051337 -0.013654378 0.042529237 -0.07805625 -0.073655546 0.11271685 0.14508682 -0.17395298
0.049806397 -0.01003751 0.1097673 0.2367699 -0.1619035 -0.17621364 0.07018289 -0.01701821
-0.024842773 0.05751399 0.03924453 -0.088895716 -0.04325256 -0.14590909 -0.0019864058 -0.18955527
-0.01977274 -0.04163154 0.0006492697 0.08967457 -0.065888606 0.031400688 -0.0008586787 0.10851763
-0.042890348 0.0683693 0.20331948 0.08926463 0.08044612 0.04374145 0.216977 0.014198332
00000000: 3f08 413d 05f2 27bd 0921 3f3c c93c f4bd
00000010: 5452 b8bd c49b 37be 75b4 f2bd 1524 a8bc
00000020: 169b 103c 12e4 093d 7913 2a3d 502a 8a3d
00000030: 182e e53c 1eb7 13bd 177a 4d3d 5b81 e93b
00000040: 987d abbd 36fb e4bd 7032 5a3d 3715 c03d
00000050: 2f33 603e 6e29 063d 28d2 96bb 1a3f 253d
00000060: 14d6 d1ba 2df8 333c fe4a d73d c542 2c3c
00000070: 45cf 5c3a feb5 9a3d 930a 8abd 50fe 353e
00000080: 315e c43c 4b9b e1bd 8a2c e63c 9ad9 123d
00000090: f737 163e 85e7 563d a3b3 353d 99e2 273c
000000a0: 4130 7d3d 744a 3e3d bb79 863d c783 2c3d
000000b0: 8d61 733d 240d 9ebc 81e0 863c a8e3 f7bc
000000c0: 70ba e9ba 32a5 92bd 7e28 de3c 9b57 09be
000000d0: 2f79 1e3e be04 63be 2362 553d 6bbe 993c
000000e0: 80c7 553d a0e6 0bbe 28bc 71be 82b2 c9bc
000000f0: 8e3f c4bd 84ac 3a3e a07f b23c 0d9d e7bc
00000100: b7bc 9bbc ce5e dc3c 2bdf 93bd b3b6 9fbd
00000110: e111 dc3c 6fa7 afbd 0dfe 36be c836 523e
00000120: e328 8d3d 5456 3cbd ea6d b5bc e9f5 4f3d
00000130: 89fc e4bd 118d 16be 775a 0b3e 90de 863d
00000140: 25f0 a1bd 5275 11be bdef dabc 5d35 a53d
00000150: 1023 a6bd d58c 3abe e452 f63b 1a81 33bc
00000160: 1b69 cfbd 2722 043e c9c0 a33d e047 10be
00000170: 2c8a 9b3c 8422 fcbd ce73 93bd 602a a53d
00000180: c5c8 033e d7ad d93d 3e3b 403b c298 1b3c
00000190: 4154 b7bc 2462 423d 0d23 493e bfa5 003e
000001a0: 3ce5 7e3e 90f9 44bd f1f6 b3bd f8b4 573d
000001b0: 028b 343d 4c1b 31bb b254 b13d 121c 5bbd
000001c0: fd6f d43d 0960 9e3d 2d5b 99bd 0483 a4bc
000001d0: 3933 973d 1650 dc3d a945 de3b 29f0 573c
000001e0: 1860 9cbb 8516 693d b62c 963c ed88 e33c
000001f0: a80a 0fbb 873b 87bd 9ddb 57bd c684 e33d
00000200: f35a 36be fb6c 2f3d e067 1cbd 0390 903d
00000210: ea7f 123d b1cb 4e3c f8f0 71bb c2c8 293c
00000220: 23a6 14bd 55db 1b3d 7f61 5b3e 4dfd 423d
00000230: 9009 293d 8511 a3bd d963 f6bd 5d33 d63d
00000240: bd3f 54bc 5e9b 80bd 9179 d03c bc6a 2cbe
00000250: ade6 03bd 28b8 1a3e 133a 1ebd 3da5 523d
00000260: 41c0 e239 b370 45bd 39b6 a2bd 0bf0 563e
00000270: 9840 843d 1fce ce3d 6ae2 09bd 5cb0 83bd
00000280: 71d6 1dbc d03c e73d 3256 73bd 64c5 a23c
00000290: 3927 7a3d c370 6b3a d086 a2bc c3f2 cd3d
000002a0: 42c1 2f3d 3ea1 523d 3e66 0cbe 95dd b93d
000002b0: b589 19be b93f 67bb e674 9bbc 1be7 903d
000002c0: 72eb 65bd 53a4 1ebe 6b96 e03d 5442 513d
000002d0: a93b 973c 955f ed3b 1a8f 9bbd f47b 353a
000002e0: 5de5 98bd e1bb af3d c695 b93d 0116 c63c
000002f0: 464b 02be af45 f43d 2818 79bd f9ad 87bc
00000300: 9c6f bebb 1185 ffbc be02 1c3e 5f99 c7bc
00000310: 2dcc e43d 77ab 973d 9755 fdbb 2c16 b6bc
00000320: fc4e 0b3d 8d94 ff3d 0657 863d df91 07bd
00000330: 1ca3 dd3d 0cbd 093e 49cf 5cbc 7e94 cabc
00000340: 451d 0bbd 9b57 38bd 1ccc 36be c1c7 063e
00000350: 0021 2ebd 11cd 6abd d4ee 103e 1b48 903b
00000360: 135f b9bd 9db6 5fbc 2333 2e3d f5db 9fbd
00000370: b8d8 96bd 18d8 e63d a491 143e bb20 32be
00000380: cb01 4c3d 5e74 24bc aecd e03d cf73 723e
00000390: 08ca 25be 5971 34be 0cbc 8f3d c669 8bbc
000003a0: 1283 cbbc ca93 6b3d dfbe 203d f50e b6bd
000003b0: 9929 31bd 3169 15be 5c2e 02bb c71a 42be
000003c0: 71fa a1bc d585 2abd c133 2a3a 4da7 b73d
000003d0: 9bf0 86bd 029e 003d f418 61ba 7e3e de3d
000003e0: caad 2fbd 3405 8c3d fb32 503e 60d0 b63d
000003f0: efc0 a43d 3c2a 333d 382f 5e3e 1fa0 683c

critic.network_body.linear_encoder.seq_layers.2.bias f4 [128]
7.346563e-05 -0.0015163366 -0.002513481 -0.0014994387 -0.00056046183 -0.005429291 0.009062942 -0.009681977
0.0025293303 -0.0021805349 0.00041958567 -0.00025336878 -0.0015276686 0.00549751 -0.0060613104 -0.00051684026
-0.00011714264 -0.0031644325 -0.00428917 0.0044555436 -0.0042649987 -0.00033651706 -0.00065697 0.0010436879
-0.002377986 0.0033436774 0.0024145397 0.002970065 -0.0019318832 -0.0006619682 0.0014982087 -0.00036477266
0.000830245 -0.005885992 0.00036389037 -0.003166479 -0.0012280571 -0.0030300943 0.00046506835 0.00428707
-0.00135769 -0.002907928 -0.00041019463 0.0015467579 0.0038712386 -0.0056967507 -0.0007768104 -0.0072585857
-0.002476389 0.0019605663 0.0005655578 4.7496604e-05 0.0017737891 -0.0056865015 0.00013335519 -0.0013097744
0.00034706327 -0.0053278604 -0.0014498504 -0.008842136 -0.004317617 -0.008032164 -0.0014396808 -0.002546757
-0.0005967798 -0.002517609 -0.0053676106 -0.0045686117 0.0002467344 -0.0025624195 -0.0007922725 -0.0017293873
0.0016028573 -0.00044967837 0.03022372 -0.002161263 -0.00037757284 0.0052141673 -0.00040581025 0.0020697427
0.0016867731 -0.00029005864 -0.0011122437 -0.0024989527 -1.153153e-05 -8.419182e-05 -0.00017554975 -0.004143937
0.017845437 0.00013033864 6.51295e-05 0.0023722781 0.0041094823 0.0010018796 -0.005532312 0.0030065507
-0.0018975666 -0.004263735 -0.002881852 -0.005760789 -0.0006524975 -0.00087346946 0.004875311 0.0030903297
-0.0019706746 0.02185385 -0.00023241153 -3.8209597e-05 -3.4084067e-05 -0.0013582656 -0.00081223407 -0.0039676055
-0.0023756232 -0.006191964 0.0008495088 -0.0015179649 -0.0014113407 -0.0016518354 -0.008368718 0.0014261933
0.0008124637 -0.0035725858 0.00049277465 0.0034819467 -0.0022839876 -0.00561012 -0.0021558898 -0.0024993548
00000000: 8f11 9a38 d0bf c6ba 37b9 24bb d088 c4ba
00000010: f5eb 12ba 32e8 b1bb bc7c 143c 28a1 1ebc
00000020: 1fc3 253b 4ee7 0ebb d6fb db39 95d6 84b9
00000030: 0d3c c8ba 7524 b43b f59d c6bb 907c 07ba
00000040: 7aaa f5b8 5e62 4fbb 2a8c 8cbb cfff 913b
00000050: 67c1 8bbb 8e6e b0b9 8338 2cba 5bcc 883a
00000060: fcd7 1bbb 9921 5b3b 413d 1e3b 6ca5 423b
00000070: 3e37 fdba ef87 2dba 8b5f c43a f53e bfb9
00000080: cca4 593a 48df c0bb 8ac8 be39 b484 4fbb
00000090: c2f6 a0ba 8c94 46bb 6bd4 f339 8d7a 8c3b
000000a0: 84f4 b1ba f092 3ebb 640f d7b9 95bc ca3a
000000b0: 9bb4 7d3b cfab babb dda2 4bba 6ed9 edbb
000000c0: ea4a 22bb d87c 003b f141 143a 1737 4738
000000d0: 7c7e e83a d555 babb 43d5 0b39 bcac abba
000000e0: 0bf6 b539 5595 aebb e808 beba 9bde 10bc
000000f0: cc7a 8dbb 5699 03bc acb3 bcba 7ee7 26bb
00000100: 3771 1cba 78fe 24bb c8e2 afbb 4bb4 95bb
00000110: 215c 8139 44ee 27bb 82b0 4fba 9cac e2ba
00000120: f716 d23a cfc2 ebb9 bc97 f73c faa3 0dbb
00000130: f8f4 c5b9 9bdb aa3b eec2 d4b9 85a4 073b
00000140: b716 dd3a 0313 98b9 b5c8 91ba 78c5 23bb
00000150: 8b77 41b7 2490 b0b8 c713 38b9 ddc9 87bb
00000160: 9830 923c 83ab 0839 2296 8838 3978 1b3b
00000170: d6a8 863b 8051 833a 6648 b5bb 8d09 453b
00000180: c5b7 f8ba cdb6 8bbb 74dd 3cbb 00c5 bcbb
00000190: 5e0c 2bba 8bf9 64ba 13c1 9f3b 2187 4a3b
000001a0: 6f26 01bb d806 b33c 7fb3 73b9 3e43 20b8
000001b0: 7df5 0eb8 d507 b2ba 1bec 54ba b002 82bb
000001c0: 58b0 1bbb f5e5 cabb 92b1 5e3a 73f6 c6ba
000001d0: bcfc b8ba 6682 d8ba f31c 09bc 1bef ba3a
000001e0: 84fb 543a 0b22 6abb 8c2d 013a 5f31 643b
000001f0: f4ae 15bb 19d5 b7bb d449 0dbb 37cc 23bb

critic.value_heads.value_heads.extrinsic.weight f4 [1, 128]
-0.14514337 -0.098573275 0.1366323 0.12289655 -0.1091761 -0.11640737 0.096460864 -0.096074164
0.17378475 -0.10732243 0.18039095 0.06298374 -0.07022276 0.15107031 -0.105008885 0.11827739
0.113510355 -0.04684307 -0.04976886 0.03825988 -0.005877634 -0.21549441 -0.05094089 0.09547165
-0.057059705 0.04500129 0.084554575 0.1934214 -0.13050406 0.13839862 0.036166534 0.039184242
0.1931216 -0.08847091 0.12404093 -0.19122624 0.12301351 -0.20715082 0.041667417 0.1678791
0.16862553 0.17709811 0.088897415 -0.13416147 0.13791338 0.1768574 0.05870637 -0.17844445
-0.14712392 0.20289563 0.20474875 0.12958454 0.22061719 -0.13181789 0.19330549 0.17739953
-0.1926723 -0.070650764 0.02003828 -0.19222845 -0.20440765 -0.12719971 -0.097805716 -0.14175534
-0.05698229 -0.05355265 -0.0018582842 -0.16905935 0.17378108 -0.20891935 -0.06463309 0.07259822
0.19334294 -0.23358187 0.052002355 -0.030695245 0.05665903 0.11136488 0.19003241 0.15970525
-0.065507546 0.015913647 -0.16594449 -0.068795696 0.21246493 -0.07581162 0.19662428 -0.00070763385
0.13313794 0.17274071 0.055146784 0.150868 0.008307839 0.17420696 -0.18135092 0.13242806
-0.18313667 0.057591263 -0.15663423 -0.15744245 0.14523366 -0.16922589 0.067738704 0.18383497
0.066997595 0.04768532 0.12475027 0.13321607 0.17797829 -0.18261333 0.06313754 -0.10396808
-0.031178618 -0.15744968 0.12550035 0.0046700416 -0.2102058 -0.19681606 -0.010815363 0.097828366
-0.1403716 -0.106055014 0.16613406 0.22423345 0.06256159 0.09425102 -0.109848864 0.17356819
00000000: 77a0 14be c9e0 c9bd 56e9 0b3e 30b1 fb3d
00000010: b897 dfbd fd66 eebd 468d c53d 88c2 c4bd
00000020: a1f4 313e ddcb dbbd 68b8 383e 9efd 803d
00000030: f3d0 8fbd 2db2 1a3e e60e d7bd 6b3b f23d
00000040: 1e78 e83d 85de 3fbd 6fda 4bbd 64b6 1c3d
00000050: 2b99 c0bb 91aa 5cbe 65a7 50bd a486 c33d
00000060: 70b7 69bd 4653 383d f32a ad3d 4210 463e
00000070: dba2 05be 5eb8 0d3e 5c23 143d a87f 203d
00000080: abc1 453e 3d30 b5bd 2c09 fe3d d0d0 43be
00000090: 82ee fb3d 581f 54be 74ab 2a3d 80e8 2b3e
000000a0: 2cac 2c3e 3559 353e d90f b63d a061 09be
000000b0: 2a39 0d3e 1b1a 353e 1776 703d 24ba 36be
000000c0: a7a7 16be dfc3 4f3e a8a9 513e cfb1 043e
000000d0: 79e9 613e 45fb 06be e0f1 453e 39a8 353e
000000e0: e34b 45be 59b1 90bd 5227 a43c 89d7 44be
000000f0: 3d50 51be a440 02be 5d4e c8bd 5028 11be
00000100: 4366 69bd 065a 5bbd ac91 f3ba e51d 2dbe
00000110: abf3 313e f4ee 55be 5a5e 84bd 60ae 943d
00000120: b1fb 453e 1630 6fbe 6c00 553d 9874 fbbc
00000130: 4d13 683d 4513 e43d db97 423e c689 233e
00000140: d228 86bd 565d 823c 5aed 29be c2e4 8cbd
00000150: 6890 593e 1f43 9bbd e057 493e 8180 39ba
00000160: 5055 083e f1e2 303e 98e1 613d 247d 1a3e
00000170: 9a1d 083c 4f63 323e 0eb4 39be 399b 073e
00000180: 2e88 3bbe d1e4 6b3d b964 20be 9838 21be
00000190: 22b8 143e 8d49 2dbe 97ba 8a3d 3c3f 3c3e
000001a0: 0936 893d af51 433d 127d ff3d cb69 083e
000001b0: f13f 363e fdfe 3abe 414e 813d 37ed d4bd
000001c0: 4d6a ffbc 7d3a 21be 2a83 003e 2607 993b
000001d0: 3040 57be 268a 49be ec32 31bc 3d5a c83d
000001e0: 93bd 0fbe 5f33 d9bd 0c1f 2a3e 749d 653e
000001f0: 4a20 803d ae06 c13d 71f8 e0bd dcbb 313e
