results/2022_0313_1526/Fight/Fight-1925718.onnx (onnx, 85170 bytes, 6 tensors)

action_model._discrete_distribution.branches.0.bias f4 [4]
000000 f6 74 85 bc 7c 7b c6 3c 03 b7 b7 bb 13 ea 88 ba
       -0.016291123 0.024228804 -0.0056065335 -0.0010445736

action_model._discrete_distribution.branches.0.weight f4 [4, 128]
000000 1a 76 86 3c a8 bc 23 bc 7f 7d 45 3c 7c 98 3d 3a
       0.016413737 -0.00999371 0.012053846 0.00072325
000010 bb 9a c9 bc 48 5c 5c bc 66 81 73 3b 37 b5 66 bc
       -0.024609914 -0.013449736 0.0037155985 -0.014081291
000020 ac c6 21 3c 12 17 3d 3c 7c a5 a4 3c ff 6e 10 3c
       0.009874027 0.011541145 0.02009844 0.008815526
000030 06 03 8c bc a8 c4 3b 3b 97 a4 f2 3b d7 f3 e2 3c
       -0.017091285 0.0028651152 0.0074048745 0.027704163
000040 00 7e b4 bb da f8 02 3c c0 03 6e bc 87 ca 78 3c
       -0.0055081844 0.007993901 -0.014527261 0.015185005
000050 b4 23 d7 3b 2f 07 8b bb 11 27 3a bc 4a ac f4 bc
       0.0065655354 -0.0042427997 -0.011361853 -0.02986731
000060 51 50 4d 3c 13 80 5c bb 29 f7 6c 3c d7 5b 35 3c
       0.012531356 -0.0033645674 0.014463224 0.01106926
000070 7c 58 b7 3b 8d 7b a8 bc 79 46 8f bb d1 37 00 bd
       0.005595265 -0.020566726 -0.0043724147 -0.03130323
000080 8a 93 45 bc 4b 36 62 3c 53 c7 7d bc 30 96 a6 bb
       -0.012059102 0.01380689 -0.015489417 -0.0050838217
000090 e2 b3 23 bb 36 a6 66 3b 6b 0d 39 3b 8d 26 7a 3b
       -0.0024979045 0.0035194284 0.0028236757 0.003816995
0000a0 aa d1 d1 3a 1c 64 54 bc 7b ca a6 3b 2a a5 81 3a
       0.0016007919 -0.012963321 0.0050900555 0.0009891142
0000b0 3c fa 63 3c 42 8d b2 bc ea cc 4e 3c b5 e0 01 bc
       0.013914641 -0.021795873 0.0126220975 -0.0079271095
0000c0 7a 52 85 bb b8 cd 97 bb 22 94 2b 3c 9f b9 fb bb
       -0.00406867 -0.004632678 0.010472329 -0.00768204
0000d0 bc a5 e2 39 df dd e5 bb 4f 53 86 3c a4 3e 54 bc
       0.0004322956 -0.0070149745 0.016397147 -0.012954388
0000e0 c7 66 7b bc 69 87 b5 bc 77 f0 fe 3c c0 f4 86 bc
       -0.015344328 -0.022159295 0.031120522 -0.016474128
0000f0 0d 9f 8b bb ac a9 a1 3c ce c9 a7 3c 81 4f 9f 3b
       -0.0042609037 0.019734226 0.02048197 0.0048617725
000100 11 d7 6f 3b e4 3f b5 bc 42 95 d8 bc ec fd c4 3c
       0.0036596695 -0.022125192 -0.02643836 0.02404686
000110 c1 ba ae 3b 13 5d cb ba 3f 89 ac 3c 7d 3e 57 bb
       0.0053323214 -0.0015515409 0.021061538 -0.0032843642
000120 bb 77 9c bb 74 f0 19 bc 27 ee a5 bc 42 2f cf 3b
       -0.004775015 -0.009395707 -0.020255161 0.0063227722
000130 0d 91 0a 3d 46 2d 23 bc 64 63 30 bc 73 58 b1 bb
       0.033829737 -0.0099595245 -0.010765884 -0.0054121553
000140 3f 5f 12 bc a4 79 bb 3b da bc db 3b 20 70 ff bb
       -0.008933841 0.005721288 0.0067058625 -0.0077953488
000150 8f 8f a3 3b 36 31 87 bc cd f2 4d 3c aa 0d a2 bc
       0.0049914788 -0.016502958 0.012570095 -0.019781906
000160 ad 2f 83 bc 38 4e d7 bc 99 c2 9c bc d6 54 22 3c
       -0.016013945 -0.026282415 -0.01913576 0.009907922
000170 c5 9f ed bb d8 9d 48 bb 46 0b 0d 3c 77 b6 cb 3b
       -0.007251712 -0.003061166 0.008608645 0.00621682
000180 22 c0 6e 3a 47 8f 6a bb 4a 9e fc 3a ec ad 5e bc
       0.00091076095 -0.0035790966 0.0019273248 -0.013591271
000190 cb 71 03 bc 74 e1 b0 bb 27 f2 94 bb 73 7d d7 bb
       -0.008022736 -0.00539797 -0.0045454684 -0.006576234
0001a0 84 c0 e1 bb 99 d1 cc bc da db 40 3c f1 19 43 3c
       -0.0068894047 -0.025002288 0.011771167 0.01190804
0001b0 fe 84 55 3c b5 f1 93 bb 33 70 8f 3c 78 d2 bd bb
       0.013032196 -0.0045148977 0.017509555 -0.005792912
0001c0 06 1a 45 b9 0b b5 df bc 8f 51 ad bc 2d 57 40 bc
       -0.00018797079 -0.027308008 -0.021157054 -0.011739534
0001d0 4a 46 22 bc 8b 79 5f bc 26 62 28 bc 8b 36 64 bc
       -0.0099044535 -0.013639818 -0.010277307 -0.01392902
0001e0 4d 71 a5 bc 28 ac 98 bb 42 1c 6f bc ff 33 9c 3b
       -0.020195628 -0.0046591945 -0.0145941395 0.0047669406
0001f0 3c 13 05 bd ca e8 c6 bc 96 2d 00 bc 17 05 b4 bb
       -0.032489046 -0.024280924 -0.007823369 -0.005493771
000200 ac 19 44 3b f8 43 d0 bc b0 ff e9 bc c9 6f 4e 3d
       0.0029922528 -0.025423035 -0.028564304 0.050399575
000210 2a 5c 4e 3d a6 c6 44 bd 22 15 01 bc c8 f6 3e 3c
       0.050380863 -0.04804101 -0.007878574 0.011655517
000220 45 ac d2 bc 33 f2 03 bd 1c 3a 1e bd 56 7b d9 bc
       -0.02571691 -0.0322134 -0.038629636 -0.026548069
000230 1a 7e 4a 3d c3 91 5a bd 74 e7 66 3d 6a 9d 70 3d
       0.049436666 -0.053361665 0.056373075 0.05874387
000240 b4 33 58 3d cb 01 20 3d 39 3e 34 3c af 59 ee bc
       0.052783683 0.03906421 0.011001163 -0.029095499
000250 d6 89 55 bd 4d 1f 9e 3b 20 f0 25 3d 70 48 6c 3d
       -0.052133404 0.0048255087 0.040512204 0.05768627
000260 29 ed af bd 9c f5 0c 3d ce 66 82 bd c9 34 91 bc
       -0.085901566 0.03441392 -0.06367265 -0.017725365
000270 48 da 46 3d 11 46 1d 3d c4 50 53 3c 57 8b e1 3c
       0.048548013 0.0383969 0.012897674 0.027532263
000280 fc f2 52 bd 26 97 a0 bc cb e6 eb 3c a0 eb 52 3d
       -0.05150126 -0.019603323 0.028796574 0.05149424
000290 d7 a8 0d 3d 1f 5b 6f bc 56 18 74 bd 26 53 05 3c
       0.034584846 -0.014609127 -0.05959352 0.0081375
0002a0 af 41 42 bd be 29 44 bd d0 b5 f6 3c 98 bf 73 3b
       -0.047425922 -0.04789137 0.030115992 0.0037193056
0002b0 a5 d6 28 bc fd 09 e1 bc ca 83 20 bd 22 c6 7b 3d
       -0.0103050815 -0.027470583 -0.039188184 0.06146825
0002c0 4d 3b c1 bc db 16 14 3d 15 11 c0 bc be e1 40 bd
       -0.023587847 0.03615461 -0.023445645 -0.047090285
0002d0 ad 77 4e bd 7f c1 83 bb e5 05 97 3a 03 fa f8 3c
       -0.0504071 -0.0040208693 0.0011522142 0.030392652
0002e0 93 27 6a 3d 8b b5 16 3d 43 05 1d bd 7d 75 52 3d
       0.057166647 0.036794227 -0.038335096 0.051381577
0002f0 c7 0f 18 bd 45 90 d6 3b 63 bf 63 bd 87 a5 d5 3c
       -0.03712442 0.00654796 -0.055602442 0.026079906
000300 b1 8e 66 3a 3e 95 9c bc 4f 56 1a 3d 61 43 9f bc
       0.00087950664 -0.019114133 0.037679967 -0.019441308
000310 57 55 3a bd 19 f6 28 3d 6d 04 30 3d 5c 29 d4 bc
       -0.045491543 0.041250322 0.04297297 -0.025898628
000320 07 39 7f 3c 02 a2 0a bc bd 17 83 3b d9 9b 8d bc
       0.015577561 -0.008461477 0.0040006326 -0.017286228
000330 30 ef f5 bc 8f a1 3d bc 93 40 00 bd 91 8e 1e bd
       -0.03002128 -0.011574163 -0.031311583 -0.03871018
000340 85 95 62 bd 71 e2 33 bd a9 0e 06 bd 34 e6 4b 3d
       -0.055318374 -0.043917123 -0.032728825 0.049780086
000350 54 ca 1b 3d b4 64 40 3d 80 5b 16 bd bf 89 c7 bc
       0.038034752 0.046971038 -0.036708355 -0.024357675
000360 68 20 7b bc db 75 cc 3c 82 90 55 3d 21 90 30 bc
       -0.0153275505 0.024958542 0.052139767 -0.0107765505
000370 57 65 98 bc 65 ed 12 3c d6 70 95 bc a9 35 48 bd
       -0.01860301 0.008967732 -0.01824228 -0.0488793
000380 4c 94 8b bd de 9f 28 bd 7f 8d d4 bc d4 49 9d bc
       -0.06815395 -0.041168086 -0.025946377 -0.019200243
000390 f0 61 8c bc 81 8c 87 3c 54 da 1f bd f3 1c 1e bc
       -0.017136544 0.01654649 -0.039026573 -0.009650457
0003a0 df 13 15 bd 54 69 2e 3d c8 7b 79 bd 2e e3 93 3b
       -0.036395904 0.042580917 -0.060909063 0.004513166
0003b0 6f f2 1d 3d d4 71 95 3d 9b 5a 2d bd dd e7 13 3d
       0.03856128 0.072971016 -0.042322736 0.036109794
0003c0 b0 ef 2e bd af 42 6f 3c d3 8c 02 bd e8 17 10 3d
       -0.042709053 0.014603301 -0.03187258 0.03517905
0003d0 5e a8 3f bd 49 0a 9a 3d 08 0f 24 3d b9 fa 17 bd
       -0.046791427 0.07521493 0.040053397 -0.037104342
0003e0 91 d6 73 3c d6 7a 29 3d 26 58 7a bd 63 38 c5 3b
       0.0148827 0.04137691 -0.06111922 0.0060186847
0003f0 34 df 01 3d ef c6 b1 3c 89 34 a0 bc 10 79 c7 3c
       0.031707004 0.021701304 -0.0195563 0.02434972

network_body.linear_encoder.seq_layers.0.bias f4 [128]
000000 40 36 cc 3c f1 3d e8 3c 5d 60 3c bb ca 60 40 bc
       0.024928212 0.028349848 -0.002874396 -0.011741826
000010 3f 0f 2f bb 18 1a 91 3c 3d 36 ac 3c a0 8d a4 3c
       -0.0026711968 0.017712638 0.021021957 0.020087063
000020 ef 96 87 bc c8 48 40 3d 0d 92 37 3d fb 72 1c 3d
       -0.016551463 0.04694441 0.04481702 0.03819559
000030 6e b0 5c 3b d3 e9 80 3c 32 c7 67 39 34 ef f6 3c
       0.0033674496 0.015736496 0.00022104083 0.030143358
000040 e2 03 a6 3c 17 07 d0 3b 0e 21 75 bc e4 5c bb bc
       0.020265523 0.0063485014 -0.014961494 -0.022871442
000050 d7 ca ac 3c 9a 34 02 bc b8 65 69 3c 5f 2e 9d bb
       0.021092815 -0.0079471115 0.014245443 -0.0047967876
000060 86 73 14 3d bc f9 81 3c 01 05 4a 3c 2c 37 10 3d
       0.036242984 0.015866153 0.012330295 0.035208866
000070 c1 85 e8 3c 79 1a 71 3c f0 31 d3 3c 3b 63 fa 3c
       0.028384091 0.014715784 0.025780648 0.030564895
000080 ce 06 a3 3c 9f 46 b8 3c eb 9b 25 3d 52 4a 19 3d
       0.019900706 0.022494612 0.040431898 0.037424393
000090 b4 c5 30 3d 9f fd 9a 3c 27 b5 0d 3c e7 f2 c0 3c
       0.043157294 0.018919764 0.008649147 0.023553325
0000a0 d5 5e 4a bc ec fa 88 39 5b 10 00 3d 81 ba 27 3c
       -0.012351711 0.00026126893 0.031265598 0.010237337
0000b0 81 82 9a 3b 3d 4c a8 bb f9 94 82 3b 2d 58 8e bc
       0.0047152643 -0.0051360414 0.003985044 -0.01737603
0000c0 60 5b 47 3c 9b 7a 02 3d ef 26 58 3d 52 63 b2 3b
       0.012167782 0.031855207 0.052771505 0.005443969
0000d0 99 42 6a bb 80 7f 65 bc aa 2f fb 3b 00 48 d0 3c
       -0.0035745262 -0.014007449 0.007665594 0.025424957
0000e0 4d ac 16 3d 51 d2 fe 3b 80 29 f2 bb b7 f9 9f 3b
       0.036785413 0.0077765365 -0.007390201 0.0048820633
0000f0 97 4f 27 bc 79 12 b5 3a d9 c5 45 3c 2a e1 69 3d
       -0.010211847 0.0013814709 0.012071096 0.0570995
000100 f0 f2 d1 3c 21 e7 e9 3b 5f 99 82 3b a9 bf 8d bb
       0.025628537 0.0071381484 0.0039855684 -0.004325826
000110 86 26 ed 3c 1b 06 ce bc 60 8f 41 3d 61 50 9b 3c
       0.028949033 -0.025149396 0.047255874 0.018959226
000120 ba 27 0d bd b1 2e 9e 3c 1c e2 80 bc 88 28 73 3c
       -0.034461714 0.019309374 -0.015732817 0.014841206
000130 07 70 e5 3c 15 5d 66 3c 63 28 54 3c 1e 95 86 3c
       0.02800752 0.014060278 0.012949082 0.016428526
000140 96 cd 19 3c 75 8d 3e 3c 72 1c ee 3c 2d 3a 72 b8
       0.009387394 0.011630406 0.029066298 -5.7751477e-05
000150 ba 04 24 3d 8e 7c 8a bc 6a c9 9a bc a5 56 f3 3b
       0.04004357 -0.016905095 -0.01889487 0.0074261003
000160 32 36 7d 3b e9 9c 1e 3d 65 cd 06 3d c6 c0 a6 3c
       0.003863704 0.03872386 0.032910723 0.020355593
000170 28 a4 8d 3c dd 8e 23 3c 0a b6 3a bc 66 a5 47 3c
       0.01729019 0.009982792 -0.011395941 0.01218543
000180 64 ee d5 3c a6 3c 34 bd 36 39 88 3c 41 92 51 3c
       0.02611465 -0.04400315 0.016628843 0.012791217
000190 72 4c 3f bd fd 35 e6 bb 33 b4 94 3c 7b 08 82 3c
       -0.046703763 -0.007025479 0.018152332 0.015873184
0001a0 31 70 9a 3b 83 ec 3a 3d d8 74 ee b9 94 cf 6e bc
       0.0047130813 0.04563571 -0.00045481953 -0.014575858
0001b0 b2 88 9e 3c 3e 82 18 bc 10 94 2e 3b 88 d2 3d bd
       0.01935229 -0.009308396 0.0026638545 -0.046343356
0001c0 ab 17 7c 3b 29 80 6e 3d ce c1 f0 3b ed 0a ec bc
       0.0038466256 0.05822769 0.007347322 -0.028813804
0001d0 35 bc 3b 3c dd 94 bf 3c c0 b0 7e 3c d1 64 21 3d
       0.011458446 0.023386413 0.01554507 0.039402787
0001e0 8c 8c d1 3c 3a ef d6 3b e9 c6 a2 3c 0c 38 f3 3c
       0.025579713 0.0065592797 0.019870238 0.029689811
0001f0 f5 6b 5c 3d bb 09 05 3d 57 d5 27 3d fc 96 ae 3c
       0.053813893 0.032479983 0.04097494 0.02131223

network_body.linear_encoder.seq_layers.0.weight f4 [128, 28]
000000 d6 24 e8 3d 20 25 c7 bc 52 49 81 3e 3e 44 59 3e
       0.11335151 -0.024309695 0.2525125 0.21217439
000010 25 10 7c bd 51 96 9a be da 0f 7b 3e 0c e8 87 bd
       -0.061538834 -0.30192807 0.24517766 -0.06636056
000020 56 dc aa 3e 17 c3 17 3e cf b7 7d bd 12 7b 9b bc
       0.33371228 0.14820515 -0.06194287 -0.018979583
000030 2e 87 c7 be fe 92 6f 3c ca 58 d4 3d 91 b3 4a 3e
       -0.3897032 0.014622448 0.10368498 0.19795062
000040 24 ae 5b bc 8c 5b bd 3e c6 e5 76 be 57 0f e2 3c
       -0.013408218 0.36983907 -0.24111089 0.027595205
000050 6e 0f 06 be c6 bc 07 bd 57 06 df bd d3 12 3c 3e
       -0.13091823 -0.033139013 -0.10889881 0.18366556
000060 7b ab 2f 3e 61 36 d0 bd 8e 31 c3 3d f3 24 fb 3d
       0.17155258 -0.10166622 0.09530936 0.12262907
000070 5e 74 9d 3d 8c bd d6 3a d2 c0 a2 bc 08 8d 4b be
       0.07688211 0.0016383394 -0.019867335 -0.19878018
000080 7e e1 a8 3e 76 7f b0 bd 00 2d 9d 3d 50 25 95 3d
       0.32984537 -0.08618061 0.07674599 0.072825074
000090 12 8f 8d 3e 3a 33 6d be e6 c6 0a bd fe 9e cf 3d
       0.27648216 -0.23164073 -0.03388109 0.10137747
0000a0 dc c1 1b 3e 02 0a d9 3c 8b ff 2c 3e 90 5a 31 bc
       0.1521067 0.02649403 0.16894357 -0.010824814
0000b0 0a a8 a6 bd 1f 9c 9b 3e 68 e4 84 3c 98 19 1e be
       -0.0813752 0.30392548 0.016222194 -0.1543945
0000c0 8d f5 ac be a8 4e db bd 2b c2 e7 3b 72 97 3e 3e
       -0.3378109 -0.10708362 0.007072707 0.1861246
0000d0 ed 28 a3 bc 77 88 87 bd 00 94 bb be f8 66 b8 3d
       -0.019916976 -0.066178255 -0.36636353 0.09004015
0000e0 da ab c3 3d b5 fb 33 3e ce 86 cd 3d d4 61 00 3e
       0.095542625 0.17576487 0.100354776 0.12537318
0000f0 a6 91 00 be 59 44 cd bd c3 76 7c 3e 25 83 a7 bc
       -0.1255556 -0.10022802 0.24654679 -0.020448277
000100 81 2d a0 3e cd 27 1f bd 7c 04 56 3e 09 28 b7 bd
       0.31284717 -0.038856316 0.20900148 -0.08943183
000110 67 e1 74 3e c5 21 9b 3e 86 ae 03 3f 13 bf a9 be
       0.23914109 0.30299202 0.51438177 -0.3315359
000120 40 12 a5 3c bf b2 bf bc 27 06 10 be d7 f4 4e be
       0.020150304 -0.023400662 -0.14064847 -0.20210586
000130 af a1 1d bc 8b 87 de be 39 2e b5 bd d9 64 93 be
       -0.009621068 -0.43462786 -0.08846707 -0.28787878
000140 31 76 b9 bc f5 e4 96 3e 8c d1 81 be 23 55 73 3e
       -0.022639366 0.29471555 -0.25355184 0.23762946
000150 b1 ee 47 be b9 5f bc be 12 db 96 3e 5d f8 8c be
       -0.19524647 -0.3679178 0.29464012 -0.27533236
000160 a9 da 1b be 50 f5 e4 bd e6 73 14 be 3e dd 20 be
       -0.15220131 -0.11179602 -0.14497337 -0.15709397
000170 46 d4 da 3d 96 80 94 3e dc 79 f3 3b a0 a1 19 3e
       0.10685019 0.29004353 0.0074302983 0.15003061
000180 c8 01 73 bd 33 ec 8a 3d 28 25 13 be d8 78 a8 bc
       -0.05932787 0.06783333 -0.14369643 -0.020565435
000190 4a 50 0e 3d ce 5d 99 3d cc e2 46 3e 36 3c 8a bd
       0.03474454 0.07488595 0.19422454 -0.067497656
0001a0 04 46 d3 3c e3 bc 61 3e 6b d9 9f be ac 03 04 3e
       0.025790222 0.22044711 -0.31220564 0.12892026
0001b0 b5 8b 2b be bd dc 81 3d 8d 38 cb 3d 37 f3 2f be
       -0.16752513 0.063409306 0.099228956 -0.17182623
0001c0 82 54 c8 3d e3 e9 f8 bb 11 b7 86 3e 64 d6 90 3e
       0.097817436 -0.007596241 0.26311544 0.28288567
0001d0 12 22 14 be 08 70 97 3e 9b 29 90 bd 84 2f 1f 3e
       -0.14466122 0.2957766 -0.070391856 0.1554547
0001e0 79 d9 9d 3d eb fc ab 3e 2a 61 0a 3e 1b 96 bc bd
       0.07707495 0.335914 0.13513628 -0.09208318
0001f0 1e 1e 5b 3d 62 9d 04 bd 31 d5 7d 3e c8 6b 8a be
       0.05349552 -0.032376654 0.24788357 -0.27035356
000200 9c 7d f3 bd 4c a3 4e ba ef 9e 97 bd dc 80 9b be
       -0.118891925 -0.00078826095 -0.07403361 -0.3037175
000210 33 1f 02 3d 8c dd 1f be b0 56 24 be ab 46 35 be
       0.031768035 -0.15611857 -0.16048694 -0.17702739
000220 cc 3e ce be 4f ac 05 3e 82 76 d9 bd 55 1b 18 3d
       -0.40282285 0.13054012 -0.10618307 0.03713544
000230 77 86 52 bd f7 86 32 3d bf 46 30 be 2a b4 86 3e
       -0.051397767 0.043585744 -0.17214487 0.2630933
000240 e5 db 82 be f3 3a 7e bd d5 44 8d bd 9e 90 8d bd
       -0.2555839 -0.062067937 -0.06897894 -0.06912349
000250 b8 d7 39 be d3 64 78 bc 74 58 68 be 62 5a 85 3e
       -0.18148696 -0.015160757 -0.22689992 0.2604552
000260 cd 4a 39 bf 3b d1 46 3e 64 ee 11 3f f0 b3 1c bd
       -0.7237976 0.19415753 0.5700438 -0.03825754
000270 44 60 0b be 01 a5 ab 3d 47 f0 b0 3d e7 f5 88 3e
       -0.13610941 0.08381081 0.08639579 0.2675011
000280 9e d7 c5 3d a3 4a 18 bc a0 9b da 3e e4 a5 58 3e
       0.09660266 -0.0092951385 0.42696857 0.21157032
000290 50 46 bc be 11 18 2a 3e 2e ad 3b 3e c5 0b 88 bd
       -0.36772394 0.16610743 0.18327782 -0.0664287
0002a0 e2 f5 67 3e c4 aa 90 3e 21 15 9e be 7f 7d e7 bc
       0.2265239 0.28255284 -0.30875495 -0.028258083
0002b0 80 9e 55 3d 98 60 f4 3c 19 c9 3b 3e 83 10 7b be
       0.05215311 0.029831216 0.18338431 -0.24518017
0002c0 c3 c3 1c bd 61 43 0c 3e 61 c3 c5 3e fe af 82 3e
       -0.03827263 0.13697578 0.38625625 0.25524896
0002d0 92 df 51 be 97 75 13 3e 35 94 4d 3e fe 3c 5d bd
       -0.20495442 0.14400326 0.20076068 -0.054013245
0002e0 fb 1f 95 bc 06 21 e8 3d bb 62 f3 3d 11 d0 0e 3c
       -0.018203726 0.11334424 0.11884066 0.008716599
0002f0 2d b1 40 3e eb e9 7a bd 1e f0 85 3e 3c e0 d7 3e
       0.18817587 -0.061258238 0.26159757 0.42163265
000300 b6 9d 1e 3d b6 92 a7 be c8 6e 19 3e 5e 7a 04 3e
       0.038724624 -0.3272912 0.14983666 0.12937304
000310 2a b4 b6 3e 8b 53 4f 3d ef 1d 3a 3d 1e 0d e5 bd
       0.3568433 0.050616782 0.045438703 -0.111841425
000320 7d 74 2b bc 72 dc b1 3d 7a 05 0d 3e 1a 71 f8 bd
       -0.010464785 0.08684625 0.1377162 -0.121309474
000330 5d 25 43 3e 66 4b 89 3e 99 df 8a 3e a3 c8 aa bd
       0.19057222 0.26815337 0.27123716 -0.0833905
000340 b2 09 2b 3d eb b6 ca 3d 53 e9 5f be 7a de 07 3c
       0.041757293 0.0989817 -0.2186635 0.008292789
000350 b7 01 04 3e df f4 84 3d 30 3f 75 3e a7 ad e0 bd
       0.12891279 0.06492018 0.23949885 -0.109706216
000360 20 a3 28 3e 9f 21 27 bf 59 66 4e be e1 24 84 be
       0.16468477 -0.65285677 -0.2015623 -0.25809386
000370 37 34 a0 bc 3c 45 93 be 29 05 ad be ae 60 e1 bd
       -0.019556148 -0.2876376 -0.33793 -0.11004768
000380 75 cf d0 3d ca df 4d 3e 97 7e 72 bd 89 d9 d1 bd
       0.10195819 0.201049 -0.059202757 -0.1024657
000390 ea 5e c4 3d 92 d7 1a 3d 81 9e df bd 77 f6 55 be
       0.09588416 0.03780324 -0.10918904 -0.208948
0003a0 1f f6 2f be ba df d2 3e e1 45 26 bd 04 d9 ea 3c
       -0.17183731 0.41186315 -0.040593985 0.028667934
0003b0 d9 08 d0 bc 7a ea 1e 3e 36 6b 97 3e 12 89 f6 bb
       -0.025394844 0.15519133 0.29573983 -0.0075236643
0003c0 f6 40 8b bd 81 33 84 be 31 96 6e bd 81 62 0a be
       -0.067995 -0.25820544 -0.058248702 -0.13514139
0003d0 c1 8d c5 be 9f 00 1e 3e 85 f3 bd be b8 f1 41 bd
       -0.38584712 0.15429924 -0.37099853 -0.04734966
0003e0 c4 8a 34 3d f2 f4 b2 bd 9a b7 89 3e 18 1e c3 3d
       0.04407765 -0.08738126 0.2689789 0.09527224
0003f0 39 cd c2 3e 2b 24 8e bd 7a 8c 41 be ea c4 6a 3d
       0.38047197 -0.06940492 -0.18901244 0.057316698

network_body.linear_encoder.seq_layers.2.bias f4 [128]
000000 94 01 85 3b 56 dc 5f 3c a8 9a 52 bc 61 cb c9 3c
       0.004059026 0.013663372 -0.012854256 0.024633111
000010 04 02 e1 3c 39 22 4c 3c a1 ee ab 3b ba 01 2d 3c
       0.027466781 0.012459331 0.0052469526 0.010559494
000020 80 83 d8 bc 18 24 57 bc aa 0b 0d bc a0 5c 59 bc
       -0.026429892 -0.013131164 -0.008608738 -0.013266712
000030 3b 72 0b 3d 88 84 a3 3b d7 c0 f3 3c e2 3e a2 3c
       0.034044486 0.004990164 0.02975504 0.019805375
000040 8b c8 f5 3c 16 05 97 3c d1 0c 0c 3c 49 0b 92 bb
       0.030002853 0.018435042 0.008547978 -0.0044569117
000050 5b a3 b5 3a 68 24 fd bb 2c 8a 9d 3c 0b 72 98 3c
       0.0013857888 -0.007725287 0.019230925 0.018609067
000060 92 ae 48 3c b0 9b 47 3c 1a 35 1f 3c 5d 74 be 3a
       0.012248652 0.012183115 0.00971725 0.0014530529
000070 71 1e b1 3c 86 65 e5 3c 5e 0b e1 3c 08 bc 7f 3c
       0.02162096 0.028002512 0.02747124 0.015608795
000080 cf 9d 92 3c 99 1a d8 bc aa 49 a1 3b bc 2e 49 3d
       0.017897515 -0.02637987 0.0049221115 0.049116835
000090 2b 50 77 3c 07 36 49 ba 75 04 89 3c d5 6e 8d ba
       0.015094797 -0.0007675592 0.016725758 -0.0010790477
0000a0 58 2e 03 3c aa 5e 45 3b 6d 93 b8 3c 73 17 f0 3b
       0.008006655 0.0030116239 0.022531236 0.007327014
0000b0 e2 d2 e3 3b 82 df 18 bc f7 e1 3c 3c 02 a1 10 3d
       0.0069526294 -0.009330632 0.011528484 0.0353098
0000c0 23 09 5b 3c 0d c8 a8 3c d1 dc f5 3b ac c5 b1 3c
       0.013368878 0.020603204 0.00750313 0.021700703
0000d0 18 3d de 3c 1c 69 1e bc cf 89 a9 bb c4 13 86 3c
       0.027128741 -0.009668615 -0.005173899 0.016366847
0000e0 72 09 18 3d 02 b6 a6 3c 67 09 99 bb b9 aa ef 3c
       0.037118383 0.02035046 -0.0046703103 0.029256212
0000f0 a6 88 ad bc d5 14 6d bc 66 8b ea bb a5 99 d3 3c
       -0.021183323 -0.014470299 -0.007157731 0.0258301
000100 5f c1 5d b9 ed 98 4f ba c9 99 b7 3c 53 98 2d bc
       -0.00021148239 -0.0007919211 0.022412198 -0.010595399
000110 5d 25 7a b9 27 90 d4 3c 9d 58 ad 3c 7e 05 cf 3c
       -0.00023855777 0.025947643 0.021160418 0.025271174
000120 0e 05 24 3c 70 f9 44 ba e3 38 48 bc be 4d c7 bc
       0.010010971 -0.0007513976 -0.012220594 -0.024329063
000130 23 0a c9 bb 96 e0 61 3b 9f 8d 5e 3c 36 3a 1c bc
       -0.0061352416 0.003446614 0.01358357 -0.009535363
000140 4a 51 f5 3b 76 eb 13 bc 84 3a 32 bc ea 2c ee 3c
       0.007486497 -0.009028306 -0.010878209 0.029074151
000150 4a 49 87 3c 5c c6 d7 3c db 55 80 3c 7a 00 b3 3c
       0.01651444 0.026339702 0.01566594 0.021850813
000160 16 bc c0 3b 5e 34 a0 3c fa 97 e9 3c 6b 84 df bb
       0.0058817966 0.01955622 0.02851485 -0.0068212054
000170 56 cf 80 3c a4 59 97 3a 99 32 c2 bc 2c 41 36 bb
       0.015723865 0.0011547101 -0.023705767 -0.0027809842
000180 2f 7d 92 3c 7b cc 0a 3c 5a eb b6 bb 03 37 63 bc
       0.017881958 0.0084716035 -0.0055822553 -0.013868096
000190 17 4f 66 3c 32 ec 92 3b 71 24 23 3a 12 d4 b2 ba
       0.014056942 0.004483723 0.0006223387 -0.0013643524
0001a0 f6 a8 68 3b 60 7f f2 3c 05 1b be 3b a6 40 08 3c
       0.00355011 0.029601753 0.005801561 0.008316195
0001b0 07 a3 c0 3c 7c a0 20 3d 82 31 18 bc 4c 8f d7 3c
       0.023515237 0.03921555 -0.009289147 0.026313446
0001c0 8a df b5 39 5e d4 dd 3c d8 27 41 3c 5a 2c 90 3c
       0.0003468956 0.027078804 0.011789285 0.017599273
0001d0 1e 68 19 b9 f2 43 1f 3d 79 e5 99 3c 49 66 bb bb
       -0.00014630004 0.038883157 0.018786179 -0.0057189805
0001e0 87 a9 ff 3b 13 48 9d 3c 3b f6 6e 3c dc 22 0f bc
       0.0078021917 0.019199407 0.014585073 -0.0087363385
0001f0 ba 20 e7 3c 5e 3b 53 3c a3 8f 62 3c 7c 62 14 3c
       0.028213847 0.012892572 0.013828191 0.009056684

network_body.linear_encoder.seq_layers.2.weight f4 [128, 128]
000000 45 89 26 3d c8 12 db bd 44 a6 ac be b5 c5 93 3d
       0.040658254 -0.106969416 -0.337206 0.07215444
000010 2c 38 13 bd c7 09 31 3d 50 81 aa 3c b2 37 cb bd
       -0.03594224 0.043222215 0.020813614 -0.099227324
000020 a4 7c 0e 3e a5 b2 2b be 84 b5 f3 bd f7 f1 82 bd
       0.13914734 -0.16767366 -0.11899856 -0.063938074
000030 8a 4e cd 3d 61 e4 f2 bd 10 21 0c 3d 89 6b 79 bd
       0.10024746 -0.11859966 0.03421122 -0.06089357
000040 1f 5d de 3d 38 6a 0e be b8 15 6f bd ad d4 7e bc
       0.10857605 -0.13907707 -0.058370322 -0.015553636
000050 fa 46 83 3d 17 89 6d 3c 42 b5 27 bd e7 98 ee 3d
       0.06410022 0.014498017 -0.040944345 0.116502576
000060 a8 be b0 3d c0 bc 5c 3c 77 76 a6 3d 0a f4 6a bd
       0.08630115 0.013472736 0.08128064 -0.05736164
000070 04 66 0c be f7 56 a0 bd ad 01 07 3e 54 cf bc 3c
       -0.13710791 -0.07829087 0.13184233 0.02304808
000080 33 9d a4 3c f9 e0 c1 3d b1 8c 80 bd fe 9b 23 bc
       0.02009449 0.09466738 -0.06276835 -0.009985922
000090 81 74 8a 3d 51 4b 6a bd 59 de 3d bd 9f 03 01 3c
       0.067605026 -0.057200734 -0.046354625 0.0078743985
0000a0 85 9d 7c bd ca d0 98 bd bb af 4d 3e 82 c3 15 bd
       -0.06167366 -0.07461698 0.20086567 -0.036563404
0000b0 ed 58 3f 3e 2b d7 a7 bc b6 cb b4 3d 0e 6a ed 3d
       0.18686266 -0.020488342 0.08827917 0.11592494
0000c0 09 eb e4 bc 61 f4 1e bd fa 5f 1b bd 07 3a be 3d
       -0.027944105 -0.038807277 -0.037933327 0.092884116
0000d0 e3 5d 53 3d e9 10 78 3c e3 68 8e bc 4b 4b 2b bc
       0.05160321 0.01514075 -0.017383998 -0.010454963
0000e0 72 81 a5 bc c3 16 88 3d 43 cc 81 bd 00 ca d1 3d
       -0.020203326 0.066449665 -0.06337788 0.102436066
0000f0 56 2b e4 3c 2e 37 c9 3d 90 f4 32 be 1f df 0e 3e
       0.027852695 0.09824978 -0.17476106 0.13952301
000100 86 a7 c9 bd 82 64 8d 3b 83 cf 61 b9 a5 3d 77 bd
       -0.09846406 0.00431496 -0.00021534976 -0.060361523
000110 59 88 6b 3c 3d 09 9f 3d 8c 06 3a 3d e0 57 9f 3d
       0.0143757695 0.07765434 0.0454164 0.07780433
000120 b1 4f ef 3d a7 db 7b bd ec c0 62 3d d3 f4 e3 3d
       0.11685122 -0.061488774 0.055359766 0.11130681
000130 6c d5 1f 3d ec 4c 1e 3e 02 af b4 3d 83 c9 0a be
       0.039021894 0.15459031 0.088224426 -0.13553433
000140 15 58 25 be 3a 66 6e 3d 1b f4 17 bd fd 7c 11 be
       -0.16146882 0.05820296 -0.03709803 -0.14207835
000150 9c da e0 3c 5b cb b4 3c e2 09 55 bd f0 d5 15 3e
       0.027447991 0.022069624 -0.052011378 0.14632392
000160 7e 0e 16 3e 47 11 84 3d a6 df d4 3d 06 88 bb bd
       0.14653966 0.06448608 0.1039422 -0.09156804
000170 65 8a e1 3d cd a9 fb bd ea 82 19 3d fc 4b b4 3d
       0.11012725 -0.12288246 0.037478365 0.08803555
000180 9c 41 cc bd 0b b1 36 be 6d ed 10 bc cf 7f 4e bd
       -0.099734515 -0.17840974 -0.008845669 -0.050414857
000190 c4 74 c0 3d b6 96 09 bd 98 19 ca bd 32 5e 38 3c
       0.09397271 -0.033590995 -0.09868163 0.011252927
0001a0 39 ef 5b bd 99 cd 2b be 0e 14 4e 3d 4b 38 7d 3d
       -0.053694937 -0.16777648 0.050312094 0.061821263
0001b0 9c c1 34 3d 1c 72 25 3d 50 ab 84 3b 64 83 71 bd
       0.044129953 0.040392026 0.0040487424 -0.058963194
0001c0 80 a1 b6 3d aa 4d ca bd a7 6e 58 3d 00 12 76 3c
       0.089175224 -0.098780945 0.0528399 0.01501894
0001d0 3a e7 97 bd 86 27 0d bd ec 28 a9 3d ba 54 51 bd
       -0.0741715 -0.03446152 0.08259758 -0.051106192
0001e0 c7 48 0e be 8c 6e 94 3d e9 84 d9 bd 6c 79 b3 3d
       -0.1389495 0.07247648 -0.10621054 0.08763394
0001f0 25 1d 86 bd df 6a f0 3c c6 2a 5d bd ee c0 29 bd
       -0.06548528 0.029347835 -0.05399587 -0.041443758
000200 ac d6 af bd 3d 76 11 bc 78 c9 fb bd 14 f8 ed bd
       -0.08585867 -0.008878288 -0.122942865 -0.11619583
000210 52 e8 cc 3b e1 43 5e bd f3 3a 44 3d 63 4b 9a bd
       0.0062532807 -0.054263953 0.04790778 -0.0753391
000220 bd 9b 9a 3d 2e 36 fe 3c 83 74 b8 3d ca 52 58 bd
       0.07549236 0.031031694 0.09006598 -0.05281333
000230 21 a3 ac bd 1e c6 4c be 32 d9 dd 3d 76 81 6e 3c
       -0.08429552 -0.1999745 0.10832442 0.014557233
000240 e2 53 cc bd f5 58 47 3d fd 1e 94 3d ff 45 94 3d
       -0.09976937 0.04866882 0.07232473 0.07239913
000250 32 a0 51 3d 81 f4 5e be ad 59 69 3d 71 26 01 bb
       0.051178165 -0.21772958 0.056970287 -0.001970675
000260 1b 09 1e bd 09 1f 62 bd a3 7f 90 3c 78 13 35 be
       -0.038582902 -0.05520538 0.017638987 -0.17683208
000270 72 71 5d 3e 17 ac 2f 3c 78 1e 81 bd 31 95 fe bc
       0.21625307 0.010722182 -0.063046396 -0.031077
000280 21 ad 23 bd ac 56 d7 3d a4 9f 11 3d e7 d0 70 be
       -0.03996003 0.10514578 0.035552636 -0.2351719
000290 b3 aa 1d bc cf 33 9c bc 1a 79 9e bd c8 4e 50 bd
       -0.009623217 -0.019067673 -0.07737942 -0.05085638
0002a0 e2 59 25 bd 8b 02 3e 3e cd 7c d5 3b 10 b6 a1 3d
       -0.040368922 0.18555658 0.0065151216 0.07896054
0002b0 93 31 ce 3d 6b 47 df bd f2 c8 e2 bd e8 e7 73 bc
       0.10068049 -0.10902294 -0.110734835 -0.014886834
0002c0 e4 d4 51 3c 4b 51 b9 3b ae 5a e1 3d cc b9 be 3d
       0.012807105 0.005655443 0.11003624 0.09312782
0002d0 9f 94 b2 bd 00 26 bd bb 71 da 4d 3e 3c 8d 3a bd
       -0.087197535 -0.005772352 0.2010286 -0.045544848
0002e0 0e f1 6a bd 82 98 50 3d 83 1a c7 3b a4 67 25 3d
       -0.057358794 0.050926693 0.0060761585 0.040382043
0002f0 9e 25 d8 bd 37 0e 9c bd 92 3b 41 3c 01 84 c7 bd
       -0.1055405 -0.07619899 0.011793988 -0.097419746
000300 29 63 a1 bc 8c 10 5c 3d f1 22 dd 3d 2d 34 b1 3c
       -0.019700604 0.053726718 0.1079768 0.021631325
000310 c6 e9 ab 3b c8 0b 13 3e d2 5f ef 3d 75 4f 17 3e
       0.005246374 0.14359963 0.11688198 0.14776404
000320 23 f8 82 bc 1d 39 2b 3d 3a 8f 32 bd 06 b7 e5 3d
       -0.015987461 0.041802514 -0.043593623 0.112165496
000330 49 0a da bd 70 e3 a1 bc af 02 aa 3d a1 08 4d 3e
       -0.10646493 -0.019761771 0.08301293 0.20022823
000340 87 bf 86 bd cf 2e c6 bd 20 cd 19 be 2f 5f a6 3d
       -0.065795 -0.09676897 -0.15019655 0.081236236
000350 66 67 79 bd cb 69 8e 3d 77 b4 c8 3d d5 02 f6 bd
       -0.060889624 0.06953772 0.09800046 -0.12012259
000360 7a 3a d8 bd 58 22 86 be 7c 23 39 3d ad b8 96 bd
       -0.105580285 -0.26198077 0.045199856 -0.07359443
000370 fc 15 f8 3d d6 44 10 bd ad f5 ff bc 0f 59 08 be
       0.12113568 -0.035221897 -0.031245077 -0.13315223
000380 d5 62 87 bd d1 68 a1 3c b3 2c c8 bb 59 1c d2 bc
       -0.066106476 0.0197033 -0.006108844 -0.025648283
000390 19 aa cf bd 67 68 1d bd c0 f0 b8 bd 86 67 32 3e
       -0.101398654 -0.038429644 -0.090302944 0.17422304
0003a0 4e b4 2c 3d 4e f5 b0 bd 12 a1 1d bd f9 81 34 3d
       0.04216414 -0.08640538 -0.038483687 0.044069264
0003b0 c5 1c 82 bd d7 61 ef 3d 80 c5 08 3e 72 cc 36 bd
       -0.063531436 0.11688583 0.1335659 -0.044628568
0003c0 4d 3c 92 bb 41 5c 82 bd 1d cf 87 3d fd a1 97 bd
       -0.004462755 -0.06365252 0.066313006 -0.07403944
0003d0 dd 64 7d 3e 9c 2b 2a 3d b2 4d ca 3d 84 5a d2 3d
       0.24745508 0.041545495 0.098781005 0.10271171
0003e0 98 ad b6 bd ab e0 8b 3c d7 28 0c bd 06 80 0c be
       -0.08919829 0.017074903 -0.034218635 -0.13720712
0003f0 a0 45 5c be 16 43 b7 3d 7c ac a5 3b b0 e5 22 3d
       -0.21510935 0.089483425 0.005055962 0.03976983
